ST Edge AI Core v2.2.0-20266 2adc00962
Created date          : 2026-03-28 16:06:35
Parameters            : generate --target stm32f7 --name forecast_temp_ml_model -m C:/Users/rishi_latchmepersad/Downloads/residual_rnn_int8 (1).tflite --compression none --verbosity 1 --workspace C:/Users/RISHI_~1/AppData/Local/Temp/mxAI_workspace13662283735213009676005260849307093 --output C:/Users/rishi_latchmepersad/.stm32cubemx/forecast_temp_ml_model_output

Exec/report summary (generate)
-------------------------------------------------------------------------------------------------------------------------------
model file         :   C:\Users\rishi_latchmepersad\Downloads\residual_rnn_int8 (1).tflite                                     
type               :   tflite                                                                                                  
c_name             :   forecast_temp_ml_model                                                                                  
compression        :   none                                                                                                    
options            :   allocate-inputs, allocate-outputs                                                                       
optimization       :   balanced                                                                                                
target/series      :   stm32f7                                                                                                 
workspace dir      :   C:\Users\RISHI_~1\AppData\Local\Temp\mxAI_workspace13662283735213009676005260849307093                  
output dir         :   C:\Users\rishi_latchmepersad\.stm32cubemx\forecast_temp_ml_model_output                                 
model_fmt          :   ss/ss per tensor                                                                                        
model_name         :   residual_rnn_int8_1                                                                                     
model_hash         :   0x57394cb92bd8ef801469af0172a4bbeb                                                                      
params #           :   4,400 items (10.06 KiB)                                                                                 
-------------------------------------------------------------------------------------------------------------------------------
input 1/1          :   'serving_default_se..r_history0', int8(1x48x9), 432 Bytes, QLinear(0.198391721,-92,int8), activations   
output 1/1         :   'eltwise_448', int8(1x24), 24 Bytes, QLinear(0.169678345,-128,int8), activations                        
macc               :   79,968                                                                                                  
weights (ro)       :   2,944 B (2.88 KiB) (1 segment) / -14,656(-83.3%) vs float model                                         
activations (rw)   :   3,064 B (2.99 KiB) (1 segment) *                                                                        
ram (total)        :   3,064 B (2.99 KiB) = 3,064 + 0 + 0                                                                      
-------------------------------------------------------------------------------------------------------------------------------
(*) 'input'/'output' buffers are allocated in the activations buffer

Model name - residual_rnn_int8_1
------ ------------------------------------------------ -------------------------------------------------------------------------------------------------------------------------------------------------------------------------------------------------------------------------------------------------------------------------------------------------------------------------------------------------------------------------------------------------------------------------------------------------------------------------------------------------- ------------ ------ -------------------------------- --- --------------- ---------------- ---------------------- 
m_id   layer (type,original)                            oshape                                                                                                                                                                                                                                                                                                                                                                                                                                                                                             param/size     macc                     connected to   | c_size          c_macc           c_type                 
------ ------------------------------------------------ -------------------------------------------------------------------------------------------------------------------------------------------------------------------------------------------------------------------------------------------------------------------------------------------------------------------------------------------------------------------------------------------------------------------------------------------------------------------------------------------------- ------------ ------ -------------------------------- --- --------------- ---------------- ---------------------- 
0      serving_default_se..r_history0 (Input, )         [b:1,h:48,c:9]                                                                                                                                                                                                                                                                                                                                                                                                                                                                                                                                            |                                  Slice_[438]            
       slice_0 (Slice, STRIDED_SLICE)                   [b:1,h:24,c:1]                                                                                                                                                                                                                                                                                                                                                                                                                                                                                                           serving_default_se..r_history0   |                                  
       reshape_0_reshape (Reshape, STRIDED_SLICE)       [b:1,c:24]                                                                                                                                                                                                                                                                                                                                                                                                                                                                                                                                      slice_0   |                                  
------ ------------------------------------------------ -------------------------------------------------------------------------------------------------------------------------------------------------------------------------------------------------------------------------------------------------------------------------------------------------------------------------------------------------------------------------------------------------------------------------------------------------------------------------------------------------- ------------ ------ -------------------------------- --- --------------- ---------------- ---------------------- 
4      constantofshape_4_const (Placeholder, FILL)      [b:1,c:24]                                                                                                                                                                                                                                                                                                                                                                                                                                                                                         24/24                                                  | -24(-100.0%)                     
------ ------------------------------------------------ -------------------------------------------------------------------------------------------------------------------------------------------------------------------------------------------------------------------------------------------------------------------------------------------------------------------------------------------------------------------------------------------------------------------------------------------------------------------------------------------------- ------------ ------ -------------------------------- --- --------------- ---------------- ---------------------- 
5      arith_constant51 (Placeholder, )                 [b:24,c:24]                                                                                                                                                                                                                                                                                                                                                                                                                                                                                        576/576                                                | +120(+20.8%)    +600(+100.0%)    Dense_[0]              
       gemm_5 (Gemm, FULLY_CONNECTED)                   [b:1,c:24]                                                                                                                                                                                                                                                                                                                                                                                                                                                                                                         600          constantofshape_4_const   |                 -600(-100.0%)    
                                                                                                                                                                                                                                                                                                                                                                                                                                                                                                                                                                                               arith_constant51   | 
------ ------------------------------------------------ -------------------------------------------------------------------------------------------------------------------------------------------------------------------------------------------------------------------------------------------------------------------------------------------------------------------------------------------------------------------------------------------------------------------------------------------------------------------------------------------------- ------------ ------ -------------------------------- --- --------------- ---------------- ---------------------- 
6      transpose_6 (Transpose, TRANSPOSE)               [b:48,h:1,c:9]                                                                                                                                                                                                                                                                                                                                                                                                                                                                                                       4   serving_default_se..r_history0   |                 +212(+5300.0%)   Transpose_[2]          
------ ------------------------------------------------ -------------------------------------------------------------------------------------------------------------------------------------------------------------------------------------------------------------------------------------------------------------------------------------------------------------------------------------------------------------------------------------------------------------------------------------------------------------------------------------------------- ------------ ------ -------------------------------- --- --------------- ---------------- ---------------------- 
7      unpack_7 (Unpack, UNPACK)                        [b:1,c:9][b:1,c:9][b:1,c:9][b:1,c:9][b:1,c:9][b:1,c:9][b:1,c:9][b:1,c:9][b:1,c:9][b:1,c:9][b:1,c:9][b:1,c:9][b:1,c:9][b:1,c:9][b:1,c:9][b:1,c:9][b:1,c:9][b:1,c:9][b:1,c:9][b:1,c:9][b:1,c:9][b:1,c:9][b:1,c:9][b:1,c:9][b:1,c:9][b:1,c:9][b:1,c:9][b:1,c:9][b:1,c:9][b:1,c:9][b:1,c:9][b:1,c:9][b:1,c:9][b:1,c:9][b:1,c:9][b:1,c:9][b:1,c:9][b:1,c:9][b:1,c:9][b:1,c:9][b:1,c:9][b:1,c:9][b:1,c:9][b:1,c:9][b:1,c:9][b:1,c:9][b:1,c:9][b:1,c:9]                                                                                            transpose_6   |                                  Unpack_[3]             
------ ------------------------------------------------ -------------------------------------------------------------------------------------------------------------------------------------------------------------------------------------------------------------------------------------------------------------------------------------------------------------------------------------------------------------------------------------------------------------------------------------------------------------------------------------------------- ------------ ------ -------------------------------- --- --------------- ---------------- ---------------------- 
8      arith_constant410 (Placeholder, )                [b:24,c:9]                                                                                                                                                                                                                                                                                                                                                                                                                                                                                         216/216                                                | +96(+44.4%)     +240(+100.0%)    Dense_[4]              
       arith_constant110 (Placeholder, )                [b:24]                                                                                                                                                                                                                                                                                                                                                                                                                                                                                             24/96                                                  | -96(-100.0%)                     
       gemm_8 (Gemm, FULLY_CONNECTED)                   [b:1,c:24]                                                                                                                                                                                                                                                                                                                                                                                                                                                                                                         240                         unpack_7   |                 -240(-100.0%)    
                                                                                                                                                                                                                                                                                                                                                                                                                                                                                                                                                                                              arith_constant410   | 
                                                                                                                                                                                                                                                                                                                                                                                                                                                                                                                                                                                              arith_constant110   | 
------ ------------------------------------------------ -------------------------------------------------------------------------------------------------------------------------------------------------------------------------------------------------------------------------------------------------------------------------------------------------------------------------------------------------------------------------------------------------------------------------------------------------------------------------------------------------- ------------ ------ -------------------------------- --- --------------- ---------------- ---------------------- 
9      eltwise_9 (Eltwise, ADD)                         [b:1,c:24]                                                                                                                                                                                                                                                                                                                                                                                                                                                                                                          24                           gemm_8   |                                  Eltwise/add_[5]        
                                                                                                                                                                                                                                                                                                                                                                                                                                                                                                                                                                                                         gemm_5   | 
------ ------------------------------------------------ -------------------------------------------------------------------------------------------------------------------------------------------------------------------------------------------------------------------------------------------------------------------------------------------------------------------------------------------------------------------------------------------------------------------------------------------------------------------------------------------------- ------------ ------ -------------------------------- --- --------------- ---------------- ---------------------- 
10     nl_10 (Nonlinearity, TANH)                       [b:1,c:24]                                                                                                                                                                                                                                                                                                                                                                                                                                                                                                         240                        eltwise_9   |                 -216(-90.0%)     Nonlinearity_[6]       
------ ------------------------------------------------ -------------------------------------------------------------------------------------------------------------------------------------------------------------------------------------------------------------------------------------------------------------------------------------------------------------------------------------------------------------------------------------------------------------------------------------------------------------------------------------------------- ------------ ------ -------------------------------- --- --------------- ---------------- ---------------------- 
11     conversion_11 (Conversion, QUANTIZE)             [b:1,c:24]                                                                                                                                                                                                                                                                                                                                                                                                                                                                                                          48                            nl_10   |                                  Conversion_[7]         
------ ------------------------------------------------ -------------------------------------------------------------------------------------------------------------------------------------------------------------------------------------------------------------------------------------------------------------------------------------------------------------------------------------------------------------------------------------------------------------------------------------------------------------------------------------------------- ------------ ------ -------------------------------- --- --------------- ---------------- ---------------------- 
12     gemm_12 (Gemm, FULLY_CONNECTED)                  [b:1,c:24]                                                                                                                                                                                                                                                                                                                                                                                                                                                                                                         600                    conversion_11   | +672(+100.0%)                    Dense_[8]              
                                                                                                                                                                                                                                                                                                                                                                                                                                                                                                                                                                                               arith_constant51   | 
------ ------------------------------------------------ -------------------------------------------------------------------------------------------------------------------------------------------------------------------------------------------------------------------------------------------------------------------------------------------------------------------------------------------------------------------------------------------------------------------------------------------------------------------------------------------------- ------------ ------ -------------------------------- --- --------------- ---------------- ---------------------- 
13     arith_constant111 (Placeholder, )                [b:24]                                                                                                                                                                                                                                                                                                                                                                                                                                                                                             24/96                                                  | +216(+225.0%)   +240(+100.0%)    Dense_[29]             
       gemm_13 (Gemm, FULLY_CONNECTED)                  [b:1,c:24]                                                                                                                                                                                                                                                                                                                                                                                                                                                                                                         240                         unpack_7   |                 -240(-100.0%)    
                                                                                                                                                                                                                                                                                                                                                                                                                                                                                                                                                                                              arith_constant410   | 
                                                                                                                                                                                                                                                                                                                                                                                                                                                                                                                                                                                              arith_constant111   | 
------ ------------------------------------------------ -------------------------------------------------------------------------------------------------------------------------------------------------------------------------------------------------------------------------------------------------------------------------------------------------------------------------------------------------------------------------------------------------------------------------------------------------------------------------------------------------- ------------ ------ -------------------------------- --- --------------- ---------------- ---------------------- 
14     arith_constant112 (Placeholder, )                [b:24]                                                                                                                                                                                                                                                                                                                                                                                                                                                                                             24/96                                                  | +216(+225.0%)   +240(+100.0%)    Dense_[34]             
       gemm_14 (Gemm, FULLY_CONNECTED)                  [b:1,c:24]                                                                                                                                                                                                                                                                                                                                                                                                                                                                                                         240                         unpack_7   |                 -240(-100.0%)    
                                                                                                                                                                                                                                                                                                                                                                                                                                                                                                                                                                                              arith_constant410   | 
                                                                                                                                                                                                                                                                                                                                                                                                                                                                                                                                                                                              arith_constant112   | 
------ ------------------------------------------------ -------------------------------------------------------------------------------------------------------------------------------------------------------------------------------------------------------------------------------------------------------------------------------------------------------------------------------------------------------------------------------------------------------------------------------------------------------------------------------------------------- ------------ ------ -------------------------------- --- --------------- ---------------- ---------------------- 
15     arith_constant113 (Placeholder, )                [b:24]                                                                                                                                                                                                                                                                                                                                                                                                                                                                                             24/96                                                  | +216(+225.0%)   +240(+100.0%)    Dense_[39]             
       gemm_15 (Gemm, FULLY_CONNECTED)                  [b:1,c:24]                                                                                                                                                                                                                                                                                                                                                                                                                                                                                                         240                         unpack_7   |                 -240(-100.0%)    
                                                                                                                                                                                                                                                                                                                                                                                                                                                                                                                                                                                              arith_constant410   | 
                                                                                                                                                                                                                                                                                                                                                                                                                                                                                                                                                                                              arith_constant113   | 
------ ------------------------------------------------ -------------------------------------------------------------------------------------------------------------------------------------------------------------------------------------------------------------------------------------------------------------------------------------------------------------------------------------------------------------------------------------------------------------------------------------------------------------------------------------------------- ------------ ------ -------------------------------- --- --------------- ---------------- ---------------------- 
16     arith_constant114 (Placeholder, )                [b:24]                                                                                                                                                                                                                                                                                                                                                                                                                                                                                             24/96                                                  | +216(+225.0%)   +240(+100.0%)    Dense_[44]             
       gemm_16 (Gemm, FULLY_CONNECTED)                  [b:1,c:24]                                                                                                                                                                                                                                                                                                                                                                                                                                                                                                         240                         unpack_7   |                 -240(-100.0%)    
                                                                                                                                                                                                                                                                                                                                                                                                                                                                                                                                                                                              arith_constant410   | 
                                                                                                                                                                                                                                                                                                                                                                                                                                                                                                                                                                                              arith_constant114   | 
------ ------------------------------------------------ -------------------------------------------------------------------------------------------------------------------------------------------------------------------------------------------------------------------------------------------------------------------------------------------------------------------------------------------------------------------------------------------------------------------------------------------------------------------------------------------------- ------------ ------ -------------------------------- --- --------------- ---------------- ---------------------- 
17     arith_constant115 (Placeholder, )                [b:24]                                                                                                                                                                                                                                                                                                                                                                                                                                                                                             24/96                                                  | +216(+225.0%)   +240(+100.0%)    Dense_[49]             
       gemm_17 (Gemm, FULLY_CONNECTED)                  [b:1,c:24]                                                                                                                                                                                                                                                                                                                                                                                                                                                                                                         240                         unpack_7   |                 -240(-100.0%)    
                                                                                                                                                                                                                                                                                                                                                                                                                                                                                                                                                                                              arith_constant410   | 
                                                                                                                                                                                                                                                                                                                                                                                                                                                                                                                                                                                              arith_constant115   | 
------ ------------------------------------------------ -------------------------------------------------------------------------------------------------------------------------------------------------------------------------------------------------------------------------------------------------------------------------------------------------------------------------------------------------------------------------------------------------------------------------------------------------------------------------------------------------- ------------ ------ -------------------------------- --- --------------- ---------------- ---------------------- 
18     arith_constant116 (Placeholder, )                [b:24]                                                                                                                                                                                                                                                                                                                                                                                                                                                                                             24/96                                                  | +216(+225.0%)   +240(+100.0%)    Dense_[54]             
       gemm_18 (Gemm, FULLY_CONNECTED)                  [b:1,c:24]                                                                                                                                                                                                                                                                                                                                                                                                                                                                                                         240                         unpack_7   |                 -240(-100.0%)    
                                                                                                                                                                                                                                                                                                                                                                                                                                                                                                                                                                                              arith_constant410   | 
                                                                                                                                                                                                                                                                                                                                                                                                                                                                                                                                                                                              arith_constant116   | 
------ ------------------------------------------------ -------------------------------------------------------------------------------------------------------------------------------------------------------------------------------------------------------------------------------------------------------------------------------------------------------------------------------------------------------------------------------------------------------------------------------------------------------------------------------------------------- ------------ ------ -------------------------------- --- --------------- ---------------- ---------------------- 
19     arith_constant117 (Placeholder, )                [b:24]                                                                                                                                                                                                                                                                                                                                                                                                                                                                                             24/96                                                  | +216(+225.0%)   +240(+100.0%)    Dense_[59]             
       gemm_19 (Gemm, FULLY_CONNECTED)                  [b:1,c:24]                                                                                                                                                                                                                                                                                                                                                                                                                                                                                                         240                         unpack_7   |                 -240(-100.0%)    
                                                                                                                                                                                                                                                                                                                                                                                                                                                                                                                                                                                              arith_constant410   | 
                                                                                                                                                                                                                                                                                                                                                                                                                                                                                                                                                                                              arith_constant117   | 
------ ------------------------------------------------ -------------------------------------------------------------------------------------------------------------------------------------------------------------------------------------------------------------------------------------------------------------------------------------------------------------------------------------------------------------------------------------------------------------------------------------------------------------------------------------------------- ------------ ------ -------------------------------- --- --------------- ---------------- ---------------------- 
20     arith_constant118 (Placeholder, )                [b:24]                                                                                                                                                                                                                                                                                                                                                                                                                                                                                             24/96                                                  | +216(+225.0%)   +240(+100.0%)    Dense_[64]             
       gemm_20 (Gemm, FULLY_CONNECTED)                  [b:1,c:24]                                                                                                                                                                                                                                                                                                                                                                                                                                                                                                         240                         unpack_7   |                 -240(-100.0%)    
                                                                                                                                                                                                                                                                                                                                                                                                                                                                                                                                                                                              arith_constant410   | 
                                                                                                                                                                                                                                                                                                                                                                                                                                                                                                                                                                                              arith_constant118   | 
------ ------------------------------------------------ -------------------------------------------------------------------------------------------------------------------------------------------------------------------------------------------------------------------------------------------------------------------------------------------------------------------------------------------------------------------------------------------------------------------------------------------------------------------------------------------------- ------------ ------ -------------------------------- --- --------------- ---------------- ---------------------- 
21     arith_constant119 (Placeholder, )                [b:24]                                                                                                                                                                                                                                                                                                                                                                                                                                                                                             24/96                                                  | +216(+225.0%)   +240(+100.0%)    Dense_[69]             
       gemm_21 (Gemm, FULLY_CONNECTED)                  [b:1,c:24]                                                                                                                                                                                                                                                                                                                                                                                                                                                                                                         240                         unpack_7   |                 -240(-100.0%)    
                                                                                                                                                                                                                                                                                                                                                                                                                                                                                                                                                                                              arith_constant410   | 
                                                                                                                                                                                                                                                                                                                                                                                                                                                                                                                                                                                              arith_constant119   | 
------ ------------------------------------------------ -------------------------------------------------------------------------------------------------------------------------------------------------------------------------------------------------------------------------------------------------------------------------------------------------------------------------------------------------------------------------------------------------------------------------------------------------------------------------------------------------- ------------ ------ -------------------------------- --- --------------- ---------------- ---------------------- 
22     arith_constant120 (Placeholder, )                [b:24]                                                                                                                                                                                                                                                                                                                                                                                                                                                                                             24/96                                                  | +216(+225.0%)   +240(+100.0%)    Dense_[74]             
       gemm_22 (Gemm, FULLY_CONNECTED)                  [b:1,c:24]                                                                                                                                                                                                                                                                                                                                                                                                                                                                                                         240                         unpack_7   |                 -240(-100.0%)    
                                                                                                                                                                                                                                                                                                                                                                                                                                                                                                                                                                                              arith_constant410   | 
                                                                                                                                                                                                                                                                                                                                                                                                                                                                                                                                                                                              arith_constant120   | 
------ ------------------------------------------------ -------------------------------------------------------------------------------------------------------------------------------------------------------------------------------------------------------------------------------------------------------------------------------------------------------------------------------------------------------------------------------------------------------------------------------------------------------------------------------------------------- ------------ ------ -------------------------------- --- --------------- ---------------- ---------------------- 
23     arith_constant121 (Placeholder, )                [b:24]                                                                                                                                                                                                                                                                                                                                                                                                                                                                                             24/96                                                  | +216(+225.0%)   +240(+100.0%)    Dense_[9]              
       gemm_23 (Gemm, FULLY_CONNECTED)                  [b:1,c:24]                                                                                                                                                                                                                                                                                                                                                                                                                                                                                                         240                         unpack_7   |                 -240(-100.0%)    
                                                                                                                                                                                                                                                                                                                                                                                                                                                                                                                                                                                              arith_constant410   | 
                                                                                                                                                                                                                                                                                                                                                                                                                                                                                                                                                                                              arith_constant121   | 
------ ------------------------------------------------ -------------------------------------------------------------------------------------------------------------------------------------------------------------------------------------------------------------------------------------------------------------------------------------------------------------------------------------------------------------------------------------------------------------------------------------------------------------------------------------------------- ------------ ------ -------------------------------- --- --------------- ---------------- ---------------------- 
24     eltwise_24 (Eltwise, ADD)                        [b:1,c:24]                                                                                                                                                                                                                                                                                                                                                                                                                                                                                                          24                          gemm_23   |                                  Eltwise/add_[10]       
                                                                                                                                                                                                                                                                                                                                                                                                                                                                                                                                                                                                        gemm_12   | 
------ ------------------------------------------------ -------------------------------------------------------------------------------------------------------------------------------------------------------------------------------------------------------------------------------------------------------------------------------------------------------------------------------------------------------------------------------------------------------------------------------------------------------------------------------------------------- ------------ ------ -------------------------------- --- --------------- ---------------- ---------------------- 
25     nl_25 (Nonlinearity, TANH)                       [b:1,c:24]                                                                                                                                                                                                                                                                                                                                                                                                                                                                                                         240                       eltwise_24   |                 -216(-90.0%)     Nonlinearity_[11]      
------ ------------------------------------------------ -------------------------------------------------------------------------------------------------------------------------------------------------------------------------------------------------------------------------------------------------------------------------------------------------------------------------------------------------------------------------------------------------------------------------------------------------------------------------------------------------- ------------ ------ -------------------------------- --- --------------- ---------------- ---------------------- 
26     conversion_26 (Conversion, QUANTIZE)             [b:1,c:24]                                                                                                                                                                                                                                                                                                                                                                                                                                                                                                          48                            nl_25   |                                  Conversion_[12]        
------ ------------------------------------------------ -------------------------------------------------------------------------------------------------------------------------------------------------------------------------------------------------------------------------------------------------------------------------------------------------------------------------------------------------------------------------------------------------------------------------------------------------------------------------------------------------- ------------ ------ -------------------------------- --- --------------- ---------------- ---------------------- 
27     gemm_27 (Gemm, FULLY_CONNECTED)                  [b:1,c:24]                                                                                                                                                                                                                                                                                                                                                                                                                                                                                                         600                    conversion_26   | +672(+100.0%)                    Dense_[13]             
                                                                                                                                                                                                                                                                                                                                                                                                                                                                                                                                                                                               arith_constant51   | 
------ ------------------------------------------------ -------------------------------------------------------------------------------------------------------------------------------------------------------------------------------------------------------------------------------------------------------------------------------------------------------------------------------------------------------------------------------------------------------------------------------------------------------------------------------------------------- ------------ ------ -------------------------------- --- --------------- ---------------- ---------------------- 
28     arith_constant122 (Placeholder, )                [b:24]                                                                                                                                                                                                                                                                                                                                                                                                                                                                                             24/96                                                  | +216(+225.0%)   +240(+100.0%)    Dense_[79]             
       gemm_28 (Gemm, FULLY_CONNECTED)                  [b:1,c:24]                                                                                                                                                                                                                                                                                                                                                                                                                                                                                                         240                         unpack_7   |                 -240(-100.0%)    
                                                                                                                                                                                                                                                                                                                                                                                                                                                                                                                                                                                              arith_constant410   | 
                                                                                                                                                                                                                                                                                                                                                                                                                                                                                                                                                                                              arith_constant122   | 
------ ------------------------------------------------ -------------------------------------------------------------------------------------------------------------------------------------------------------------------------------------------------------------------------------------------------------------------------------------------------------------------------------------------------------------------------------------------------------------------------------------------------------------------------------------------------- ------------ ------ -------------------------------- --- --------------- ---------------- ---------------------- 
29     arith_constant123 (Placeholder, )                [b:24]                                                                                                                                                                                                                                                                                                                                                                                                                                                                                             24/96                                                  | +216(+225.0%)   +240(+100.0%)    Dense_[84]             
       gemm_29 (Gemm, FULLY_CONNECTED)                  [b:1,c:24]                                                                                                                                                                                                                                                                                                                                                                                                                                                                                                         240                         unpack_7   |                 -240(-100.0%)    
                                                                                                                                                                                                                                                                                                                                                                                                                                                                                                                                                                                              arith_constant410   | 
                                                                                                                                                                                                                                                                                                                                                                                                                                                                                                                                                                                              arith_constant123   | 
------ ------------------------------------------------ -------------------------------------------------------------------------------------------------------------------------------------------------------------------------------------------------------------------------------------------------------------------------------------------------------------------------------------------------------------------------------------------------------------------------------------------------------------------------------------------------- ------------ ------ -------------------------------- --- --------------- ---------------- ---------------------- 
30     arith_constant124 (Placeholder, )                [b:24]                                                                                                                                                                                                                                                                                                                                                                                                                                                                                             24/96                                                  | +216(+225.0%)   +240(+100.0%)    Dense_[89]             
       gemm_30 (Gemm, FULLY_CONNECTED)                  [b:1,c:24]                                                                                                                                                                                                                                                                                                                                                                                                                                                                                                         240                         unpack_7   |                 -240(-100.0%)    
                                                                                                                                                                                                                                                                                                                                                                                                                                                                                                                                                                                              arith_constant410   | 
                                                                                                                                                                                                                                                                                                                                                                                                                                                                                                                                                                                              arith_constant124   | 
------ ------------------------------------------------ -------------------------------------------------------------------------------------------------------------------------------------------------------------------------------------------------------------------------------------------------------------------------------------------------------------------------------------------------------------------------------------------------------------------------------------------------------------------------------------------------- ------------ ------ -------------------------------- --- --------------- ---------------- ---------------------- 
31     arith_constant125 (Placeholder, )                [b:24]                                                                                                                                                                                                                                                                                                                                                                                                                                                                                             24/96                                                  | +216(+225.0%)   +240(+100.0%)    Dense_[94]             
       gemm_31 (Gemm, FULLY_CONNECTED)                  [b:1,c:24]                                                                                                                                                                                                                                                                                                                                                                                                                                                                                                         240                         unpack_7   |                 -240(-100.0%)    
                                                                                                                                                                                                                                                                                                                                                                                                                                                                                                                                                                                              arith_constant410   | 
                                                                                                                                                                                                                                                                                                                                                                                                                                                                                                                                                                                              arith_constant125   | 
------ ------------------------------------------------ -------------------------------------------------------------------------------------------------------------------------------------------------------------------------------------------------------------------------------------------------------------------------------------------------------------------------------------------------------------------------------------------------------------------------------------------------------------------------------------------------- ------------ ------ -------------------------------- --- --------------- ---------------- ---------------------- 
32     arith_constant126 (Placeholder, )                [b:24]                                                                                                                                                                                                                                                                                                                                                                                                                                                                                             24/96                                                  | +216(+225.0%)   +240(+100.0%)    Dense_[99]             
       gemm_32 (Gemm, FULLY_CONNECTED)                  [b:1,c:24]                                                                                                                                                                                                                                                                                                                                                                                                                                                                                                         240                         unpack_7   |                 -240(-100.0%)    
                                                                                                                                                                                                                                                                                                                                                                                                                                                                                                                                                                                              arith_constant410   | 
                                                                                                                                                                                                                                                                                                                                                                                                                                                                                                                                                                                              arith_constant126   | 
------ ------------------------------------------------ -------------------------------------------------------------------------------------------------------------------------------------------------------------------------------------------------------------------------------------------------------------------------------------------------------------------------------------------------------------------------------------------------------------------------------------------------------------------------------------------------- ------------ ------ -------------------------------- --- --------------- ---------------- ---------------------- 
33     arith_constant127 (Placeholder, )                [b:24]                                                                                                                                                                                                                                                                                                                                                                                                                                                                                             24/96                                                  | +216(+225.0%)   +240(+100.0%)    Dense_[104]            
       gemm_33 (Gemm, FULLY_CONNECTED)                  [b:1,c:24]                                                                                                                                                                                                                                                                                                                                                                                                                                                                                                         240                         unpack_7   |                 -240(-100.0%)    
                                                                                                                                                                                                                                                                                                                                                                                                                                                                                                                                                                                              arith_constant410   | 
                                                                                                                                                                                                                                                                                                                                                                                                                                                                                                                                                                                              arith_constant127   | 
------ ------------------------------------------------ -------------------------------------------------------------------------------------------------------------------------------------------------------------------------------------------------------------------------------------------------------------------------------------------------------------------------------------------------------------------------------------------------------------------------------------------------------------------------------------------------- ------------ ------ -------------------------------- --- --------------- ---------------- ---------------------- 
34     arith_constant128 (Placeholder, )                [b:24]                                                                                                                                                                                                                                                                                                                                                                                                                                                                                             24/96                                                  | +216(+225.0%)   +240(+100.0%)    Dense_[109]            
       gemm_34 (Gemm, FULLY_CONNECTED)                  [b:1,c:24]                                                                                                                                                                                                                                                                                                                                                                                                                                                                                                         240                         unpack_7   |                 -240(-100.0%)    
                                                                                                                                                                                                                                                                                                                                                                                                                                                                                                                                                                                              arith_constant410   | 
                                                                                                                                                                                                                                                                                                                                                                                                                                                                                                                                                                                              arith_constant128   | 
------ ------------------------------------------------ -------------------------------------------------------------------------------------------------------------------------------------------------------------------------------------------------------------------------------------------------------------------------------------------------------------------------------------------------------------------------------------------------------------------------------------------------------------------------------------------------- ------------ ------ -------------------------------- --- --------------- ---------------- ---------------------- 
35     arith_constant129 (Placeholder, )                [b:24]                                                                                                                                                                                                                                                                                                                                                                                                                                                                                             24/96                                                  | +216(+225.0%)   +240(+100.0%)    Dense_[114]            
       gemm_35 (Gemm, FULLY_CONNECTED)                  [b:1,c:24]                                                                                                                                                                                                                                                                                                                                                                                                                                                                                                         240                         unpack_7   |                 -240(-100.0%)    
                                                                                                                                                                                                                                                                                                                                                                                                                                                                                                                                                                                              arith_constant410   | 
                                                                                                                                                                                                                                                                                                                                                                                                                                                                                                                                                                                              arith_constant129   | 
------ ------------------------------------------------ -------------------------------------------------------------------------------------------------------------------------------------------------------------------------------------------------------------------------------------------------------------------------------------------------------------------------------------------------------------------------------------------------------------------------------------------------------------------------------------------------- ------------ ------ -------------------------------- --- --------------- ---------------- ---------------------- 
36     arith_constant130 (Placeholder, )                [b:24]                                                                                                                                                                                                                                                                                                                                                                                                                                                                                             24/96                                                  | +216(+225.0%)   +240(+100.0%)    Dense_[119]            
       gemm_36 (Gemm, FULLY_CONNECTED)                  [b:1,c:24]                                                                                                                                                                                                                                                                                                                                                                                                                                                                                                         240                         unpack_7   |                 -240(-100.0%)    
                                                                                                                                                                                                                                                                                                                                                                                                                                                                                                                                                                                              arith_constant410   | 
                                                                                                                                                                                                                                                                                                                                                                                                                                                                                                                                                                                              arith_constant130   | 
------ ------------------------------------------------ -------------------------------------------------------------------------------------------------------------------------------------------------------------------------------------------------------------------------------------------------------------------------------------------------------------------------------------------------------------------------------------------------------------------------------------------------------------------------------------------------- ------------ ------ -------------------------------- --- --------------- ---------------- ---------------------- 
37     arith_constant131 (Placeholder, )                [b:24]                                                                                                                                                                                                                                                                                                                                                                                                                                                                                             24/96                                                  | +216(+225.0%)   +240(+100.0%)    Dense_[124]            
       gemm_37 (Gemm, FULLY_CONNECTED)                  [b:1,c:24]                                                                                                                                                                                                                                                                                                                                                                                                                                                                                                         240                         unpack_7   |                 -240(-100.0%)    
                                                                                                                                                                                                                                                                                                                                                                                                                                                                                                                                                                                              arith_constant410   | 
                                                                                                                                                                                                                                                                                                                                                                                                                                                                                                                                                                                              arith_constant131   | 
------ ------------------------------------------------ -------------------------------------------------------------------------------------------------------------------------------------------------------------------------------------------------------------------------------------------------------------------------------------------------------------------------------------------------------------------------------------------------------------------------------------------------------------------------------------------------- ------------ ------ -------------------------------- --- --------------- ---------------- ---------------------- 
38     arith_constant132 (Placeholder, )                [b:24]                                                                                                                                                                                                                                                                                                                                                                                                                                                                                             24/96                                                  | +216(+225.0%)   +240(+100.0%)    Dense_[14]             
       gemm_38 (Gemm, FULLY_CONNECTED)                  [b:1,c:24]                                                                                                                                                                                                                                                                                                                                                                                                                                                                                                         240                         unpack_7   |                 -240(-100.0%)    
                                                                                                                                                                                                                                                                                                                                                                                                                                                                                                                                                                                              arith_constant410   | 
                                                                                                                                                                                                                                                                                                                                                                                                                                                                                                                                                                                              arith_constant132   | 
------ ------------------------------------------------ -------------------------------------------------------------------------------------------------------------------------------------------------------------------------------------------------------------------------------------------------------------------------------------------------------------------------------------------------------------------------------------------------------------------------------------------------------------------------------------------------- ------------ ------ -------------------------------- --- --------------- ---------------- ---------------------- 
39     eltwise_39 (Eltwise, ADD)                        [b:1,c:24]                                                                                                                                                                                                                                                                                                                                                                                                                                                                                                          24                          gemm_38   |                                  Eltwise/add_[15]       
                                                                                                                                                                                                                                                                                                                                                                                                                                                                                                                                                                                                        gemm_27   | 
------ ------------------------------------------------ -------------------------------------------------------------------------------------------------------------------------------------------------------------------------------------------------------------------------------------------------------------------------------------------------------------------------------------------------------------------------------------------------------------------------------------------------------------------------------------------------- ------------ ------ -------------------------------- --- --------------- ---------------- ---------------------- 
40     nl_40 (Nonlinearity, TANH)                       [b:1,c:24]                                                                                                                                                                                                                                                                                                                                                                                                                                                                                                         240                       eltwise_39   |                 -216(-90.0%)     Nonlinearity_[16]      
------ ------------------------------------------------ -------------------------------------------------------------------------------------------------------------------------------------------------------------------------------------------------------------------------------------------------------------------------------------------------------------------------------------------------------------------------------------------------------------------------------------------------------------------------------------------------- ------------ ------ -------------------------------- --- --------------- ---------------- ---------------------- 
41     conversion_41 (Conversion, QUANTIZE)             [b:1,c:24]                                                                                                                                                                                                                                                                                                                                                                                                                                                                                                          48                            nl_40   |                                  Conversion_[17]        
------ ------------------------------------------------ -------------------------------------------------------------------------------------------------------------------------------------------------------------------------------------------------------------------------------------------------------------------------------------------------------------------------------------------------------------------------------------------------------------------------------------------------------------------------------------------------- ------------ ------ -------------------------------- --- --------------- ---------------- ---------------------- 
42     gemm_42 (Gemm, FULLY_CONNECTED)                  [b:1,c:24]                                                                                                                                                                                                                                                                                                                                                                                                                                                                                                         600                    conversion_41   | +672(+100.0%)                    Dense_[18]             
                                                                                                                                                                                                                                                                                                                                                                                                                                                                                                                                                                                               arith_constant51   | 
------ ------------------------------------------------ -------------------------------------------------------------------------------------------------------------------------------------------------------------------------------------------------------------------------------------------------------------------------------------------------------------------------------------------------------------------------------------------------------------------------------------------------------------------------------------------------- ------------ ------ -------------------------------- --- --------------- ---------------- ---------------------- 
43     arith_constant133 (Placeholder, )                [b:24]                                                                                                                                                                                                                                                                                                                                                                                                                                                                                             24/96                                                  | +216(+225.0%)   +240(+100.0%)    Dense_[129]            
       gemm_43 (Gemm, FULLY_CONNECTED)                  [b:1,c:24]                                                                                                                                                                                                                                                                                                                                                                                                                                                                                                         240                         unpack_7   |                 -240(-100.0%)    
                                                                                                                                                                                                                                                                                                                                                                                                                                                                                                                                                                                              arith_constant410   | 
                                                                                                                                                                                                                                                                                                                                                                                                                                                                                                                                                                                              arith_constant133   | 
------ ------------------------------------------------ -------------------------------------------------------------------------------------------------------------------------------------------------------------------------------------------------------------------------------------------------------------------------------------------------------------------------------------------------------------------------------------------------------------------------------------------------------------------------------------------------- ------------ ------ -------------------------------- --- --------------- ---------------- ---------------------- 
44     arith_constant134 (Placeholder, )                [b:24]                                                                                                                                                                                                                                                                                                                                                                                                                                                                                             24/96                                                  | +216(+225.0%)   +240(+100.0%)    Dense_[134]            
       gemm_44 (Gemm, FULLY_CONNECTED)                  [b:1,c:24]                                                                                                                                                                                                                                                                                                                                                                                                                                                                                                         240                         unpack_7   |                 -240(-100.0%)    
                                                                                                                                                                                                                                                                                                                                                                                                                                                                                                                                                                                              arith_constant410   | 
                                                                                                                                                                                                                                                                                                                                                                                                                                                                                                                                                                                              arith_constant134   | 
------ ------------------------------------------------ -------------------------------------------------------------------------------------------------------------------------------------------------------------------------------------------------------------------------------------------------------------------------------------------------------------------------------------------------------------------------------------------------------------------------------------------------------------------------------------------------- ------------ ------ -------------------------------- --- --------------- ---------------- ---------------------- 
45     arith_constant135 (Placeholder, )                [b:24]                                                                                                                                                                                                                                                                                                                                                                                                                                                                                             24/96                                                  | +216(+225.0%)   +240(+100.0%)    Dense_[139]            
       gemm_45 (Gemm, FULLY_CONNECTED)                  [b:1,c:24]                                                                                                                                                                                                                                                                                                                                                                                                                                                                                                         240                         unpack_7   |                 -240(-100.0%)    
                                                                                                                                                                                                                                                                                                                                                                                                                                                                                                                                                                                              arith_constant410   | 
                                                                                                                                                                                                                                                                                                                                                                                                                                                                                                                                                                                              arith_constant135   | 
------ ------------------------------------------------ -------------------------------------------------------------------------------------------------------------------------------------------------------------------------------------------------------------------------------------------------------------------------------------------------------------------------------------------------------------------------------------------------------------------------------------------------------------------------------------------------- ------------ ------ -------------------------------- --- --------------- ---------------- ---------------------- 
46     arith_constant136 (Placeholder, )                [b:24]                                                                                                                                                                                                                                                                                                                                                                                                                                                                                             24/96                                                  | +216(+225.0%)   +240(+100.0%)    Dense_[144]            
       gemm_46 (Gemm, FULLY_CONNECTED)                  [b:1,c:24]                                                                                                                                                                                                                                                                                                                                                                                                                                                                                                         240                         unpack_7   |                 -240(-100.0%)    
                                                                                                                                                                                                                                                                                                                                                                                                                                                                                                                                                                                              arith_constant410   | 
                                                                                                                                                                                                                                                                                                                                                                                                                                                                                                                                                                                              arith_constant136   | 
------ ------------------------------------------------ -------------------------------------------------------------------------------------------------------------------------------------------------------------------------------------------------------------------------------------------------------------------------------------------------------------------------------------------------------------------------------------------------------------------------------------------------------------------------------------------------- ------------ ------ -------------------------------- --- --------------- ---------------- ---------------------- 
47     arith_constant137 (Placeholder, )                [b:24]                                                                                                                                                                                                                                                                                                                                                                                                                                                                                             24/96                                                  | +216(+225.0%)   +240(+100.0%)    Dense_[149]            
       gemm_47 (Gemm, FULLY_CONNECTED)                  [b:1,c:24]                                                                                                                                                                                                                                                                                                                                                                                                                                                                                                         240                         unpack_7   |                 -240(-100.0%)    
                                                                                                                                                                                                                                                                                                                                                                                                                                                                                                                                                                                              arith_constant410   | 
                                                                                                                                                                                                                                                                                                                                                                                                                                                                                                                                                                                              arith_constant137   | 
------ ------------------------------------------------ -------------------------------------------------------------------------------------------------------------------------------------------------------------------------------------------------------------------------------------------------------------------------------------------------------------------------------------------------------------------------------------------------------------------------------------------------------------------------------------------------- ------------ ------ -------------------------------- --- --------------- ---------------- ---------------------- 
48     arith_constant138 (Placeholder, )                [b:24]                                                                                                                                                                                                                                                                                                                                                                                                                                                                                             24/96                                                  | +216(+225.0%)   +240(+100.0%)    Dense_[154]            
       gemm_48 (Gemm, FULLY_CONNECTED)                  [b:1,c:24]                                                                                                                                                                                                                                                                                                                                                                                                                                                                                                         240                         unpack_7   |                 -240(-100.0%)    
                                                                                                                                                                                                                                                                                                                                                                                                                                                                                                                                                                                              arith_constant410   | 
                                                                                                                                                                                                                                                                                                                                                                                                                                                                                                                                                                                              arith_constant138   | 
------ ------------------------------------------------ -------------------------------------------------------------------------------------------------------------------------------------------------------------------------------------------------------------------------------------------------------------------------------------------------------------------------------------------------------------------------------------------------------------------------------------------------------------------------------------------------- ------------ ------ -------------------------------- --- --------------- ---------------- ---------------------- 
49     arith_constant139 (Placeholder, )                [b:24]                                                                                                                                                                                                                                                                                                                                                                                                                                                                                             24/96                                                  | +216(+225.0%)   +240(+100.0%)    Dense_[159]            
       gemm_49 (Gemm, FULLY_CONNECTED)                  [b:1,c:24]                                                                                                                                                                                                                                                                                                                                                                                                                                                                                                         240                         unpack_7   |                 -240(-100.0%)    
                                                                                                                                                                                                                                                                                                                                                                                                                                                                                                                                                                                              arith_constant410   | 
                                                                                                                                                                                                                                                                                                                                                                                                                                                                                                                                                                                              arith_constant139   | 
------ ------------------------------------------------ -------------------------------------------------------------------------------------------------------------------------------------------------------------------------------------------------------------------------------------------------------------------------------------------------------------------------------------------------------------------------------------------------------------------------------------------------------------------------------------------------- ------------ ------ -------------------------------- --- --------------- ---------------- ---------------------- 
50     arith_constant140 (Placeholder, )                [b:24]                                                                                                                                                                                                                                                                                                                                                                                                                                                                                             24/96                                                  | +216(+225.0%)   +240(+100.0%)    Dense_[164]            
       gemm_50 (Gemm, FULLY_CONNECTED)                  [b:1,c:24]                                                                                                                                                                                                                                                                                                                                                                                                                                                                                                         240                         unpack_7   |                 -240(-100.0%)    
                                                                                                                                                                                                                                                                                                                                                                                                                                                                                                                                                                                              arith_constant410   | 
                                                                                                                                                                                                                                                                                                                                                                                                                                                                                                                                                                                              arith_constant140   | 
------ ------------------------------------------------ -------------------------------------------------------------------------------------------------------------------------------------------------------------------------------------------------------------------------------------------------------------------------------------------------------------------------------------------------------------------------------------------------------------------------------------------------------------------------------------------------- ------------ ------ -------------------------------- --- --------------- ---------------- ---------------------- 
51     arith_constant141 (Placeholder, )                [b:24]                                                                                                                                                                                                                                                                                                                                                                                                                                                                                             24/96                                                  | +216(+225.0%)   +240(+100.0%)    Dense_[169]            
       gemm_51 (Gemm, FULLY_CONNECTED)                  [b:1,c:24]                                                                                                                                                                                                                                                                                                                                                                                                                                                                                                         240                         unpack_7   |                 -240(-100.0%)    
                                                                                                                                                                                                                                                                                                                                                                                                                                                                                                                                                                                              arith_constant410   | 
                                                                                                                                                                                                                                                                                                                                                                                                                                                                                                                                                                                              arith_constant141   | 
------ ------------------------------------------------ -------------------------------------------------------------------------------------------------------------------------------------------------------------------------------------------------------------------------------------------------------------------------------------------------------------------------------------------------------------------------------------------------------------------------------------------------------------------------------------------------- ------------ ------ -------------------------------- --- --------------- ---------------- ---------------------- 
52     arith_constant142 (Placeholder, )                [b:24]                                                                                                                                                                                                                                                                                                                                                                                                                                                                                             24/96                                                  | +216(+225.0%)   +240(+100.0%)    Dense_[174]            
       gemm_52 (Gemm, FULLY_CONNECTED)                  [b:1,c:24]                                                                                                                                                                                                                                                                                                                                                                                                                                                                                                         240                         unpack_7   |                 -240(-100.0%)    
                                                                                                                                                                                                                                                                                                                                                                                                                                                                                                                                                                                              arith_constant410   | 
                                                                                                                                                                                                                                                                                                                                                                                                                                                                                                                                                                                              arith_constant142   | 
------ ------------------------------------------------ -------------------------------------------------------------------------------------------------------------------------------------------------------------------------------------------------------------------------------------------------------------------------------------------------------------------------------------------------------------------------------------------------------------------------------------------------------------------------------------------------- ------------ ------ -------------------------------- --- --------------- ---------------- ---------------------- 
53     arith_constant143 (Placeholder, )                [b:24]                                                                                                                                                                                                                                                                                                                                                                                                                                                                                             24/96                                                  | +216(+225.0%)   +240(+100.0%)    Dense_[19]             
       gemm_53 (Gemm, FULLY_CONNECTED)                  [b:1,c:24]                                                                                                                                                                                                                                                                                                                                                                                                                                                                                                         240                         unpack_7   |                 -240(-100.0%)    
                                                                                                                                                                                                                                                                                                                                                                                                                                                                                                                                                                                              arith_constant410   | 
                                                                                                                                                                                                                                                                                                                                                                                                                                                                                                                                                                                              arith_constant143   | 
------ ------------------------------------------------ -------------------------------------------------------------------------------------------------------------------------------------------------------------------------------------------------------------------------------------------------------------------------------------------------------------------------------------------------------------------------------------------------------------------------------------------------------------------------------------------------- ------------ ------ -------------------------------- --- --------------- ---------------- ---------------------- 
54     eltwise_54 (Eltwise, ADD)                        [b:1,c:24]                                                                                                                                                                                                                                                                                                                                                                                                                                                                                                          24                          gemm_53   |                                  Eltwise/add_[20]       
                                                                                                                                                                                                                                                                                                                                                                                                                                                                                                                                                                                                        gemm_42   | 
------ ------------------------------------------------ -------------------------------------------------------------------------------------------------------------------------------------------------------------------------------------------------------------------------------------------------------------------------------------------------------------------------------------------------------------------------------------------------------------------------------------------------------------------------------------------------- ------------ ------ -------------------------------- --- --------------- ---------------- ---------------------- 
55     nl_55 (Nonlinearity, TANH)                       [b:1,c:24]                                                                                                                                                                                                                                                                                                                                                                                                                                                                                                         240                       eltwise_54   |                 -216(-90.0%)     Nonlinearity_[21]      
------ ------------------------------------------------ -------------------------------------------------------------------------------------------------------------------------------------------------------------------------------------------------------------------------------------------------------------------------------------------------------------------------------------------------------------------------------------------------------------------------------------------------------------------------------------------------- ------------ ------ -------------------------------- --- --------------- ---------------- ---------------------- 
56     conversion_56 (Conversion, QUANTIZE)             [b:1,c:24]                                                                                                                                                                                                                                                                                                                                                                                                                                                                                                          48                            nl_55   |                                  Conversion_[22]        
------ ------------------------------------------------ -------------------------------------------------------------------------------------------------------------------------------------------------------------------------------------------------------------------------------------------------------------------------------------------------------------------------------------------------------------------------------------------------------------------------------------------------------------------------------------------------- ------------ ------ -------------------------------- --- --------------- ---------------- ---------------------- 
57     gemm_57 (Gemm, FULLY_CONNECTED)                  [b:1,c:24]                                                                                                                                                                                                                                                                                                                                                                                                                                                                                                         600                    conversion_56   | +672(+100.0%)                    Dense_[23]             
                                                                                                                                                                                                                                                                                                                                                                                                                                                                                                                                                                                               arith_constant51   | 
------ ------------------------------------------------ -------------------------------------------------------------------------------------------------------------------------------------------------------------------------------------------------------------------------------------------------------------------------------------------------------------------------------------------------------------------------------------------------------------------------------------------------------------------------------------------------- ------------ ------ -------------------------------- --- --------------- ---------------- ---------------------- 
58     arith_constant144 (Placeholder, )                [b:24]                                                                                                                                                                                                                                                                                                                                                                                                                                                                                             24/96                                                  | +216(+225.0%)   +240(+100.0%)    Dense_[179]            
       gemm_58 (Gemm, FULLY_CONNECTED)                  [b:1,c:24]                                                                                                                                                                                                                                                                                                                                                                                                                                                                                                         240                         unpack_7   |                 -240(-100.0%)    
                                                                                                                                                                                                                                                                                                                                                                                                                                                                                                                                                                                              arith_constant410   | 
                                                                                                                                                                                                                                                                                                                                                                                                                                                                                                                                                                                              arith_constant144   | 
------ ------------------------------------------------ ----------------------------------------------------------------------------------------------------------------------------------------------------------------------------------------------------------------------------------------------------------------------------------------------------------------------------------------------------------------------------------------------------------…
18     arith_constant116                          |||||||            0.3%   |||||||           10.6%   [54]    
19     arith_constant117                          |||||||            0.3%   |||||||           10.6%   [59]    
20     arith_constant118                          |||||||            0.3%   |||||||           10.6%   [64]    
21     arith_constant119                          |||||||            0.3%   |||||||           10.6%   [69]    
22     arith_constant120                          |||||||            0.3%   |||||||           10.6%   [74]    
23     arith_constant121                          |||||||            0.3%   |||||||           10.6%   [9]     
24     eltwise_24                                 |                  0.0%   |                  0.0%   [10]    
25     nl_25                                      |                  0.0%   |                  0.0%   [11]    
26     conversion_26                              ||                 0.1%   |                  0.0%   [12]    
27     gemm_27                                    ||||||||||||||||   0.8%   |||||||||||||||   22.8%   [13]    
28     arith_constant122                          |||||||            0.3%   |||||||           10.6%   [79]    
29     arith_constant123                          |||||||            0.3%   |||||||           10.6%   [84]    
30     arith_constant124                          |||||||            0.3%   |||||||           10.6%   [89]    
31     arith_constant125                          |||||||            0.3%   |||||||           10.6%   [94]    
32     arith_constant126                          |||||||            0.3%   |||||||           10.6%   [99]    
33     arith_constant127                          |||||||            0.3%   |||||||           10.6%   [104]   
34     arith_constant128                          |||||||            0.3%   |||||||           10.6%   [109]   
35     arith_constant129                          |||||||            0.3%   |||||||           10.6%   [114]   
36     arith_constant130                          |||||||            0.3%   |||||||           10.6%   [119]   
37     arith_constant131                          |||||||            0.3%   |||||||           10.6%   [124]   
38     arith_constant132                          |||||||            0.3%   |||||||           10.6%   [14]    
39     eltwise_39                                 |                  0.0%   |                  0.0%   [15]    
40     nl_40                                      |                  0.0%   |                  0.0%   [16]    
41     conversion_41                              ||                 0.1%   |                  0.0%   [17]    
42     gemm_42                                    ||||||||||||||||   0.8%   |||||||||||||||   22.8%   [18]    
43     arith_constant133                          |||||||            0.3%   |||||||           10.6%   [129]   
44     arith_constant134                          |||||||            0.3%   |||||||           10.6%   [134]   
45     arith_constant135                          |||||||            0.3%   |||||||           10.6%   [139]   
46     arith_constant136                          |||||||            0.3%   |||||||           10.6%   [144]   
47     arith_constant137                          |||||||            0.3%   |||||||           10.6%   [149]   
48     arith_constant138                          |||||||            0.3%   |||||||           10.6%   [154]   
49     arith_constant139                          |||||||            0.3%   |||||||           10.6%   [159]   
50     arith_constant140                          |||||||            0.3%   |||||||           10.6%   [164]   
51     arith_constant141                          |||||||            0.3%   |||||||           10.6%   [169]   
52     arith_constant142                          |||||||            0.3%   |||||||           10.6%   [174]   
53     arith_constant143                          |||||||            0.3%   |||||||           10.6%   [19]    
54     eltwise_54                                 |                  0.0%   |                  0.0%   [20]    
55     nl_55                                      |                  0.0%   |                  0.0%   [21]    
56     conversion_56                              ||                 0.1%   |                  0.0%   [22]    
57     gemm_57                                    ||||||||||||||||   0.8%   |||||||||||||||   22.8%   [23]    
58     arith_constant144                          |||||||            0.3%   |||||||           10.6%   [179]   
59     arith_constant145                          |||||||            0.3%   |||||||           10.6%   [184]   
60     arith_constant146                          |||||||            0.3%   |||||||           10.6%   [189]   
61     arith_constant147                          |||||||            0.3%   |||||||           10.6%   [194]   
62     arith_constant148                          |||||||            0.3%   |||||||           10.6%   [199]   
63     arith_constant149                          |||||||            0.3%   |||||||           10.6%   [204]   
64     arith_constant150                          |||||||            0.3%   |||||||           10.6%   [209]   
65     arith_constant151                          |||||||            0.3%   |||||||           10.6%   [214]   
66     arith_constant152                          |||||||            0.3%   |||||||           10.6%   [219]   
67     arith_constant153                          |||||||            0.3%   |||||||           10.6%   [224]   
68     arith_constant154                          |||||||            0.3%   |||||||           10.6%   [24]    
69     eltwise_69                                 |                  0.0%   |                  0.0%   [25]    
70     nl_70                                      |                  0.0%   |                  0.0%   [26]    
71     conversion_71                              ||                 0.1%   |                  0.0%   [27]    
72     gemm_72                                    ||||||||||||||||   0.8%   |||||||||||||||   22.8%   [28]    
73     eltwise_73                                 |                  0.0%   |                  0.0%   [30]    
74     nl_74                                      |                  0.0%   |                  0.0%   [31]    
75     conversion_75                              ||                 0.1%   |                  0.0%   [32]    
76     gemm_76                                    ||||||||||||||||   0.8%   |||||||||||||||   22.8%   [33]    
77     eltwise_77                                 |                  0.0%   |                  0.0%   [35]    
78     nl_78                                      |                  0.0%   |                  0.0%   [36]    
79     conversion_79                              ||                 0.1%   |                  0.0%   [37]    
80     gemm_80                                    ||||||||||||||||   0.8%   |||||||||||||||   22.8%   [38]    
81     eltwise_81                                 |                  0.0%   |                  0.0%   [40]    
82     nl_82                                      |                  0.0%   |                  0.0%   [41]    
83     conversion_83                              ||                 0.1%   |                  0.0%   [42]    
84     gemm_84                                    ||||||||||||||||   0.8%   |||||||||||||||   22.8%   [43]    
85     eltwise_85                                 |                  0.0%   |                  0.0%   [45]    
86     nl_86                                      |                  0.0%   |                  0.0%   [46]    
87     conversion_87                              ||                 0.1%   |                  0.0%   [47]    
88     gemm_88                                    ||||||||||||||||   0.8%   |||||||||||||||   22.8%   [48]    
89     eltwise_89                                 |                  0.0%   |                  0.0%   [50]    
90     nl_90                                      |                  0.0%   |                  0.0%   [51]    
91     conversion_91                              ||                 0.1%   |                  0.0%   [52]    
92     gemm_92                                    ||||||||||||||||   0.8%   |||||||||||||||   22.8%   [53]    
93     eltwise_93                                 |                  0.0%   |                  0.0%   [55]    
94     nl_94                                      |                  0.0%   |                  0.0%   [56]    
95     conversion_95                              ||                 0.1%   |                  0.0%   [57]    
96     gemm_96                                    ||||||||||||||||   0.8%   |||||||||||||||   22.8%   [58]    
97     eltwise_97                                 |                  0.0%   |                  0.0%   [60]    
98     nl_98                                      |                  0.0%   |                  0.0%   [61]    
99     conversion_99                              ||                 0.1%   |                  0.0%   [62]    
100    gemm_100                                   ||||||||||||||||   0.8%   |||||||||||||||   22.8%   [63]    
101    eltwise_101                                |                  0.0%   |                  0.0%   [65]    
102    nl_102                                     |                  0.0%   |                  0.0%   [66]    
103    conversion_103                             ||                 0.1%   |                  0.0%   [67]    
104    gemm_104                                   ||||||||||||||||   0.8%   |||||||||||||||   22.8%   [68]    
105    eltwise_105                                |                  0.0%   |                  0.0%   [70]    
106    nl_106                                     |                  0.0%   |                  0.0%   [71]    
107    conversion_107                             ||                 0.1%   |                  0.0%   [72]    
108    gemm_108                                   ||||||||||||||||   0.8%   |||||||||||||||   22.8%   [73]    
109    eltwise_109                                |                  0.0%   |                  0.0%   [75]    
110    nl_110                                     |                  0.0%   |                  0.0%   [76]    
111    conversion_111                             ||                 0.1%   |                  0.0%   [77]    
112    gemm_112                                   ||||||||||||||||   0.8%   |||||||||||||||   22.8%   [78]    
113    eltwise_113                                |                  0.0%   |                  0.0%   [80]    
114    nl_114                                     |                  0.0%   |                  0.0%   [81]    
115    conversion_115                             ||                 0.1%   |                  0.0%   [82]    
116    gemm_116                                   ||||||||||||||||   0.8%   |||||||||||||||   22.8%   [83]    
117    eltwise_117                                |                  0.0%   |                  0.0%   [85]    
118    nl_118                                     |                  0.0%   |                  0.0%   [86]    
119    conversion_119                             ||                 0.1%   |                  0.0%   [87]    
120    gemm_120                                   ||||||||||||||||   0.8%   |||||||||||||||   22.8%   [88]    
121    eltwise_121                                |                  0.0%   |                  0.0%   [90]    
122    nl_122                                     |                  0.0%   |                  0.0%   [91]    
123    conversion_123                             ||                 0.1%   |                  0.0%   [92]    
124    gemm_124                                   ||||||||||||||||   0.8%   |||||||||||||||   22.8%   [93]    
125    eltwise_125                                |                  0.0%   |                  0.0%   [95]    
126    nl_126                                     |                  0.0%   |                  0.0%   [96]    
127    conversion_127                             ||                 0.1%   |                  0.0%   [97]    
128    gemm_128                                   ||||||||||||||||   0.8%   |||||||||||||||   22.8%   [98]    
129    eltwise_129                                |                  0.0%   |                  0.0%   [100]   
130    nl_130                                     |                  0.0%   |                  0.0%   [101]   
131    conversion_131                             ||                 0.1%   |                  0.0%   [102]   
132    gemm_132                                   ||||||||||||||||   0.8%   |||||||||||||||   22.8%   [103]   
133    eltwise_133                                |                  0.0%   |                  0.0%   [105]   
134    nl_134                                     |                  0.0%   |                  0.0%   [106]   
135    conversion_135                             ||                 0.1%   |                  0.0%   [107]   
136    gemm_136                                   ||||||||||||||||   0.8%   |||||||||||||||   22.8%   [108]   
137    eltwise_137                                |                  0.0%   |                  0.0%   [110]   
138    nl_138                                     |                  0.0%   |                  0.0%   [111]   
139    conversion_139                             ||                 0.1%   |                  0.0%   [112]   
140    gemm_140                                   ||||||||||||||||   0.8%   |||||||||||||||   22.8%   [113]   
141    eltwise_141                                |                  0.0%   |                  0.0%   [115]   
142    nl_142                                     |                  0.0%   |                  0.0%   [116]   
143    conversion_143                             ||                 0.1%   |                  0.0%   [117]   
144    gemm_144                                   ||||||||||||||||   0.8%   |||||||||||||||   22.8%   [118]   
145    eltwise_145                                |                  0.0%   |                  0.0%   [120]   
146    nl_146                                     |                  0.0%   |                  0.0%   [121]   
147    conversion_147                             ||                 0.1%   |                  0.0%   [122]   
148    gemm_148                                   ||||||||||||||||   0.8%   |||||||||||||||   22.8%   [123]   
149    eltwise_149                                |                  0.0%   |                  0.0%   [125]   
150    nl_150                                     |                  0.0%   |                  0.0%   [126]   
151    conversion_151                             ||                 0.1%   |                  0.0%   [127]   
152    gemm_152                                   ||||||||||||||||   0.8%   |||||||||||||||   22.8%   [128]   
153    eltwise_153                                |                  0.0%   |                  0.0%   [130]   
154    nl_154                                     |                  0.0%   |                  0.0%   [131]   
155    conversion_155                             ||                 0.1%   |                  0.0%   [132]   
156    gemm_156                                   ||||||||||||||||   0.8%   |||||||||||||||   22.8%   [133]   
157    eltwise_157                                |                  0.0%   |                  0.0%   [135]   
158    nl_158                                     |                  0.0%   |                  0.0%   [136]   
159    conversion_159                             ||                 0.1%   |                  0.0%   [137]   
160    gemm_160                                   ||||||||||||||||   0.8%   |||||||||||||||   22.8%   [138]   
161    eltwise_161                                |                  0.0%   |                  0.0%   [140]   
162    nl_162                                     |                  0.0%   |                  0.0%   [141]   
163    conversion_163                             ||                 0.1%   |                  0.0%   [142]   
164    gemm_164                                   ||||||||||||||||   0.8%   |||||||||||||||   22.8%   [143]   
165    eltwise_165                                |                  0.0%   |                  0.0%   [145]   
166    nl_166                                     |                  0.0%   |                  0.0%   [146]   
167    conversion_167                             ||                 0.1%   |                  0.0%   [147]   
168    gemm_168                                   ||||||||||||||||   0.8%   |||||||||||||||   22.8%   [148]   
169    eltwise_169                                |                  0.0%   |                  0.0%   [150]   
170    nl_170                                     |                  0.0%   |                  0.0%   [151]   
171    conversion_171                             ||                 0.1%   |                  0.0%   [152]   
172    gemm_172                                   ||||||||||||||||   0.8%   |||||||||||||||   22.8%   [153]   
173    eltwise_173                                |                  0.0%   |                  0.0%   [155]   
174    nl_174                                     |                  0.0%   |                  0.0%   [156]   
175    conversion_175                             ||                 0.1%   |                  0.0%   [157]   
176    gemm_176                                   ||||||||||||||||   0.8%   |||||||||||||||   22.8%   [158]   
177    eltwise_177                                |                  0.0%   |                  0.0%   [160]   
178    nl_178                                     |                  0.0%   |                  0.0%   [161]   
179    conversion_179                             ||                 0.1%   |                  0.0%   [162]   
180    gemm_180                                   ||||||||||||||||   0.8%   |||||||||||||||   22.8%   [163]   
181    eltwise_181                                |                  0.0%   |                  0.0%   [165]   
182    nl_182                                     |                  0.0%   |                  0.0%   [166]   
183    conversion_183                             ||                 0.1%   |                  0.0%   [167]   
184    gemm_184                                   ||||||||||||||||   0.8%   |||||||||||||||   22.8%   [168]   
185    eltwise_185                                |                  0.0%   |                  0.0%   [170]   
186    nl_186                                     |                  0.0%   |                  0.0%   [171]   
187    conversion_187                             ||                 0.1%   |                  0.0%   [172]   
188    gemm_188                                   ||||||||||||||||   0.8%   |||||||||||||||   22.8%   [173]   
189    eltwise_189                                |                  0.0%   |                  0.0%   [175]   
190    nl_190                                     |                  0.0%   |                  0.0%   [176]   
191    conversion_191                             ||                 0.1%   |                  0.0%   [177]   
192    gemm_192                                   ||||||||||||||||   0.8%   |||||||||||||||   22.8%   [178]   
193    eltwise_193                                |                  0.0%   |                  0.0%   [180]   
194    nl_194                                     |                  0.0%   |                  0.0%   [181]   
195    conversion_195                             ||                 0.1%   |                  0.0%   [182]   
196    gemm_196                                   ||||||||||||||||   0.8%   |||||||||||||||   22.8%   [183]   
197    eltwise_197                                |                  0.0%   |                  0.0%   [185]   
198    nl_198                                     |                  0.0%   |                  0.0%   [186]   
199    conversion_199                             ||                 0.1%   |                  0.0%   [187]   
200    gemm_200                                   ||||||||||||||||   0.8%   |||||||||||||||   22.8%   [188]   
201    eltwise_201                                |                  0.0%   |                  0.0%   [190]   
202    nl_202                                     |                  0.0%   |                  0.0%   [191]   
203    conversion_203                             ||                 0.1%   |                  0.0%   [192]   
204    gemm_204                                   ||||||||||||||||   0.8%   |||||||||||||||   22.8%   [193]   
205    eltwise_205                                |                  0.0%   |                  0.0%   [195]   
206    nl_206                                     |                  0.0%   |                  0.0%   [196]   
207    conversion_207                             ||                 0.1%   |                  0.0%   [197]   
208    gemm_208                                   ||||||||||||||||   0.8%   |||||||||||||||   22.8%   [198]   
209    eltwise_209                                |                  0.0%   |                  0.0%   [200]   
210    nl_210                                     |                  0.0%   |                  0.0%   [201]   
211    conversion_211                             ||                 0.1%   |                  0.0%   [202]   
212    gemm_212                                   ||||||||||||||||   0.8%   |||||||||||||||   22.8%   [203]   
213    eltwise_213                                |                  0.0%   |                  0.0%   [205]   
214    nl_214                                     |                  0.0%   |                  0.0%   [206]   
215    conversion_215                             ||                 0.1%   |                  0.0%   [207]   
216    gemm_216                                   ||||||||||||||||   0.8%   |||||||||||||||   22.8%   [208]   
217    eltwise_217                                |                  0.0%   |                  0.0%   [210]   
218    nl_218                                     |                  0.0%   |                  0.0%   [211]   
219    conversion_219                             ||                 0.1%   |                  0.0%   [212]   
220    gemm_220                                   ||||||||||||||||   0.8%   |||||||||||||||   22.8%   [213]   
221    eltwise_221                                |                  0.0%   |                  0.0%   [215]   
222    nl_222                                     |                  0.0%   |                  0.0%   [216]   
223    conversion_223                             ||                 0.1%   |                  0.0%   [217]   
224    gemm_224                                   ||||||||||||||||   0.8%   |||||||||||||||   22.8%   [218]   
225    eltwise_225                                |                  0.0%   |                  0.0%   [220]   
226    nl_226                                     |                  0.0%   |                  0.0%   [221]   
227    conversion_227                             ||                 0.1%   |                  0.0%   [222]   
228    gemm_228                                   ||||||||||||||||   0.8%   |||||||||||||||   22.8%   [223]   
229    eltwise_229                                |                  0.0%   |                  0.0%   [225]   
230    nl_230                                     |                  0.0%   |                  0.0%   [226]   
231    conversion_231                             ||                 0.1%   |                  0.0%   [227]   
232    gemm_232                                   ||||||||||||||||   0.8%   |||||||||||||||   22.8%   [228]   
233    arith_constant155                          |||||||            0.3%   |||||||           10.6%   [229]   
234    eltwise_234                                |                  0.0%   |                  0.0%   [230]   
235    nl_235                                     |                  0.0%   |                  0.0%   [231]   
236    conversion_236                             ||                 0.1%   |                  0.0%   [232]   
237    gemm_237                                   ||||||||||||||||   0.8%   |||||||||||||||   22.8%   [233]   
238    arith_constant156                          |||||||            0.3%   |||||||           10.6%   [234]   
239    eltwise_239                                |                  0.0%   |                  0.0%   [235]   
240    nl_240                                     |                  0.0%   |                  0.0%   [236]   
241    conversion_241                             ||                 0.1%   |                  0.0%   [237]   
242    gemm_242                                   ||||||||||||||||   0.8%   |||||||||||||||   22.8%   [238]   
243    arith_constant157                          |||||||            0.3%   |||||||           10.6%   [239]   
244    eltwise_244                                |                  0.0%   |                  0.0%   [240]   
245    nl_245                                     |                  0.0%   |                  0.0%   [241]   
246    conversion_246                             ||                 0.1%   |                  0.0%   [242]   
247    pack_247                                   |                  0.0%   |                  0.0%   [243]   
253    arith_constant310                          |||||||            0.3%   ||||||||          11.4%   [1]     
254    unpack_254                                 |                  0.0%   |                  0.0%   [244]   
255    arith_constant210                          |||||||||||        0.5%   ||||||||||        15.2%   [245]   
256    eltwise_256                                |                  0.0%   |                  0.0%   [246]   
257    nl_257                                     |                  0.0%   |                  0.0%   [247]   
258    gemm_258                                   |||||||            0.3%   |||||||           10.9%   [248]   
259    arith_constant1                            |||||||||||        0.5%   ||||||||||        15.2%   [265]   
260    arith_constant2                            |||||||||||        0.5%   ||||||||||        15.2%   [269]   
261    arith_constant3                            |||||||||||        0.5%   ||||||||||        15.2%   [273]   
262    arith_constant4                            |||||||||||        0.5%   ||||||||||        15.2%   [277]   
263    arith_constant5                            |||||||||||        0.5%   ||||||||||        15.2%   [281]   
264    arith_constant9                            |||||||||||        0.5%   ||||||||||        15.2%   [285]   
265    arith_constant10                           |||||||||||        0.5%   ||||||||||        15.2%   [289]   
266    arith_constant11                           |||||||||||        0.5%   ||||||||||        15.2%   [293]   
267    arith_constant12                           |||||||||||        0.5%   ||||||||||        15.2%   [297]   
268    arith_constant13                           |||||||||||        0.5%   ||||||||||        15.2%   [301]   
269    arith_constant14                           |||||||||||        0.5%   ||||||||||        15.2%   [249]   
270    eltwise_270                                |                  0.0%   |                  0.0%   [250]   
271    nl_271                                     |                  0.0%   |                  0.0%   [251]   
272    gemm_272                                   |||||||            0.3%   |||||||           10.9%   [252]   
273    arith_constant15                           |||||||||||        0.5%   ||||||||||        15.2%   [305]   
274    arith_constant16                           |||||||||||        0.5%   ||||||||||        15.2%   [309]   
275    arith_constant17                           |||||||||||        0.5%   ||||||||||        15.2%   [313]   
276    arith_constant18                           |||||||||||        0.5%   ||||||||||        15.2%   [317]   
277    arith_constant19                           |||||||||||        0.5%   ||||||||||        15.2%   [321]   
278    arith_constant20                           |||||||||||        0.5%   ||||||||||        15.2%   [325]   
279    arith_constant21                           |||||||||||        0.5%   ||||||||||        15.2%   [329]   
280    arith_constant22                           |||||||||||        0.5%   ||||||||||        15.2%   [333]   
281    arith_constant23                           |||||||||||        0.5%   ||||||||||        15.2%   [337]   
282    arith_constant24                           |||||||||||        0.5%   ||||||||||        15.2%   [341]   
283    arith_constant25                           |||||||||||        0.5%   ||||||||||        15.2%   [253]   
284    eltwise_284                                |                  0.0%   |                  0.0%   [254]   
285    nl_285                                     |                  0.0%   |                  0.0%   [255]   
286    gemm_286                                   |||||||            0.3%   |||||||           10.9%   [256]   
287    arith_constant26                           |||||||||||        0.5%   ||||||||||        15.2%   [345]   
288    arith_constant27                           |||||||||||        0.5%   ||||||||||        15.2%   [349]   
289    arith_constant28                           |||||||||||        0.5%   ||||||||||        15.2%   [353]   
290    arith_constant29                           |||||||||||        0.5%   ||||||||||        15.2%   [357]   
291    arith_constant30                           |||||||||||        0.5%   ||||||||||        15.2%   [361]   
292    arith_constant31                           |||||||||||        0.5%   ||||||||||        15.2%   [365]   
293    arith_constant32                           |||||||||||        0.5%   ||||||||||        15.2%   [369]   
294    arith_constant33                           |||||||||||        0.5%   ||||||||||        15.2%   [373]   
295    arith_constant34                           |||||||||||        0.5%   ||||||||||        15.2%   [377]   
296    arith_constant35                           |||||||||||        0.5%   ||||||||||        15.2%   [381]   
297    arith_constant36                           |||||||||||        0.5%   ||||||||||        15.2%   [257]   
298    eltwise_298                                |                  0.0%   |                  0.0%   [258]   
299    nl_299                                     |                  0.0%   |                  0.0%   [259]   
300    gemm_300                                   |||||||            0.3%   |||||||           10.9%   [260]   
301    arith_constant37                           |||||||||||        0.5%   ||||||||||        15.2%   [385]   
302    arith_constant38                           |||||||||||        0.5%   ||||||||||        15.2%   [389]   
303    arith_constant39                           |||||||||||        0.5%   ||||||||||        15.2%   [393]   
304    arith_constant40                           |||||||||||        0.5%   ||||||||||        15.2%   [397]   
305    arith_constant41                           |||||||||||        0.5%   ||||||||||        15.2%   [401]   
306    arith_constant42                           |||||||||||        0.5%   ||||||||||        15.2%   [405]   
307    arith_constant43                           |||||||||||        0.5%   ||||||||||        15.2%   [409]   
308    arith_constant44                           |||||||||||        0.5%   ||||||||||        15.2%   [413]   
309    arith_constant45                           |||||||||||        0.5%   ||||||||||        15.2%   [417]   
310    arith_constant46                           |||||||||||        0.5%   ||||||||||        15.2%   [421]   
311    arith_constant47                           |||||||||||        0.5%   ||||||||||        15.2%   [261]   
312    eltwise_312                                |                  0.0%   |                  0.0%   [262]   
313    nl_313                                     |                  0.0%   |                  0.0%   [263]   
314    gemm_314                                   |||||||            0.3%   |||||||           10.9%   [264]   
315    eltwise_315                                |                  0.0%   |                  0.0%   [266]   
316    nl_316                                     |                  0.0%   |                  0.0%   [267]   
317    gemm_317                                   |||||||            0.3%   |||||||           10.9%   [268]   
318    eltwise_318                                |                  0.0%   |                  0.0%   [270]   
319    nl_319                                     |                  0.0%   |                  0.0%   [271]   
320    gemm_320                                   |||||||            0.3%   |||||||           10.9%   [272]   
321    eltwise_321                                |                  0.0%   |                  0.0%   [274]   
322    nl_322                                     |                  0.0%   |                  0.0%   [275]   
323    gemm_323                                   |||||||            0.3%   |||||||           10.9%   [276]   
324    eltwise_324                                |                  0.0%   |                  0.0%   [278]   
325    nl_325                                     |                  0.0%   |                  0.0%   [279]   
326    gemm_326                                   |||||||            0.3%   |||||||           10.9%   [280]   
327    eltwise_327                                |                  0.0%   |                  0.0%   [282]   
328    nl_328                                     |                  0.0%   |                  0.0%   [283]   
329    gemm_329                                   |||||||            0.3%   |||||||           10.9%   [284]   
330    eltwise_330                                |                  0.0%   |                  0.0%   [286]   
331    nl_331                                     |                  0.0%   |                  0.0%   [287]   
332    gemm_332                                   |||||||            0.3%   |||||||           10.9%   [288]   
333    eltwise_333                                |                  0.0%   |                  0.0%   [290]   
334    nl_334                                     |                  0.0%   |                  0.0%   [291]   
335    gemm_335                                   |||||||            0.3%   |||||||           10.9%   [292]   
336    eltwise_336                                |                  0.0%   |                  0.0%   [294]   
337    nl_337                                     |                  0.0%   |                  0.0%   [295]   
338    gemm_338                                   |||||||            0.3%   |||||||           10.9%   [296]   
339    eltwise_339                                |                  0.0%   |                  0.0%   [298]   
340    nl_340                                     |                  0.0%   |                  0.0%   [299]   
341    gemm_341                                   |||||||            0.3%   |||||||           10.9%   [300]   
342    eltwise_342                                |                  0.0%   |                  0.0%   [302]   
343    nl_343                                     |                  0.0%   |                  0.0%   [303]   
344    gemm_344                                   |||||||            0.3%   |||||||           10.9%   [304]   
345    eltwise_345                                |                  0.0%   |                  0.0%   [306]   
346    nl_346                                     |                  0.0%   |                  0.0%   [307]   
347    gemm_347                                   |||||||            0.3%   |||||||           10.9%   [308]   
348    eltwise_348                                |                  0.0%   |                  0.0%   [310]   
349    nl_349                                     |                  0.0%   |                  0.0%   [311]   
350    gemm_350                                   |||||||            0.3%   |||||||           10.9%   [312]   
351    eltwise_351                                |                  0.0%   |                  0.0%   [314]   
352    nl_352                                     |                  0.0%   |                  0.0%   [315]   
353    gemm_353                                   |||||||            0.3%   |||||||           10.9%   [316]   
354    eltwise_354                                |                  0.0%   |                  0.0%   [318]   
355    nl_355                                     |                  0.0%   |                  0.0%   [319]   
356    gemm_356                                   |||||||            0.3%   |||||||           10.9%   [320]   
357    eltwise_357                                |                  0.0%   |                  0.0%   [322]   
358    nl_358                                     |                  0.0%   |                  0.0%   [323]   
359    gemm_359                                   |||||||            0.3%   |||||||           10.9%   [324]   
360    eltwise_360                                |                  0.0%   |                  0.0%   [326]   
361    nl_361                                     |                  0.0%   |                  0.0%   [327]   
362    gemm_362                                   |||||||            0.3%   |||||||           10.9%   [328]   
363    eltwise_363                                |                  0.0%   |                  0.0%   [330]   
364    nl_364                                     |                  0.0%   |                  0.0%   [331]   
365    gemm_365                                   |||||||            0.3%   |||||||           10.9%   [332]   
366    eltwise_366                                |                  0.0%   |                  0.0%   [334]   
367    nl_367                                     |                  0.0%   |                  0.0%   [335]   
368    gemm_368                                   |||||||            0.3%   |||||||           10.9%   [336]   
369    eltwise_369                                |                  0.0%   |                  0.0%   [338]   
370    nl_370                                     |                  0.0%   |                  0.0%   [339]   
371    gemm_371                                   |||||||            0.3%   |||||||           10.9%   [340]   
372    eltwise_372                                |                  0.0%   |                  0.0%   [342]   
373    nl_373                                     |                  0.0%   |                  0.0%   [343]   
374    gemm_374                                   |||||||            0.3%   |||||||           10.9%   [344]   
375    eltwise_375                                |                  0.0%   |                  0.0%   [346]   
376    nl_376                                     |                  0.0%   |                  0.0%   [347]   
377    gemm_377                                   |||||||            0.3%   |||||||           10.9%   [348]   
378    eltwise_378                                |                  0.0%   |                  0.0%   [350]   
379    nl_379                                     |                  0.0%   |                  0.0%   [351]   
380    gemm_380                                   |||||||            0.3%   |||||||           10.9%   [352]   
381    eltwise_381                                |                  0.0%   |                  0.0%   [354]   
382    nl_382                                     |                  0.0%   |                  0.0%   [355]   
383    gemm_383                                   |||||||            0.3%   |||||||           10.9%   [356]   
384    eltwise_384                                |                  0.0%   |                  0.0%   [358]   
385    nl_385                                     |                  0.0%   |                  0.0%   [359]   
386    gemm_386                                   |||||||            0.3%   |||||||           10.9%   [360]   
387    eltwise_387                                |                  0.0%   |                  0.0%   [362]   
388    nl_388                                     |                  0.0%   |                  0.0%   [363]   
389    gemm_389                                   |||||||            0.3%   |||||||           10.9%   [364]   
390    eltwise_390                                |                  0.0%   |                  0.0%   [366]   
391    nl_391                                     |                  0.0%   |                  0.0%   [367]   
392    gemm_392                                   |||||||            0.3%   |||||||           10.9%   [368]   
393    eltwise_393                                |                  0.0%   |                  0.0%   [370]   
394    nl_394                                     |                  0.0%   |                  0.0%   [371]   
395    gemm_395                                   |||||||            0.3%   |||||||           10.9%   [372]   
396    eltwise_396                                |                  0.0%   |                  0.0%   [374]   
397    nl_397                                     |                  0.0%   |                  0.0%   [375]   
398    gemm_398                                   |||||||            0.3%   |||||||           10.9%   [376]   
399    eltwise_399                                |                  0.0%   |                  0.0%   [378]   
400    nl_400                                     |                  0.0%   |                  0.0%   [379]   
401    gemm_401                                   |||||||            0.3%   |||||||           10.9%   [380]   
402    eltwise_402                                |                  0.0%   |                  0.0%   [382]   
403    nl_403                                     |                  0.0%   |                  0.0%   [383]   
404    gemm_404                                   |||||||            0.3%   |||||||           10.9%   [384]   
405    eltwise_405                                |                  0.0%   |                  0.0%   [386]   
406    nl_406                                     |                  0.0%   |                  0.0%   [387]   
407    gemm_407                                   |||||||            0.3%   |||||||           10.9%   [388]   
408    eltwise_408                                |                  0.0%   |                  0.0%   [390]   
409    nl_409                                     |                  0.0%   |                  0.0%   [391]   
410    gemm_410                                   |||||||            0.3%   |||||||           10.9%   [392]   
411    eltwise_411                                |                  0.0%   |                  0.0%   [394]   
412    nl_412                                     |                  0.0%   |                  0.0%   [395]   
413    gemm_413                                   |||||||            0.3%   |||||||           10.9%   [396]   
414    eltwise_414                                |                  0.0%   |                  0.0%   [398]   
415    nl_415                                     |                  0.0%   |                  0.0%   [399]   
416    gemm_416                                   |||||||            0.3%   |||||||           10.9%   [400]   
417    eltwise_417                                |                  0.0%   |                  0.0%   [402]   
418    nl_418                                     |                  0.0%   |                  0.0%   [403]   
419    gemm_419                                   |||||||            0.3%   |||||||           10.9%   [404]   
420    eltwise_420                                |                  0.0%   |                  0.0%   [406]   
421    nl_421                                     |                  0.0%   |                  0.0%   [407]   
422    gemm_422                                   |||||||            0.3%   |||||||           10.9%   [408]   
423    eltwise_423                                |                  0.0%   |                  0.0%   [410]   
424    nl_424                                     |                  0.0%   |                  0.0%   [411]   
425    gemm_425                                   |||||||            0.3%   |||||||           10.9%   [412]   
426    eltwise_426                                |                  0.0%   |                  0.0%   [414]   
427    nl_427                                     |                  0.0%   |                  0.0%   [415]   
428    gemm_428                                   |||||||            0.3%   |||||||           10.9%   [416]   
429    eltwise_429                                |                  0.0%   |                  0.0%   [418]   
430    nl_430                                     |                  0.0%   |                  0.0%   [419]   
431    gemm_431                                   |||||||            0.3%   |||||||           10.9%   [420]   
432    eltwise_432                                |                  0.0%   |                  0.0%   [422]   
433    nl_433                                     |                  0.0%   |                  0.0%   [423]   
434    gemm_434                                   |||||||            0.3%   |||||||           10.9%   [424]   
435    arith_constant48                           |||||||||||        0.5%   ||||||||||        15.2%   [425]   
436    eltwise_436                                |                  0.0%   |                  0.0%   [426]   
437    nl_437                                     |                  0.0%   |                  0.0%   [427]   
438    gemm_438                                   |||||||            0.3%   |||||||           10.9%   [428]   
439    arith_constant49                           |||||||||||        0.5%   ||||||||||        15.2%   [429]   
440    eltwise_440                                |                  0.0%   |                  0.0%   [430]   
441    nl_441                                     |                  0.0%   |                  0.0%   [431]   
442    gemm_442                                   |||||||            0.3%   |||||||           10.9%   [432]   
443    arith_constant50                           |||||||||||        0.5%   ||||||||||        15.2%   [433]   
444    eltwise_444                                |                  0.0%   |                  0.0%   [434]   
445    nl_445                                     |                  0.0%   |                  0.0%   [435]   
446    residual_rnn_forecaster_1_de..1_1_MatMul   |||||||||||        0.5%   |||||||||||       16.3%   [436]   
447    residual_rnn_forecaster_1_re..c_1_MatMul   ||||||||||||||||   0.8%   |||||||||||||||   22.8%   [437]   
448    eltwise_448                                |                  0.0%   |                  0.0%   [439]   
------ ------------------------------------------ ------------------------- ------------------------- ------- 
macc=79,968 weights=2,944 act=3,064 ram_io=0
 
 Requested memory size by section - "stm32f7" target
 ------------------------------- -------- -------- -------- ------- 
 module                              text   rodata     data     bss 
 ------------------------------- -------- -------- -------- ------- 
 forecast_temp_ml_model.o           8,888   41,703   98,456   2,080 
 NetworkRuntime1020_CM7_GCC.a      11,220        0        0       0 
 forecast_temp_ml_model_data.o         48       16       88       0 
 lib (toolchain)*                       0        0        0       0 
 ------------------------------- -------- -------- -------- ------- 
 RT total**                        20,156   41,719   98,544   2,080 
 ------------------------------- -------- -------- -------- ------- 
 weights                                0    2,944        0       0 
 activations                            0        0        0   3,064 
 io                                     0        0        0       0 
 ------------------------------- -------- -------- -------- ------- 
 TOTAL                             20,156   44,663   98,544   5,144 
 ------------------------------- -------- -------- -------- ------- 
 *  toolchain objects (libm/libgcc*)
 ** RT AI runtime objects (kernels+infrastructure)
  
  Summary - "stm32f7" target
  ---------------------------------------------------
               FLASH (ro)      %*   RAM (rw)       % 
  ---------------------------------------------------
  RT total        160,419   98.2%    100,624   97.0% 
  ---------------------------------------------------
  TOTAL           163,363            103,688         
  ---------------------------------------------------
  *  rt/total


Generated files (7)
-------------------------------------------------------------------------------------------------------------- 
C:\Users\rishi_latchmepersad\.stm32cubemx\forecast_temp_ml_model_output\forecast_temp_ml_model_data_params.h   
C:\Users\rishi_latchmepersad\.stm32cubemx\forecast_temp_ml_model_output\forecast_temp_ml_model_data_params.c   
C:\Users\rishi_latchmepersad\.stm32cubemx\forecast_temp_ml_model_output\forecast_temp_ml_model_data.h          
C:\Users\rishi_latchmepersad\.stm32cubemx\forecast_temp_ml_model_output\forecast_temp_ml_model_data.c          
C:\Users\rishi_latchmepersad\.stm32cubemx\forecast_temp_ml_model_output\forecast_temp_ml_model_config.h        
C:\Users\rishi_latchmepersad\.stm32cubemx\forecast_temp_ml_model_output\forecast_temp_ml_model.h               
C:\Users\rishi_latchmepersad\.stm32cubemx\forecast_temp_ml_model_output\forecast_temp_ml_model.c               
