ST Edge AI Core v2.2.0-20266 2adc00962
Created date          : 2025-12-07 15:48:44
Parameters            : generate --target stm32f7 --name forecast_temp_ml_model -m C:/Users/rishi_latchmepersad/Downloads/quantized_rnn_modelv2 (1).tflite --compression none --verbosity 1 --workspace C:/Users/RISHI_~1/AppData/Local/Temp/mxAI_workspace97687349500017802163104819330084 --output C:/Users/rishi_latchmepersad/.stm32cubemx/forecast_temp_ml_model_output

Exec/report summary (generate)
-------------------------------------------------------------------------------------------------------------
model file         :   C:\Users\rishi_latchmepersad\Downloads\quantized_rnn_modelv2 (1).tflite               
type               :   tflite                                                                                
c_name             :   forecast_temp_ml_model                                                                
compression        :   none                                                                                  
options            :   allocate-inputs, allocate-outputs                                                     
optimization       :   balanced                                                                              
target/series      :   stm32f7                                                                               
workspace dir      :   C:\Users\RISHI_~1\AppData\Local\Temp\mxAI_workspace97687349500017802163104819330084   
output dir         :   C:\Users\rishi_latchmepersad\.stm32cubemx\forecast_temp_ml_model_output               
model_fmt          :   ss/ss per tensor                                                                      
model_name         :   quantized_rnn_modelv2_1                                                               
model_hash         :   0x1cfb15279c924b7e429d69596d361d99                                                    
params #           :   6,468 items (14.68 KiB)                                                               
-------------------------------------------------------------------------------------------------------------
input 1/1          :   'serving_default_keras_tensor0', f32(1x48x9), 1.69 KBytes, activations                
output 1/1         :   'conversion_447', f32(1x24), 96 Bytes, activations                                    
macc               :   155,640                                                                               
weights (ro)       :   4,184 B (4.09 KiB) (1 segment) / -21,688(-83.8%) vs float model                       
activations (rw)   :   3,164 B (3.09 KiB) (1 segment) *                                                      
ram (total)        :   3,164 B (3.09 KiB) = 3,164 + 0 + 0                                                    
-------------------------------------------------------------------------------------------------------------
(*) 'input'/'output' buffers are allocated in the activations buffer

Model name - quantized_rnn_modelv2_1
------ ----------------------------------------------- -------------------------------------------------------------------------------------------------------------------------------------------------------------------------------------------------------------------------------------------------------------------------------------------------------------------------------------------------------------------------------------------------------------------------------------------------------------------------------------------------- ------------- ------- ------------------------------- --- ----------------- ----------------- --------------------- 
m_id   layer (type,original)                           oshape                                                                                                                                                                                                                                                                                                                                                                                                                                                                                             param/size       macc                    connected to   | c_size            c_macc            c_type                
------ ----------------------------------------------- -------------------------------------------------------------------------------------------------------------------------------------------------------------------------------------------------------------------------------------------------------------------------------------------------------------------------------------------------------------------------------------------------------------------------------------------------------------------------------------------------- ------------- ------- ------------------------------- --- ----------------- ----------------- --------------------- 
0      serving_default_keras_tensor0 (Input, )         [b:1,h:48,c:9]                                                                                                                                                                                                                                                                                                                                                                                                                                                                                                                                             |                   +864(+100.0%)     Conversion_[2]        
       conversion_0 (Conversion, QUANTIZE)             [b:1,h:48,c:9]                                                                                                                                                                                                                                                                                                                                                                                                                                                                                                       864   serving_default_keras_tensor0   |                   -864(-100.0%)     
------ ----------------------------------------------- -------------------------------------------------------------------------------------------------------------------------------------------------------------------------------------------------------------------------------------------------------------------------------------------------------------------------------------------------------------------------------------------------------------------------------------------------------------------------------------------------- ------------- ------- ------------------------------- --- ----------------- ----------------- --------------------- 
3      transpose_3 (Transpose, TRANSPOSE)              [b:48,h:1,c:9]                                                                                                                                                                                                                                                                                                                                                                                                                                                                                                         4                    conversion_0   |                   +212(+5300.0%)    Transpose_[3]         
------ ----------------------------------------------- -------------------------------------------------------------------------------------------------------------------------------------------------------------------------------------------------------------------------------------------------------------------------------------------------------------------------------------------------------------------------------------------------------------------------------------------------------------------------------------------------- ------------- ------- ------------------------------- --- ----------------- ----------------- --------------------- 
4      unpack_4 (Unpack, UNPACK)                       [b:1,c:9][b:1,c:9][b:1,c:9][b:1,c:9][b:1,c:9][b:1,c:9][b:1,c:9][b:1,c:9][b:1,c:9][b:1,c:9][b:1,c:9][b:1,c:9][b:1,c:9][b:1,c:9][b:1,c:9][b:1,c:9][b:1,c:9][b:1,c:9][b:1,c:9][b:1,c:9][b:1,c:9][b:1,c:9][b:1,c:9][b:1,c:9][b:1,c:9][b:1,c:9][b:1,c:9][b:1,c:9][b:1,c:9][b:1,c:9][b:1,c:9][b:1,c:9][b:1,c:9][b:1,c:9][b:1,c:9][b:1,c:9][b:1,c:9][b:1,c:9][b:1,c:9][b:1,c:9][b:1,c:9][b:1,c:9][b:1,c:9][b:1,c:9][b:1,c:9][b:1,c:9][b:1,c:9][b:1,c:9]                                                                                             transpose_3   |                                     Unpack_[4]            
------ ----------------------------------------------- -------------------------------------------------------------------------------------------------------------------------------------------------------------------------------------------------------------------------------------------------------------------------------------------------------------------------------------------------------------------------------------------------------------------------------------------------------------------------------------------------- ------------- ------- ------------------------------- --- ----------------- ----------------- --------------------- 
6      constantofshape_6_const (Placeholder, FILL)     [b:1,c:32]                                                                                                                                                                                                                                                                                                                                                                                                                                                                                         32/32                                                   | -32(-100.0%)                        
------ ----------------------------------------------- -------------------------------------------------------------------------------------------------------------------------------------------------------------------------------------------------------------------------------------------------------------------------------------------------------------------------------------------------------------------------------------------------------------------------------------------------------------------------------------------------- ------------- ------- ------------------------------- --- ----------------- ----------------- --------------------- 
7      tfl_pseudo_qconst101 (Placeholder, )            [b:32,c:32]                                                                                                                                                                                                                                                                                                                                                                                                                                                                                        1,024/1,024                                             | +160(+15.6%)      +1,056(+100.0%)   Dense_[0]             
       gemm_7 (Gemm, FULLY_CONNECTED)                  [b:1,c:32]                                                                                                                                                                                                                                                                                                                                                                                                                                                                                                         1,056         constantofshape_6_const   |                   -1,056(-100.0%)   
                                                                                                                                                                                                                                                                                                                                                                                                                                                                                                                                                                                           tfl_pseudo_qconst101   | 
------ ----------------------------------------------- -------------------------------------------------------------------------------------------------------------------------------------------------------------------------------------------------------------------------------------------------------------------------------------------------------------------------------------------------------------------------------------------------------------------------------------------------------------------------------------------------- ------------- ------- ------------------------------- --- ----------------- ----------------- --------------------- 
8      tfl_pseudo_qconst100 (Placeholder, )            [b:32,c:9]                                                                                                                                                                                                                                                                                                                                                                                                                                                                                         288/288                                                 | +128(+44.4%)      +320(+100.0%)     Dense_[5]             
       tfl_pseudo_qconst52 (Placeholder, )             [b:32]                                                                                                                                                                                                                                                                                                                                                                                                                                                                                             32/128                                                  | -128(-100.0%)                       
       gemm_8 (Gemm, FULLY_CONNECTED)                  [b:1,c:32]                                                                                                                                                                                                                                                                                                                                                                                                                                                                                                           320                        unpack_4   |                   -320(-100.0%)     
                                                                                                                                                                                                                                                                                                                                                                                                                                                                                                                                                                                           tfl_pseudo_qconst100   | 
                                                                                                                                                                                                                                                                                                                                                                                                                                                                                                                                                                                            tfl_pseudo_qconst52   | 
------ ----------------------------------------------- -------------------------------------------------------------------------------------------------------------------------------------------------------------------------------------------------------------------------------------------------------------------------------------------------------------------------------------------------------------------------------------------------------------------------------------------------------------------------------------------------- ------------- ------- ------------------------------- --- ----------------- ----------------- --------------------- 
9      eltwise_9 (Eltwise, ADD)                        [b:1,c:32]                                                                                                                                                                                                                                                                                                                                                                                                                                                                                                            32                          gemm_8   |                                     Eltwise/add_[6]       
                                                                                                                                                                                                                                                                                                                                                                                                                                                                                                                                                                                                         gemm_7   | 
------ ----------------------------------------------- -------------------------------------------------------------------------------------------------------------------------------------------------------------------------------------------------------------------------------------------------------------------------------------------------------------------------------------------------------------------------------------------------------------------------------------------------------------------------------------------------- ------------- ------- ------------------------------- --- ----------------- ----------------- --------------------- 
10     nl_10 (Nonlinearity, TANH)                      [b:1,c:32]                                                                                                                                                                                                                                                                                                                                                                                                                                                                                                           320                       eltwise_9   |                   -288(-90.0%)      Nonlinearity_[7]      
------ ----------------------------------------------- -------------------------------------------------------------------------------------------------------------------------------------------------------------------------------------------------------------------------------------------------------------------------------------------------------------------------------------------------------------------------------------------------------------------------------------------------------------------------------------------------- ------------- ------- ------------------------------- --- ----------------- ----------------- --------------------- 
11     conversion_11 (Conversion, QUANTIZE)            [b:1,c:32]                                                                                                                                                                                                                                                                                                                                                                                                                                                                                                            64                           nl_10   |                                     Conversion_[8]        
------ ----------------------------------------------- -------------------------------------------------------------------------------------------------------------------------------------------------------------------------------------------------------------------------------------------------------------------------------------------------------------------------------------------------------------------------------------------------------------------------------------------------------------------------------------------------- ------------- ------- ------------------------------- --- ----------------- ----------------- --------------------- 
12     gemm_12 (Gemm, FULLY_CONNECTED)                 [b:1,c:32]                                                                                                                                                                                                                                                                                                                                                                                                                                                                                                         1,056                   conversion_11   | +1,152(+100.0%)                     Dense_[9]             
                                                                                                                                                                                                                                                                                                                                                                                                                                                                                                                                                                                           tfl_pseudo_qconst101   | 
------ ----------------------------------------------- -------------------------------------------------------------------------------------------------------------------------------------------------------------------------------------------------------------------------------------------------------------------------------------------------------------------------------------------------------------------------------------------------------------------------------------------------------------------------------------------------- ------------- ------- ------------------------------- --- ----------------- ----------------- --------------------- 
13     tfl_pseudo_qconst53 (Placeholder, )             [b:32]                                                                                                                                                                                                                                                                                                                                                                                                                                                                                             32/128                                                  | +288(+225.0%)     +320(+100.0%)     Dense_[30]            
       gemm_13 (Gemm, FULLY_CONNECTED)                 [b:1,c:32]                                                                                                                                                                                                                                                                                                                                                                                                                                                                                                           320                        unpack_4   |                   -320(-100.0%)     
                                                                                                                                                                                                                                                                                                                                                                                                                                                                                                                                                                                           tfl_pseudo_qconst100   | 
                                                                                                                                                                                                                                                                                                                                                                                                                                                                                                                                                                                            tfl_pseudo_qconst53   | 
------ ----------------------------------------------- -------------------------------------------------------------------------------------------------------------------------------------------------------------------------------------------------------------------------------------------------------------------------------------------------------------------------------------------------------------------------------------------------------------------------------------------------------------------------------------------------- ------------- ------- ------------------------------- --- ----------------- ----------------- --------------------- 
14     tfl_pseudo_qconst54 (Placeholder, )             [b:32]                                                                                                                                                                                                                                                                                                                                                                                                                                                                                             32/128                                                  | +288(+225.0%)     +320(+100.0%)     Dense_[35]            
       gemm_14 (Gemm, FULLY_CONNECTED)                 [b:1,c:32]                                                                                                                                                                                                                                                                                                                                                                                                                                                                                                           320                        unpack_4   |                   -320(-100.0%)     
                                                                                                                                                                                                                                                                                                                                                                                                                                                                                                                                                                                           tfl_pseudo_qconst100   | 
                                                                                                                                                                                                                                                                                                                                                                                                                                                                                                                                                                                            tfl_pseudo_qconst54   | 
------ ----------------------------------------------- -------------------------------------------------------------------------------------------------------------------------------------------------------------------------------------------------------------------------------------------------------------------------------------------------------------------------------------------------------------------------------------------------------------------------------------------------------------------------------------------------- ------------- ------- ------------------------------- --- ----------------- ----------------- --------------------- 
15     tfl_pseudo_qconst55 (Placeholder, )             [b:32]                                                                                                                                                                                                                                                                                                                                                                                                                                                                                             32/128                                                  | +288(+225.0%)     +320(+100.0%)     Dense_[40]            
       gemm_15 (Gemm, FULLY_CONNECTED)                 [b:1,c:32]                                                                                                                                                                                                                                                                                                                                                                                                                                                                                                           320                        unpack_4   |                   -320(-100.0%)     
                                                                                                                                                                                                                                                                                                                                                                                                                                                                                                                                                                                           tfl_pseudo_qconst100   | 
                                                                                                                                                                                                                                                                                                                                                                                                                                                                                                                                                                                            tfl_pseudo_qconst55   | 
------ ----------------------------------------------- -------------------------------------------------------------------------------------------------------------------------------------------------------------------------------------------------------------------------------------------------------------------------------------------------------------------------------------------------------------------------------------------------------------------------------------------------------------------------------------------------- ------------- ------- ------------------------------- --- ----------------- ----------------- --------------------- 
16     tfl_pseudo_qconst56 (Placeholder, )             [b:32]                                                                                                                                                                                                                                                                                                                                                                                                                                                                                             32/128                                                  | +288(+225.0%)     +320(+100.0%)     Dense_[45]            
       gemm_16 (Gemm, FULLY_CONNECTED)                 [b:1,c:32]                                                                                                                                                                                                                                                                                                                                                                                                                                                                                                           320                        unpack_4   |                   -320(-100.0%)     
                                                                                                                                                                                                                                                                                                                                                                                                                                                                                                                                                                                           tfl_pseudo_qconst100   | 
                                                                                                                                                                                                                                                                                                                                                                                                                                                                                                                                                                                            tfl_pseudo_qconst56   | 
------ ----------------------------------------------- -------------------------------------------------------------------------------------------------------------------------------------------------------------------------------------------------------------------------------------------------------------------------------------------------------------------------------------------------------------------------------------------------------------------------------------------------------------------------------------------------- ------------- ------- ------------------------------- --- ----------------- ----------------- --------------------- 
17     tfl_pseudo_qconst57 (Placeholder, )             [b:32]                                                                                                                                                                                                                                                                                                                                                                                                                                                                                             32/128                                                  | +288(+225.0%)     +320(+100.0%)     Dense_[50]            
       gemm_17 (Gemm, FULLY_CONNECTED)                 [b:1,c:32]                                                                                                                                                                                                                                                                                                                                                                                                                                                                                                           320                        unpack_4   |                   -320(-100.0%)     
                                                                                                                                                                                                                                                                                                                                                                                                                                                                                                                                                                                           tfl_pseudo_qconst100   | 
                                                                                                                                                                                                                                                                                                                                                                                                                                                                                                                                                                                            tfl_pseudo_qconst57   | 
------ ----------------------------------------------- -------------------------------------------------------------------------------------------------------------------------------------------------------------------------------------------------------------------------------------------------------------------------------------------------------------------------------------------------------------------------------------------------------------------------------------------------------------------------------------------------- ------------- ------- ------------------------------- --- ----------------- ----------------- --------------------- 
18     tfl_pseudo_qconst58 (Placeholder, )             [b:32]                                                                                                                                                                                                                                                                                                                                                                                                                                                                                             32/128                                                  | +288(+225.0%)     +320(+100.0%)     Dense_[55]            
       gemm_18 (Gemm, FULLY_CONNECTED)                 [b:1,c:32]                                                                                                                                                                                                                                                                                                                                                                                                                                                                                                           320                        unpack_4   |                   -320(-100.0%)     
                                                                                                                                                                                                                                                                                                                                                                                                                                                                                                                                                                                           tfl_pseudo_qconst100   | 
                                                                                                                                                                                                                                                                                                                                                                                                                                                                                                                                                                                            tfl_pseudo_qconst58   | 
------ ----------------------------------------------- -------------------------------------------------------------------------------------------------------------------------------------------------------------------------------------------------------------------------------------------------------------------------------------------------------------------------------------------------------------------------------------------------------------------------------------------------------------------------------------------------- ------------- ------- ------------------------------- --- ----------------- ----------------- --------------------- 
19     tfl_pseudo_qconst59 (Placeholder, )             [b:32]                                                                                                                                                                                                                                                                                                                                                                                                                                                                                             32/128                                                  | +288(+225.0%)     +320(+100.0%)     Dense_[60]            
       gemm_19 (Gemm, FULLY_CONNECTED)                 [b:1,c:32]                                                                                                                                                                                                                                                                                                                                                                                                                                                                                                           320                        unpack_4   |                   -320(-100.0%)     
                                                                                                                                                                                                                                                                                                                                                                                                                                                                                                                                                                                           tfl_pseudo_qconst100   | 
                                                                                                                                                                                                                                                                                                                                                                                                                                                                                                                                                                                            tfl_pseudo_qconst59   | 
------ ----------------------------------------------- -------------------------------------------------------------------------------------------------------------------------------------------------------------------------------------------------------------------------------------------------------------------------------------------------------------------------------------------------------------------------------------------------------------------------------------------------------------------------------------------------- ------------- ------- ------------------------------- --- ----------------- ----------------- --------------------- 
20     tfl_pseudo_qconst60 (Placeholder, )             [b:32]                                                                                                                                                                                                                                                                                                                                                                                                                                                                                             32/128                                                  | +288(+225.0%)     +320(+100.0%)     Dense_[65]            
       gemm_20 (Gemm, FULLY_CONNECTED)                 [b:1,c:32]                                                                                                                                                                                                                                                                                                                                                                                                                                                                                                           320                        unpack_4   |                   -320(-100.0%)     
                                                                                                                                                                                                                                                                                                                                                                                                                                                                                                                                                                                           tfl_pseudo_qconst100   | 
                                                                                                                                                                                                                                                                                                                                                                                                                                                                                                                                                                                            tfl_pseudo_qconst60   | 
------ ----------------------------------------------- -------------------------------------------------------------------------------------------------------------------------------------------------------------------------------------------------------------------------------------------------------------------------------------------------------------------------------------------------------------------------------------------------------------------------------------------------------------------------------------------------- ------------- ------- ------------------------------- --- ----------------- ----------------- --------------------- 
21     tfl_pseudo_qconst61 (Placeholder, )             [b:32]                                                                                                                                                                                                                                                                                                                                                                                                                                                                                             32/128                                                  | +288(+225.0%)     +320(+100.0%)     Dense_[70]            
       gemm_21 (Gemm, FULLY_CONNECTED)                 [b:1,c:32]                                                                                                                                                                                                                                                                                                                                                                                                                                                                                                           320                        unpack_4   |                   -320(-100.0%)     
                                                                                                                                                                                                                                                                                                                                                                                                                                                                                                                                                                                           tfl_pseudo_qconst100   | 
                                                                                                                                                                                                                                                                                                                                                                                                                                                                                                                                                                                            tfl_pseudo_qconst61   | 
------ ----------------------------------------------- -------------------------------------------------------------------------------------------------------------------------------------------------------------------------------------------------------------------------------------------------------------------------------------------------------------------------------------------------------------------------------------------------------------------------------------------------------------------------------------------------- ------------- ------- ------------------------------- --- ----------------- ----------------- --------------------- 
22     tfl_pseudo_qconst62 (Placeholder, )             [b:32]                                                                                                                                                                                                                                                                                                                                                                                                                                                                                             32/128                                                  | +288(+225.0%)     +320(+100.0%)     Dense_[75]            
       gemm_22 (Gemm, FULLY_CONNECTED)                 [b:1,c:32]                                                                                                                                                                                                                                                                                                                                                                                                                                                                                                           320                        unpack_4   |                   -320(-100.0%)     
                                                                                                                                                                                                                                                                                                                                                                                                                                                                                                                                                                                           tfl_pseudo_qconst100   | 
                                                                                                                                                                                                                                                                                                                                                                                                                                                                                                                                                                                            tfl_pseudo_qconst62   | 
------ ----------------------------------------------- -------------------------------------------------------------------------------------------------------------------------------------------------------------------------------------------------------------------------------------------------------------------------------------------------------------------------------------------------------------------------------------------------------------------------------------------------------------------------------------------------- ------------- ------- ------------------------------- --- ----------------- ----------------- --------------------- 
23     tfl_pseudo_qconst63 (Placeholder, )             [b:32]                                                                                                                                                                                                                                                                                                                                                                                                                                                                                             32/128                                                  | +288(+225.0%)     +320(+100.0%)     Dense_[10]            
       gemm_23 (Gemm, FULLY_CONNECTED)                 [b:1,c:32]                                                                                                                                                                                                                                                                                                                                                                                                                                                                                                           320                        unpack_4   |                   -320(-100.0%)     
                                                                                                                                                                                                                                                                                                                                                                                                                                                                                                                                                                                           tfl_pseudo_qconst100   | 
                                                                                                                                                                                                                                                                                                                                                                                                                                                                                                                                                                                            tfl_pseudo_qconst63   | 
------ ----------------------------------------------- -------------------------------------------------------------------------------------------------------------------------------------------------------------------------------------------------------------------------------------------------------------------------------------------------------------------------------------------------------------------------------------------------------------------------------------------------------------------------------------------------- ------------- ------- ------------------------------- --- ----------------- ----------------- --------------------- 
24     eltwise_24 (Eltwise, ADD)                       [b:1,c:32]                                                                                                                                                                                                                                                                                                                                                                                                                                                                                                            32                         gemm_23   |                                     Eltwise/add_[11]      
                                                                                                                                                                                                                                                                                                                                                                                                                                                                                                                                                                                                        gemm_12   | 
------ ----------------------------------------------- -------------------------------------------------------------------------------------------------------------------------------------------------------------------------------------------------------------------------------------------------------------------------------------------------------------------------------------------------------------------------------------------------------------------------------------------------------------------------------------------------- ------------- ------- ------------------------------- --- ----------------- ----------------- --------------------- 
25     nl_25 (Nonlinearity, TANH)                      [b:1,c:32]                                                                                                                                                                                                                                                                                                                                                                                                                                                                                                           320                      eltwise_24   |                   -288(-90.0%)      Nonlinearity_[12]     
------ ----------------------------------------------- -------------------------------------------------------------------------------------------------------------------------------------------------------------------------------------------------------------------------------------------------------------------------------------------------------------------------------------------------------------------------------------------------------------------------------------------------------------------------------------------------- ------------- ------- ------------------------------- --- ----------------- ----------------- --------------------- 
26     conversion_26 (Conversion, QUANTIZE)            [b:1,c:32]                                                                                                                                                                                                                                                                                                                                                                                                                                                                                                            64                           nl_25   |                                     Conversion_[13]       
------ ----------------------------------------------- -------------------------------------------------------------------------------------------------------------------------------------------------------------------------------------------------------------------------------------------------------------------------------------------------------------------------------------------------------------------------------------------------------------------------------------------------------------------------------------------------- ------------- ------- ------------------------------- --- ----------------- ----------------- --------------------- 
27     gemm_27 (Gemm, FULLY_CONNECTED)                 [b:1,c:32]                                                                                                                                                                                                                                                                                                                                                                                                                                                                                                         1,056                   conversion_26   | +1,152(+100.0%)                     Dense_[14]            
                                                                                                                                                                                                                                                                                                                                                                                                                                                                                                                                                                                           tfl_pseudo_qconst101   | 
------ ----------------------------------------------- -------------------------------------------------------------------------------------------------------------------------------------------------------------------------------------------------------------------------------------------------------------------------------------------------------------------------------------------------------------------------------------------------------------------------------------------------------------------------------------------------- ------------- ------- ------------------------------- --- ----------------- ----------------- --------------------- 
28     tfl_pseudo_qconst64 (Placeholder, )             [b:32]                                                                                                                                                                                                                                                                                                                                                                                                                                                                                             32/128                                                  | +288(+225.0%)     +320(+100.0%)     Dense_[80]            
       gemm_28 (Gemm, FULLY_CONNECTED)                 [b:1,c:32]                                                                                                                                                                                                                                                                                                                                                                                                                                                                                                           320                        unpack_4   |                   -320(-100.0%)     
                                                                                                                                                                                                                                                                                                                                                                                                                                                                                                                                                                                           tfl_pseudo_qconst100   | 
                                                                                                                                                                                                                                                                                                                                                                                                                                                                                                                                                                                            tfl_pseudo_qconst64   | 
------ ----------------------------------------------- -------------------------------------------------------------------------------------------------------------------------------------------------------------------------------------------------------------------------------------------------------------------------------------------------------------------------------------------------------------------------------------------------------------------------------------------------------------------------------------------------- ------------- ------- ------------------------------- --- ----------------- ----------------- --------------------- 
29     tfl_pseudo_qconst65 (Placeholder, )             [b:32]                                                                                                                                                                                                                                                                                                                                                                                                                                                                                             32/128                                                  | +288(+225.0%)     +320(+100.0%)     Dense_[85]            
       gemm_29 (Gemm, FULLY_CONNECTED)                 [b:1,c:32]                                                                                                                                                                                                                                                                                                                                                                                                                                                                                                           320                        unpack_4   |                   -320(-100.0%)     
                                                                                                                                                                                                                                                                                                                                                                                                                                                                                                                                                                                           tfl_pseudo_qconst100   | 
                                                                                                                                                                                                                                                                                                                                                                                                                                                                                                                                                                                            tfl_pseudo_qconst65   | 
------ ----------------------------------------------- -------------------------------------------------------------------------------------------------------------------------------------------------------------------------------------------------------------------------------------------------------------------------------------------------------------------------------------------------------------------------------------------------------------------------------------------------------------------------------------------------- ------------- ------- ------------------------------- --- ----------------- ----------------- --------------------- 
30     tfl_pseudo_qconst66 (Placeholder, )             [b:32]                                                                                                                                                                                                                                                                                                                                                                                                                                                                                             32/128                                                  | +288(+225.0%)     +320(+100.0%)     Dense_[90]            
       gemm_30 (Gemm, FULLY_CONNECTED)                 [b:1,c:32]                                                                                                                                                                                                                                                                                                                                                                                                                                                                                                           320                        unpack_4   |                   -320(-100.0%)     
                                                                                                                                                                                                                                                                                                                                                                                                                                                                                                                                                                                           tfl_pseudo_qconst100   | 
                                                                                                                                                                                                                                                                                                                                                                                                                                                                                                                                                                                            tfl_pseudo_qconst66   | 
------ ----------------------------------------------- -------------------------------------------------------------------------------------------------------------------------------------------------------------------------------------------------------------------------------------------------------------------------------------------------------------------------------------------------------------------------------------------------------------------------------------------------------------------------------------------------- ------------- ------- ------------------------------- --- ----------------- ----------------- --------------------- 
31     tfl_pseudo_qconst67 (Placeholder, )             [b:32]                                                                                                                                                                                                                                                                                                                                                                                                                                                                                             32/128                                                  | +288(+225.0%)     +320(+100.0%)     Dense_[95]            
       gemm_31 (Gemm, FULLY_CONNECTED)                 [b:1,c:32]                                                                                                                                                                                                                                                                                                                                                                                                                                                                                                           320                        unpack_4   |                   -320(-100.0%)     
                                                                                                                                                                                                                                                                                                                                                                                                                                                                                                                                                                                           tfl_pseudo_qconst100   | 
                                                                                                                                                                                                                                                                                                                                                                                                                                                                                                                                                                                            tfl_pseudo_qconst67   | 
------ ----------------------------------------------- -------------------------------------------------------------------------------------------------------------------------------------------------------------------------------------------------------------------------------------------------------------------------------------------------------------------------------------------------------------------------------------------------------------------------------------------------------------------------------------------------- ------------- ------- ------------------------------- --- ----------------- ----------------- --------------------- 
32     tfl_pseudo_qconst68 (Placeholder, )             [b:32]                                                                                                                                                                                                                                                                                                                                                                                                                                                                                             32/128                                                  | +288(+225.0%)     +320(+100.0%)     Dense_[100]           
       gemm_32 (Gemm, FULLY_CONNECTED)                 [b:1,c:32]                                                                                                                                                                                                                                                                                                                                                                                                                                                                                                           320                        unpack_4   |                   -320(-100.0%)     
                                                                                                                                                                                                                                                                                                                                                                                                                                                                                                                                                                                           tfl_pseudo_qconst100   | 
                                                                                                                                                                                                                                                                                                                                                                                                                                                                                                                                                                                            tfl_pseudo_qconst68   | 
------ ----------------------------------------------- -------------------------------------------------------------------------------------------------------------------------------------------------------------------------------------------------------------------------------------------------------------------------------------------------------------------------------------------------------------------------------------------------------------------------------------------------------------------------------------------------- ------------- ------- ------------------------------- --- ----------------- ----------------- --------------------- 
33     tfl_pseudo_qconst69 (Placeholder, )             [b:32]                                                                                                                                                                                                                                                                                                                                                                                                                                                                                             32/128                                                  | +288(+225.0%)     +320(+100.0%)     Dense_[105]           
       gemm_33 (Gemm, FULLY_CONNECTED)                 [b:1,c:32]                                                                                                                                                                                                                                                                                                                                                                                                                                                                                                           320                        unpack_4   |                   -320(-100.0%)     
                                                                                                                                                                                                                                                                                                                                                                                                                                                                                                                                                                                           tfl_pseudo_qconst100   | 
                                                                                                                                                                                                                                                                                                                                                                                                                                                                                                                                                                                            tfl_pseudo_qconst69   | 
------ ----------------------------------------------- -------------------------------------------------------------------------------------------------------------------------------------------------------------------------------------------------------------------------------------------------------------------------------------------------------------------------------------------------------------------------------------------------------------------------------------------------------------------------------------------------- ------------- ------- ------------------------------- --- ----------------- ----------------- --------------------- 
34     tfl_pseudo_qconst70 (Placeholder, )             [b:32]                                                                                                                                                                                                                                                                                                                                                                                                                                                                                             32/128                                                  | +288(+225.0%)     +320(+100.0%)     Dense_[110]           
       gemm_34 (Gemm, FULLY_CONNECTED)                 [b:1,c:32]                                                                                                                                                                                                                                                                                                                                                                                                                                                                                                           320                        unpack_4   |                   -320(-100.0%)     
                                                                                                                                                                                                                                                                                                                                                                                                                                                                                                                                                                                           tfl_pseudo_qconst100   | 
                                                                                                                                                                                                                                                                                                                                                                                                                                                                                                                                                                                            tfl_pseudo_qconst70   | 
------ ----------------------------------------------- -------------------------------------------------------------------------------------------------------------------------------------------------------------------------------------------------------------------------------------------------------------------------------------------------------------------------------------------------------------------------------------------------------------------------------------------------------------------------------------------------- ------------- ------- ------------------------------- --- ----------------- ----------------- --------------------- 
35     tfl_pseudo_qconst71 (Placeholder, )             [b:32]                                                                                                                                                                                                                                                                                                                                                                                                                                                                                             32/128                                                  | +288(+225.0%)     +320(+100.0%)     Dense_[115]           
       gemm_35 (Gemm, FULLY_CONNECTED)                 [b:1,c:32]                                                                                                                                                                                                                                                                                                                                                                                                                                                                                                           320                        unpack_4   |                   -320(-100.0%)     
                                                                                                                                                                                                                                                                                                                                                                                                                                                                                                                                                                                           tfl_pseudo_qconst100   | 
                                                                                                                                                                                                                                                                                                                                                                                                                                                                                                                                                                                            tfl_pseudo_qconst71   | 
------ ----------------------------------------------- -------------------------------------------------------------------------------------------------------------------------------------------------------------------------------------------------------------------------------------------------------------------------------------------------------------------------------------------------------------------------------------------------------------------------------------------------------------------------------------------------- ------------- ------- ------------------------------- --- ----------------- ----------------- --------------------- 
36     tfl_pseudo_qconst72 (Placeholder, )             [b:32]                                                                                                                                                                                                                                                                                                                                                                                                                                                                                             32/128                                                  | +288(+225.0%)     +320(+100.0%)     Dense_[120]           
       gemm_36 (Gemm, FULLY_CONNECTED)                 [b:1,c:32]                                                                                                                                                                                                                                                                                                                                                                                                                                                                                                           320                        unpack_4   |                   -320(-100.0%)     
                                                                                                                                                                                                                                                                                                                                                                                                                                                                                                                                                                                           tfl_pseudo_qconst100   | 
                                                                                                                                                                                                                                                                                                                                                                                                                                                                                                                                                                                            tfl_pseudo_qconst72   | 
------ ----------------------------------------------- -------------------------------------------------------------------------------------------------------------------------------------------------------------------------------------------------------------------------------------------------------------------------------------------------------------------------------------------------------------------------------------------------------------------------------------------------------------------------------------------------- ------------- ------- ------------------------------- --- ----------------- ----------------- --------------------- 
37     tfl_pseudo_qconst73 (Placeholder, )             [b:32]                                                                                                                                                                                                                                                                                                                                                                                                                                                                                             32/128                                                  | +288(+225.0%)     +320(+100.0%)     Dense_[125]           
       gemm_37 (Gemm, FULLY_CONNECTED)                 [b:1,c:32]                                                                                                                                                                                                                                                                                                                                                                                                                                                                                                           320                        unpack_4   |                   -320(-100.0%)     
                                                                                                                                                                                                                                                                                                                                                                                                                                                                                                                                                                                           tfl_pseudo_qconst100   | 
                                                                                                                                                                                                                                                                                                                                                                                                                                                                                                                                                                                            tfl_pseudo_qconst73   | 
------ ----------------------------------------------- -------------------------------------------------------------------------------------------------------------------------------------------------------------------------------------------------------------------------------------------------------------------------------------------------------------------------------------------------------------------------------------------------------------------------------------------------------------------------------------------------- ------------- ------- ------------------------------- --- ----------------- ----------------- --------------------- 
38     tfl_pseudo_qconst74 (Placeholder, )             [b:32]                                                                                                                                                                                                                                                                                                                                                                                                                                                                                             32/128                                                  | +288(+225.0%)     +320(+100.0%)     Dense_[15]            
       gemm_38 (Gemm, FULLY_CONNECTED)                 [b:1,c:32]                                                                                                                                                                                                                                                                                                                                                                                                                                                                                                           320                        unpack_4   |                   -320(-100.0%)     
                                                                                                                                                                                                                                                                                                                                                                                                                                                                                                                                                                                           tfl_pseudo_qconst100   | 
                                                                                                                                                                                                                                                                                                                                                                                                                                                                                                                                                                                            tfl_pseudo_qconst74   | 
------ ----------------------------------------------- -------------------------------------------------------------------------------------------------------------------------------------------------------------------------------------------------------------------------------------------------------------------------------------------------------------------------------------------------------------------------------------------------------------------------------------------------------------------------------------------------- ------------- ------- ------------------------------- --- ----------------- ----------------- --------------------- 
39     eltwise_39 (Eltwise, ADD)                       [b:1,c:32]                                                                                                                                                                                                                                                                                                                                                                                                                                                                                                            32                         gemm_38   |                                     Eltwise/add_[16]      
                                                                                                                                                                                                                                                                                                                                                                                                                                                                                                                                                                                                        gemm_27   | 
------ ----------------------------------------------- -------------------------------------------------------------------------------------------------------------------------------------------------------------------------------------------------------------------------------------------------------------------------------------------------------------------------------------------------------------------------------------------------------------------------------------------------------------------------------------------------- ------------- ------- ------------------------------- --- ----------------- ----------------- --------------------- 
40     nl_40 (Nonlinearity, TANH)                      [b:1,c:32]                                                                                                                                                                                                                                                                                                                                                                                                                                                                                                           320                      eltwise_39   |                   -288(-90.0%)      Nonlinearity_[17]     
------ ----------------------------------------------- -------------------------------------------------------------------------------------------------------------------------------------------------------------------------------------------------------------------------------------------------------------------------------------------------------------------------------------------------------------------------------------------------------------------------------------------------------------------------------------------------- ------------- ------- ------------------------------- --- ----------------- ----------------- --------------------- 
41     conversion_41 (Conversion, QUANTIZE)            [b:1,c:32]                                                                                                                                                                                                                                                                                                                                                                                                                                                                                                            64                           nl_40   |                                     Conversion_[18]       
------ ----------------------------------------------- -------------------------------------------------------------------------------------------------------------------------------------------------------------------------------------------------------------------------------------------------------------------------------------------------------------------------------------------------------------------------------------------------------------------------------------------------------------------------------------------------- ------------- ------- ------------------------------- --- ----------------- ----------------- --------------------- 
42     gemm_42 (Gemm, FULLY_CONNECTED)                 [b:1,c:32]                                                                                                                                                                                                                                                                                                                                                                                                                                                                                                         1,056                   conversion_41   | +1,152(+100.0%)                     Dense_[19]            
                                                                                                                                                                                                                                                                                                                                                                                                                                                                                                                                                                                           tfl_pseudo_qconst101   | 
------ ----------------------------------------------- -------------------------------------------------------------------------------------------------------------------------------------------------------------------------------------------------------------------------------------------------------------------------------------------------------------------------------------------------------------------------------------------------------------------------------------------------------------------------------------------------- ------------- ------- ------------------------------- --- ----------------- ----------------- --------------------- 
43     tfl_pseudo_qconst75 (Placeholder, )             [b:32]                                                                                                                                                                                                                                                                                                                                                                                                                                                                                             32/128                                                  | +288(+225.0%)     +320(+100.0%)     Dense_[130]           
       gemm_43 (Gemm, FULLY_CONNECTED)                 [b:1,c:32]                                                                                                                                                                                                                                                                                                                                                                                                                                                                                                           320                        unpack_4   |                   -320(-100.0%)     
                                                                                                                                                                                                                                                                                                                                                                                                                                                                                                                                                                                           tfl_pseudo_qconst100   | 
                                                                                                                                                                                                                                                                                                                                                                                                                                                                                                                                                                                            tfl_pseudo_qconst75   | 
------ ----------------------------------------------- -------------------------------------------------------------------------------------------------------------------------------------------------------------------------------------------------------------------------------------------------------------------------------------------------------------------------------------------------------------------------------------------------------------------------------------------------------------------------------------------------- ------------- ------- ------------------------------- --- ----------------- ----------------- --------------------- 
44     tfl_pseudo_qconst76 (Placeholder, )             [b:32]                                                                                                                                                                                                                                                                                                                                                                                                                                                                                             32/128                                                  | +288(+225.0%)     +320(+100.0%)     Dense_[135]           
       gemm_44 (Gemm, FULLY_CONNECTED)                 [b:1,c:32]                                                                                                                                                                                                                                                                                                                                                                                                                                                                                                           320                        unpack_4   |                   -320(-100.0%)     
                                                                                                                                                                                                                                                                                                                                                                                                                                                                                                                                                                                           tfl_pseudo_qconst100   | 
                                                                                                                                                                                                                                                                                                                                                                                                                                                                                                                                                                                            tfl_pseudo_qconst76   | 
------ ----------------------------------------------- -------------------------------------------------------------------------------------------------------------------------------------------------------------------------------------------------------------------------------------------------------------------------------------------------------------------------------------------------------------------------------------------------------------------------------------------------------------------------------------------------- ------------- ------- ------------------------------- --- ----------------- ----------------- --------------------- 
45     tfl_pseudo_qconst77 (Placeholder, )             [b:32]                                                                                                                                                                                                                                                                                                                                                                                                                                                                                             32/128                                                  | +288(+225.0%)     +320(+100.0%)     Dense_[140]           
       gemm_45 (Gemm, FULLY_CONNECTED)                 [b:1,c:32]                                                                                                                                                                                                                                                                                                                                                                                                                                                                                                           320                        unpack_4   |                   -320(-100.0%)     
                                                                                                                                                                                                                                                                                                                                                                                                                                                                                                                                                                                           tfl_pseudo_qconst100   | 
                                                                                                                                                                                                                                                                                                                                                                                                                                                                                                                                                                                            tfl_pseudo_qconst77   | 
------ ----------------------------------------------- -------------------------------------------------------------------------------------------------------------------------------------------------------------------------------------------------------------------------------------------------------------------------------------------------------------------------------------------------------------------------------------------------------------------------------------------------------------------------------------------------- ------------- ------- ------------------------------- --- ----------------- ----------------- --------------------- 
46     tfl_pseudo_qconst78 (Placeholder, )             [b:32]                                                                                                                                                                                                                                                                                                                                                                                                                                                                                             32/128                                                  | +288(+225.0%)     +320(+100.0%)     Dense_[145]           
       gemm_46 (Gemm, FULLY_CONNECTED)                 [b:1,c:32]                                                                                                                                                                                                                                                                                                                                                                                                                                                                                                           320                        unpack_4   |                   -320(-100.0%)     
                                                                                                                                                                                                                                                                                                                                                                                                                                                                                                                                                                                           tfl_pseudo_qconst100   | 
                                                                                                                                                                                                                                                                                                                                                                                                                                                                                                                                                                                            tfl_pseudo_qconst78   | 
------ ----------------------------------------------- -------------------------------------------------------------------------------------------------------------------------------------------------------------------------------------------------------------------------------------------------------------------------------------------------------------------------------------------------------------------------------------------------------------------------------------------------------------------------------------------------- ------------- ------- ------------------------------- --- ----------------- ----------------- --------------------- 
47     tfl_pseudo_qconst79 (Placeholder, )             [b:32]                                                                                                                                                                                                                                                                                                                                                                                                                                                                                             32/128                                                  | +288(+225.0%)     +320(+100.0%)     Dense_[150]           
       gemm_47 (Gemm, FULLY_CONNECTED)                 [b:1,c:32]                                                                                                                                                                                                                                                                                                                                                                                                                                                                                                           320                        unpack_4   |                   -320(-100.0%)     
                                                                                                                                                                                                                                                                                                                                                                                                                                                                                                                                                                                           tfl_pseudo_qconst100   | 
                                                                                                                                                                                                                                                                                                                                                                                                                                                                                                                                                                                            tfl_pseudo_qconst79   | 
------ ----------------------------------------------- -------------------------------------------------------------------------------------------------------------------------------------------------------------------------------------------------------------------------------------------------------------------------------------------------------------------------------------------------------------------------------------------------------------------------------------------------------------------------------------------------- ------------- ------- ------------------------------- --- ----------------- ----------------- --------------------- 
48     tfl_pseudo_qconst80 (Placeholder, )             [b:32]                                                                                                                                                                                                                                                                                                                                                                                                                                                                                             32/128                                                  | +288(+225.0%)     +320(+100.0%)     Dense_[155]           
       gemm_48 (Gemm, FULLY_CONNECTED)                 [b:1,c:32]                                                                                                                                                                                                                                                                                                                                                                                                                                                                                                           320                        unpack_4   |                   -320(-100.0%)     
                                                                                                                                                                                                                                                                                                                                                                                                                                                                                                                                                                                           tfl_pseudo_qconst100   | 
                                                                                                                                                                                                                                                                                                                                                                                                                                                                                                                                                                                            tfl_pseudo_qconst80   | 
------ ----------------------------------------------- -------------------------------------------------------------------------------------------------------------------------------------------------------------------------------------------------------------------------------------------------------------------------------------------------------------------------------------------------------------------------------------------------------------------------------------------------------------------------------------------------- ------------- ------- ------------------------------- --- ----------------- ----------------- --------------------- 
49     tfl_pseudo_qconst81 (Placeholder, )             [b:32]                                                                                                                                                                                                                                                                                                                                                                                                                                                                                             32/128                                                  | +288(+225.0%)     +320(+100.0%)     Dense_[160]           
       gemm_49 (Gemm, FULLY_CONNECTED)                 [b:1,c:32]                                                                                                                                                                                                                                                                                                                                                                                                                                                                                                           320                        unpack_4   |                   -320(-100.0%)     
                                                                                                                                                                                                                                                                                                                                                                                                                                                                                                                                                                                           tfl_pseudo_qconst100   | 
                                                                                                                                                                                                                                                                                                                                                                                                                                                                                                                                                                                            tfl_pseudo_qconst81   | 
------ ----------------------------------------------- -------------------------------------------------------------------------------------------------------------------------------------------------------------------------------------------------------------------------------------------------------------------------------------------------------------------------------------------------------------------------------------------------------------------------------------------------------------------------------------------------- ------------- ------- ------------------------------- --- ----------------- ----------------- --------------------- 
50     tfl_pseudo_qconst82 (Placeholder, )             [b:32]                                                                                                                                                                                                                                                                                                                                                                                                                                                                                             32/128                                                  | +288(+225.0%)     +320(+100.0%)     Dense_[165]           
       gemm_50 (Gemm, FULLY_CONNECTED)                 [b:1,c:32]                                                                                                                                                                                                                                                                                                                                                                                                                                                                                                           320                        unpack_4   |                   -320(-100.0%)     
                                                                                                                                                                                                                                                                                                                                                                                                                                                                                                                                                                                           tfl_pseudo_qconst100   | 
                                                                                                                                                                                                                                                                                                                                                                                                                                                                                                                                                                                            tfl_pseudo_qconst82   | 
------ ----------------------------------------------- -------------------------------------------------------------------------------------------------------------------------------------------------------------------------------------------------------------------------------------------------------------------------------------------------------------------------------------------------------------------------------------------------------------------------------------------------------------------------------------------------- ------------- ------- ------------------------------- --- ----------------- ----------------- --------------------- 
51     tfl_pseudo_qconst83 (Placeholder, )             [b:32]                                                                                                                                                                                                                                                                                                                                                                                                                                                                                             32/128                                                  | +288(+225.0%)     +320(+100.0%)     Dense_[170]           
       gemm_51 (Gemm, FULLY_CONNECTED)                 [b:1,c:32]                                                                                                                                                                                                                                                                                                                                                                                                                                                                                                           320                        unpack_4   |                   -320(-100.0%)     
                                                                                                                                                                                                                                                                                                                                                                                                                                                                                                                                                                                           tfl_pseudo_qconst100   | 
                                                                                                                                                                                                                                                                                                                                                                                                                                                                                                                                                                                            tfl_pseudo_qconst83   | 
------ ----------------------------------------------- -------------------------------------------------------------------------------------------------------------------------------------------------------------------------------------------------------------------------------------------------------------------------------------------------------------------------------------------------------------------------------------------------------------------------------------------------------------------------------------------------- ------------- ------- ------------------------------- --- ----------------- ----------------- --------------------- 
52     tfl_pseudo_qconst84 (Placeholder, )             [b:32]                                                                                                                                                                                                                                                                                                                                                                                                                                                                                             32/128                                                  | +288(+225.0%)     +320(+100.0%)     Dense_[175]           
       gemm_52 (Gemm, FULLY_CONNECTED)                 [b:1,c:32]                                                                                                                                                                                                                                                                                                                                                                                                                                                                                                           320                        unpack_4   |                   -320(-100.0%)     
                                                                                                                                                                                                                                                                                                                                                                                                                                                                                                                                                                                           tfl_pseudo_qconst100   | 
                                                                                                                                                                                                                                                                                                                                                                                                                                                                                                                                                                                            tfl_pseudo_qconst84   | 
------ ----------------------------------------------- -------------------------------------------------------------------------------------------------------------------------------------------------------------------------------------------------------------------------------------------------------------------------------------------------------------------------------------------------------------------------------------------------------------------------------------------------------------------------------------------------- ------------- ------- ------------------------------- --- ----------------- ----------------- --------------------- 
53     tfl_pseudo_qconst85 (Placeholder, )             [b:32]                                                                                                                                                                                                                                                                                                                                                                                                                                                                                             32/128                                                  | +288(+225.0%)     +320(+100.0%)     Dense_[20]            
       gemm_53 (Gemm, FULLY_CONNECTED)                 [b:1,c:32]                                                                                                                                                                                                                                                                                                                                                                                                                                                                                                           320                        unpack_4   |                   -320(-100.0%)     
                                                                                                                                                                                                                                                                                                                                                                                                                                                                                                                                                                                           tfl_pseudo_qconst100   | 
                                                                                                                                                                                                                                                                                                                                                                                                                                                                                                                                                                                            tfl_pseudo_qconst85   | 
------ ----------------------------------------------- -------------------------------------------------------------------------------------------------------------------------------------------------------------------------------------------------------------------------------------------------------------------------------------------------------------------------------------------------------------------------------------------------------------------------------------------------------------------------------------------------- ------------- ------- ------------------------------- --- ----------------- ----------------- --------------------- 
54     eltwise_54 (Eltwise, ADD)                       [b:1,c:32]                                                                                                                                                                                                                                                                                                                                                                                                                                                                                                            32                         gemm_53   |                                     Eltwise/add_[21]      
                                                                                                                                                                                                                                                                                                                                                                                                                                                                                                                                                                                                        gemm_42   | 
------ ----------------------------------------------- -------------------------------------------------------------------------------------------------------------------------------------------------------------------------------------------------------------------------------------------------------------------------------------------------------------------------------------------------------------------------------------------------------------------------------------------------------------------------------------------------- ------------- ------- ------------------------------- --- ----------------- ----------------- --------------------- 
55     nl_55 (Nonlinearity, TANH)                      [b:1,c:32]                                                                                                                                                                                                                                                                                                                                                                                                                                                                                                           320                      eltwise_54   |                   -288(-90.0%)      Nonlinearity_[22]     
------ ----------------------------------------------- -------------------------------------------------------------------------------------------------------------------------------------------------------------------------------------------------------------------------------------------------------------------------------------------------------------------------------------------------------------------------------------------------------------------------------------------------------------------------------------------------- ------------- ------- ------------------------------- --- ----------------- ----------------- --------------------- 
56     conversion_56 (Conversion, QUANTIZE)            [b:1,c:32]                                                                                                                                                                                                                                                                                                                                                                                                                                                                                                            64                           nl_55   |                                     Conversion_[23]       
------ ----------------------------------------------- -------------------------------------------------------------------------------------------------------------------------------------------------------------------------------------------------------------------------------------------------------------------------------------------------------------------------------------------------------------------------------------------------------------------------------------------------------------------------------------------------- ------------- ------- ------------------------------- --- ----------------- ----------------- --------------------- 
57     gemm_57 (Gemm, FULLY_CONNECTED)                 [b:1,c:32]                                                                                                                                                                                                                                                                                                                                                                                                                                                                                                         1,056                   conversion_56   | +1,152(+100.0%)                     Dense_[24]            
                                                                                                                                                                                                                                                                                                                                                                                                                                                                                                                                                                                           tfl_pseudo_qconst101   | 
------ ----------------------------------------------- -------------------------------------------------------------------------------------------------------------------------------------------------------------------------------------------------------------------------------------------------------------------------------------------------------------------------------------------------------------------------------------------------------------------------------------------------------------------------------------------------- ------------- ------- ------------------------------- --- ----------------- ----------------- --------------------- 
58     tfl_pseudo_qconst86 (Placeholder, )             [b:32]                                                                                                                                                                                                                                                                                                                                                                                                                                                                                             32/128                                                  | +288(+225.0%)     +320(+100.0%)     Dense_[180]           
       gemm_58 (Gemm, FULLY_CONNECTED)                 [b:1,c:32]                                                                                                                                                                                                                                                                                                                                                                                                                                                                                                           320                        unpack_4   |                   -320(-100.0%)     
                                                                                                                                                                                                                                                                                                                                                                                                                                                                                                                                                                                           tfl_pseudo_qconst100   | 
                                                                                                                                                                                                                                                                                                                                                                                                                                                                                                                                                                                            tfl_pseudo_qconst86   | 
------ ----------------------------------------------- -------------------------------------------------------------------------------------------------------------------------------------------------------------------------------------------------------------------------------------------------------------------------------------------------------------------------------------------------------------------------------------------------------------------------------------------------------------------------------------------------- ------------- ------- ------------------------------- --- ----------------- ----------------- --------------------- 
59     tfl_pseudo_qconst87 (Placeholder, )             [b:32]                                                                                                                                                                                                                                                                                                                                                                                                                            …
401     416    gemm_416 (Dense)                    756    smul_s8_s8 
402     305    gemm_305 (Dense)                    891    smul_s8_s8 
403     417    eltwise_417 (Eltwise/add)            27      op_s8_s8 
404     418    nl_418 (Nonlinearity)                27      op_s8_s8 
405     419    gemm_419 (Dense)                    756    smul_s8_s8 
406     306    gemm_306 (Dense)                    891    smul_s8_s8 
407     420    eltwise_420 (Eltwise/add)            27      op_s8_s8 
408     421    nl_421 (Nonlinearity)                27      op_s8_s8 
409     422    gemm_422 (Dense)                    756    smul_s8_s8 
410     307    gemm_307 (Dense)                    891    smul_s8_s8 
411     423    eltwise_423 (Eltwise/add)            27      op_s8_s8 
412     424    nl_424 (Nonlinearity)                27      op_s8_s8 
413     425    gemm_425 (Dense)                    756    smul_s8_s8 
414     308    gemm_308 (Dense)                    891    smul_s8_s8 
415     426    eltwise_426 (Eltwise/add)            27      op_s8_s8 
416     427    nl_427 (Nonlinearity)                27      op_s8_s8 
417     428    gemm_428 (Dense)                    756    smul_s8_s8 
418     309    gemm_309 (Dense)                    891    smul_s8_s8 
419     429    eltwise_429 (Eltwise/add)            27      op_s8_s8 
420     430    nl_430 (Nonlinearity)                27      op_s8_s8 
421     431    gemm_431 (Dense)                    756    smul_s8_s8 
422     310    gemm_310 (Dense)                    891    smul_s8_s8 
423     432    eltwise_432 (Eltwise/add)            27      op_s8_s8 
424     433    nl_433 (Nonlinearity)                27      op_s8_s8 
425     434    gemm_434 (Dense)                    756    smul_s8_s8 
426     435    gemm_435 (Dense)                    891    smul_s8_s8 
427     436    eltwise_436 (Eltwise/add)            27      op_s8_s8 
428     437    nl_437 (Nonlinearity)                27      op_s8_s8 
429     438    gemm_438 (Dense)                    756    smul_s8_s8 
430     439    gemm_439 (Dense)                    891    smul_s8_s8 
431     440    eltwise_440 (Eltwise/add)            27      op_s8_s8 
432     441    nl_441 (Nonlinearity)                27      op_s8_s8 
433     442    gemm_442 (Dense)                    756    smul_s8_s8 
434     443    gemm_443 (Dense)                    891    smul_s8_s8 
435     444    eltwise_444 (Eltwise/add)            27      op_s8_s8 
436     445    nl_445 (Nonlinearity)                27      op_s8_s8 
437     446    gemm_446 (Dense)                    672    smul_s8_s8 
438     447    conversion_447 (Conversion)          48   smul_s8_f32 
------- ------ ----------------------------- --------- ------------- 
total                                          155,640 

Number of operation types
---------------- --------- ----------- 
operation type           #           % 
---------------- --------- ----------- 
smul_s8_s8         149,064       95.8% 
smul_f32_s8            864        0.6% 
op_s8_s8             5,664        3.6% 
smul_s8_f32             48        0.0% 

Complexity report (model)
------ ------------------------------- ------------------------- ------------------------- ------- 
m_id   name                            c_macc                    c_rom                     c_id    
------ ------------------------------- ------------------------- ------------------------- ------- 
0      serving_default_keras_tensor0   |||||||||||||      0.6%   |                  0.0%   [2]     
3      transpose_3                     ||||               0.1%   |                  0.0%   [3]     
4      unpack_4                        |                  0.0%   |                  0.0%   [4]     
7      tfl_pseudo_qconst101            ||||||||||||||||   0.7%   ||||||||||||||||  28.3%   [0]     
8      tfl_pseudo_qconst100            |||||              0.2%   ||||||             9.9%   [5]     
9      eltwise_9                       |                  0.0%   |                  0.0%   [6]     
10     nl_10                           |                  0.0%   |                  0.0%   [7]     
11     conversion_11                   |                  0.0%   |                  0.0%   [8]     
12     gemm_12                         ||||||||||||||||   0.7%   |||||||||||||||   27.5%   [9]     
13     tfl_pseudo_qconst53             |||||              0.2%   ||||||             9.9%   [30]    
14     tfl_pseudo_qconst54             |||||              0.2%   ||||||             9.9%   [35]    
15     tfl_pseudo_qconst55             |||||              0.2%   ||||||             9.9%   [40]    
16     tfl_pseudo_qconst56             |||||              0.2%   ||||||             9.9%   [45]    
17     tfl_pseudo_qconst57             |||||              0.2%   ||||||             9.9%   [50]    
18     tfl_pseudo_qconst58             |||||              0.2%   ||||||             9.9%   [55]    
19     tfl_pseudo_qconst59             |||||              0.2%   ||||||             9.9%   [60]    
20     tfl_pseudo_qconst60             |||||              0.2%   ||||||             9.9%   [65]    
21     tfl_pseudo_qconst61             |||||              0.2%   ||||||             9.9%   [70]    
22     tfl_pseudo_qconst62             |||||              0.2%   ||||||             9.9%   [75]    
23     tfl_pseudo_qconst63             |||||              0.2%   ||||||             9.9%   [10]    
24     eltwise_24                      |                  0.0%   |                  0.0%   [11]    
25     nl_25                           |                  0.0%   |                  0.0%   [12]    
26     conversion_26                   |                  0.0%   |                  0.0%   [13]    
27     gemm_27                         ||||||||||||||||   0.7%   |||||||||||||||   27.5%   [14]    
28     tfl_pseudo_qconst64             |||||              0.2%   ||||||             9.9%   [80]    
29     tfl_pseudo_qconst65             |||||              0.2%   ||||||             9.9%   [85]    
30     tfl_pseudo_qconst66             |||||              0.2%   ||||||             9.9%   [90]    
31     tfl_pseudo_qconst67             |||||              0.2%   ||||||             9.9%   [95]    
32     tfl_pseudo_qconst68             |||||              0.2%   ||||||             9.9%   [100]   
33     tfl_pseudo_qconst69             |||||              0.2%   ||||||             9.9%   [105]   
34     tfl_pseudo_qconst70             |||||              0.2%   ||||||             9.9%   [110]   
35     tfl_pseudo_qconst71             |||||              0.2%   ||||||             9.9%   [115]   
36     tfl_pseudo_qconst72             |||||              0.2%   ||||||             9.9%   [120]   
37     tfl_pseudo_qconst73             |||||              0.2%   ||||||             9.9%   [125]   
38     tfl_pseudo_qconst74             |||||              0.2%   ||||||             9.9%   [15]    
39     eltwise_39                      |                  0.0%   |                  0.0%   [16]    
40     nl_40                           |                  0.0%   |                  0.0%   [17]    
41     conversion_41                   |                  0.0%   |                  0.0%   [18]    
42     gemm_42                         ||||||||||||||||   0.7%   |||||||||||||||   27.5%   [19]    
43     tfl_pseudo_qconst75             |||||              0.2%   ||||||             9.9%   [130]   
44     tfl_pseudo_qconst76             |||||              0.2%   ||||||             9.9%   [135]   
45     tfl_pseudo_qconst77             |||||              0.2%   ||||||             9.9%   [140]   
46     tfl_pseudo_qconst78             |||||              0.2%   ||||||             9.9%   [145]   
47     tfl_pseudo_qconst79             |||||              0.2%   ||||||             9.9%   [150]   
48     tfl_pseudo_qconst80             |||||              0.2%   ||||||             9.9%   [155]   
49     tfl_pseudo_qconst81             |||||              0.2%   ||||||             9.9%   [160]   
50     tfl_pseudo_qconst82             |||||              0.2%   ||||||             9.9%   [165]   
51     tfl_pseudo_qconst83             |||||              0.2%   ||||||             9.9%   [170]   
52     tfl_pseudo_qconst84             |||||              0.2%   ||||||             9.9%   [175]   
53     tfl_pseudo_qconst85             |||||              0.2%   ||||||             9.9%   [20]    
54     eltwise_54                      |                  0.0%   |                  0.0%   [21]    
55     nl_55                           |                  0.0%   |                  0.0%   [22]    
56     conversion_56                   |                  0.0%   |                  0.0%   [23]    
57     gemm_57                         ||||||||||||||||   0.7%   |||||||||||||||   27.5%   [24]    
58     tfl_pseudo_qconst86             |||||              0.2%   ||||||             9.9%   [180]   
59     tfl_pseudo_qconst87             |||||              0.2%   ||||||             9.9%   [185]   
60     tfl_pseudo_qconst88             |||||              0.2%   ||||||             9.9%   [190]   
61     tfl_pseudo_qconst89             |||||              0.2%   ||||||             9.9%   [195]   
62     tfl_pseudo_qconst90             |||||              0.2%   ||||||             9.9%   [200]   
63     tfl_pseudo_qconst91             |||||              0.2%   ||||||             9.9%   [205]   
64     tfl_pseudo_qconst92             |||||              0.2%   ||||||             9.9%   [210]   
65     tfl_pseudo_qconst93             |||||              0.2%   ||||||             9.9%   [215]   
66     tfl_pseudo_qconst94             |||||              0.2%   ||||||             9.9%   [220]   
67     tfl_pseudo_qconst95             |||||              0.2%   ||||||             9.9%   [225]   
68     tfl_pseudo_qconst96             |||||              0.2%   ||||||             9.9%   [25]    
69     eltwise_69                      |                  0.0%   |                  0.0%   [26]    
70     nl_70                           |                  0.0%   |                  0.0%   [27]    
71     conversion_71                   |                  0.0%   |                  0.0%   [28]    
72     gemm_72                         ||||||||||||||||   0.7%   |||||||||||||||   27.5%   [29]    
73     eltwise_73                      |                  0.0%   |                  0.0%   [31]    
74     nl_74                           |                  0.0%   |                  0.0%   [32]    
75     conversion_75                   |                  0.0%   |                  0.0%   [33]    
76     gemm_76                         ||||||||||||||||   0.7%   |||||||||||||||   27.5%   [34]    
77     eltwise_77                      |                  0.0%   |                  0.0%   [36]    
78     nl_78                           |                  0.0%   |                  0.0%   [37]    
79     conversion_79                   |                  0.0%   |                  0.0%   [38]    
80     gemm_80                         ||||||||||||||||   0.7%   |||||||||||||||   27.5%   [39]    
81     eltwise_81                      |                  0.0%   |                  0.0%   [41]    
82     nl_82                           |                  0.0%   |                  0.0%   [42]    
83     conversion_83                   |                  0.0%   |                  0.0%   [43]    
84     gemm_84                         ||||||||||||||||   0.7%   |||||||||||||||   27.5%   [44]    
85     eltwise_85                      |                  0.0%   |                  0.0%   [46]    
86     nl_86                           |                  0.0%   |                  0.0%   [47]    
87     conversion_87                   |                  0.0%   |                  0.0%   [48]    
88     gemm_88                         ||||||||||||||||   0.7%   |||||||||||||||   27.5%   [49]    
89     eltwise_89                      |                  0.0%   |                  0.0%   [51]    
90     nl_90                           |                  0.0%   |                  0.0%   [52]    
91     conversion_91                   |                  0.0%   |                  0.0%   [53]    
92     gemm_92                         ||||||||||||||||   0.7%   |||||||||||||||   27.5%   [54]    
93     eltwise_93                      |                  0.0%   |                  0.0%   [56]    
94     nl_94                           |                  0.0%   |                  0.0%   [57]    
95     conversion_95                   |                  0.0%   |                  0.0%   [58]    
96     gemm_96                         ||||||||||||||||   0.7%   |||||||||||||||   27.5%   [59]    
97     eltwise_97                      |                  0.0%   |                  0.0%   [61]    
98     nl_98                           |                  0.0%   |                  0.0%   [62]    
99     conversion_99                   |                  0.0%   |                  0.0%   [63]    
100    gemm_100                        ||||||||||||||||   0.7%   |||||||||||||||   27.5%   [64]    
101    eltwise_101                     |                  0.0%   |                  0.0%   [66]    
102    nl_102                          |                  0.0%   |                  0.0%   [67]    
103    conversion_103                  |                  0.0%   |                  0.0%   [68]    
104    gemm_104                        ||||||||||||||||   0.7%   |||||||||||||||   27.5%   [69]    
105    eltwise_105                     |                  0.0%   |                  0.0%   [71]    
106    nl_106                          |                  0.0%   |                  0.0%   [72]    
107    conversion_107                  |                  0.0%   |                  0.0%   [73]    
108    gemm_108                        ||||||||||||||||   0.7%   |||||||||||||||   27.5%   [74]    
109    eltwise_109                     |                  0.0%   |                  0.0%   [76]    
110    nl_110                          |                  0.0%   |                  0.0%   [77]    
111    conversion_111                  |                  0.0%   |                  0.0%   [78]    
112    gemm_112                        ||||||||||||||||   0.7%   |||||||||||||||   27.5%   [79]    
113    eltwise_113                     |                  0.0%   |                  0.0%   [81]    
114    nl_114                          |                  0.0%   |                  0.0%   [82]    
115    conversion_115                  |                  0.0%   |                  0.0%   [83]    
116    gemm_116                        ||||||||||||||||   0.7%   |||||||||||||||   27.5%   [84]    
117    eltwise_117                     |                  0.0%   |                  0.0%   [86]    
118    nl_118                          |                  0.0%   |                  0.0%   [87]    
119    conversion_119                  |                  0.0%   |                  0.0%   [88]    
120    gemm_120                        ||||||||||||||||   0.7%   |||||||||||||||   27.5%   [89]    
121    eltwise_121                     |                  0.0%   |                  0.0%   [91]    
122    nl_122                          |                  0.0%   |                  0.0%   [92]    
123    conversion_123                  |                  0.0%   |                  0.0%   [93]    
124    gemm_124                        ||||||||||||||||   0.7%   |||||||||||||||   27.5%   [94]    
125    eltwise_125                     |                  0.0%   |                  0.0%   [96]    
126    nl_126                          |                  0.0%   |                  0.0%   [97]    
127    conversion_127                  |                  0.0%   |                  0.0%   [98]    
128    gemm_128                        ||||||||||||||||   0.7%   |||||||||||||||   27.5%   [99]    
129    eltwise_129                     |                  0.0%   |                  0.0%   [101]   
130    nl_130                          |                  0.0%   |                  0.0%   [102]   
131    conversion_131                  |                  0.0%   |                  0.0%   [103]   
132    gemm_132                        ||||||||||||||||   0.7%   |||||||||||||||   27.5%   [104]   
133    eltwise_133                     |                  0.0%   |                  0.0%   [106]   
134    nl_134                          |                  0.0%   |                  0.0%   [107]   
135    conversion_135                  |                  0.0%   |                  0.0%   [108]   
136    gemm_136                        ||||||||||||||||   0.7%   |||||||||||||||   27.5%   [109]   
137    eltwise_137                     |                  0.0%   |                  0.0%   [111]   
138    nl_138                          |                  0.0%   |                  0.0%   [112]   
139    conversion_139                  |                  0.0%   |                  0.0%   [113]   
140    gemm_140                        ||||||||||||||||   0.7%   |||||||||||||||   27.5%   [114]   
141    eltwise_141                     |                  0.0%   |                  0.0%   [116]   
142    nl_142                          |                  0.0%   |                  0.0%   [117]   
143    conversion_143                  |                  0.0%   |                  0.0%   [118]   
144    gemm_144                        ||||||||||||||||   0.7%   |||||||||||||||   27.5%   [119]   
145    eltwise_145                     |                  0.0%   |                  0.0%   [121]   
146    nl_146                          |                  0.0%   |                  0.0%   [122]   
147    conversion_147                  |                  0.0%   |                  0.0%   [123]   
148    gemm_148                        ||||||||||||||||   0.7%   |||||||||||||||   27.5%   [124]   
149    eltwise_149                     |                  0.0%   |                  0.0%   [126]   
150    nl_150                          |                  0.0%   |                  0.0%   [127]   
151    conversion_151                  |                  0.0%   |                  0.0%   [128]   
152    gemm_152                        ||||||||||||||||   0.7%   |||||||||||||||   27.5%   [129]   
153    eltwise_153                     |                  0.0%   |                  0.0%   [131]   
154    nl_154                          |                  0.0%   |                  0.0%   [132]   
155    conversion_155                  |                  0.0%   |                  0.0%   [133]   
156    gemm_156                        ||||||||||||||||   0.7%   |||||||||||||||   27.5%   [134]   
157    eltwise_157                     |                  0.0%   |                  0.0%   [136]   
158    nl_158                          |                  0.0%   |                  0.0%   [137]   
159    conversion_159                  |                  0.0%   |                  0.0%   [138]   
160    gemm_160                        ||||||||||||||||   0.7%   |||||||||||||||   27.5%   [139]   
161    eltwise_161                     |                  0.0%   |                  0.0%   [141]   
162    nl_162                          |                  0.0%   |                  0.0%   [142]   
163    conversion_163                  |                  0.0%   |                  0.0%   [143]   
164    gemm_164                        ||||||||||||||||   0.7%   |||||||||||||||   27.5%   [144]   
165    eltwise_165                     |                  0.0%   |                  0.0%   [146]   
166    nl_166                          |                  0.0%   |                  0.0%   [147]   
167    conversion_167                  |                  0.0%   |                  0.0%   [148]   
168    gemm_168                        ||||||||||||||||   0.7%   |||||||||||||||   27.5%   [149]   
169    eltwise_169                     |                  0.0%   |                  0.0%   [151]   
170    nl_170                          |                  0.0%   |                  0.0%   [152]   
171    conversion_171                  |                  0.0%   |                  0.0%   [153]   
172    gemm_172                        ||||||||||||||||   0.7%   |||||||||||||||   27.5%   [154]   
173    eltwise_173                     |                  0.0%   |                  0.0%   [156]   
174    nl_174                          |                  0.0%   |                  0.0%   [157]   
175    conversion_175                  |                  0.0%   |                  0.0%   [158]   
176    gemm_176                        ||||||||||||||||   0.7%   |||||||||||||||   27.5%   [159]   
177    eltwise_177                     |                  0.0%   |                  0.0%   [161]   
178    nl_178                          |                  0.0%   |                  0.0%   [162]   
179    conversion_179                  |                  0.0%   |                  0.0%   [163]   
180    gemm_180                        ||||||||||||||||   0.7%   |||||||||||||||   27.5%   [164]   
181    eltwise_181                     |                  0.0%   |                  0.0%   [166]   
182    nl_182                          |                  0.0%   |                  0.0%   [167]   
183    conversion_183                  |                  0.0%   |                  0.0%   [168]   
184    gemm_184                        ||||||||||||||||   0.7%   |||||||||||||||   27.5%   [169]   
185    eltwise_185                     |                  0.0%   |                  0.0%   [171]   
186    nl_186                          |                  0.0%   |                  0.0%   [172]   
187    conversion_187                  |                  0.0%   |                  0.0%   [173]   
188    gemm_188                        ||||||||||||||||   0.7%   |||||||||||||||   27.5%   [174]   
189    eltwise_189                     |                  0.0%   |                  0.0%   [176]   
190    nl_190                          |                  0.0%   |                  0.0%   [177]   
191    conversion_191                  |                  0.0%   |                  0.0%   [178]   
192    gemm_192                        ||||||||||||||||   0.7%   |||||||||||||||   27.5%   [179]   
193    eltwise_193                     |                  0.0%   |                  0.0%   [181]   
194    nl_194                          |                  0.0%   |                  0.0%   [182]   
195    conversion_195                  |                  0.0%   |                  0.0%   [183]   
196    gemm_196                        ||||||||||||||||   0.7%   |||||||||||||||   27.5%   [184]   
197    eltwise_197                     |                  0.0%   |                  0.0%   [186]   
198    nl_198                          |                  0.0%   |                  0.0%   [187]   
199    conversion_199                  |                  0.0%   |                  0.0%   [188]   
200    gemm_200                        ||||||||||||||||   0.7%   |||||||||||||||   27.5%   [189]   
201    eltwise_201                     |                  0.0%   |                  0.0%   [191]   
202    nl_202                          |                  0.0%   |                  0.0%   [192]   
203    conversion_203                  |                  0.0%   |                  0.0%   [193]   
204    gemm_204                        ||||||||||||||||   0.7%   |||||||||||||||   27.5%   [194]   
205    eltwise_205                     |                  0.0%   |                  0.0%   [196]   
206    nl_206                          |                  0.0%   |                  0.0%   [197]   
207    conversion_207                  |                  0.0%   |                  0.0%   [198]   
208    gemm_208                        ||||||||||||||||   0.7%   |||||||||||||||   27.5%   [199]   
209    eltwise_209                     |                  0.0%   |                  0.0%   [201]   
210    nl_210                          |                  0.0%   |                  0.0%   [202]   
211    conversion_211                  |                  0.0%   |                  0.0%   [203]   
212    gemm_212                        ||||||||||||||||   0.7%   |||||||||||||||   27.5%   [204]   
213    eltwise_213                     |                  0.0%   |                  0.0%   [206]   
214    nl_214                          |                  0.0%   |                  0.0%   [207]   
215    conversion_215                  |                  0.0%   |                  0.0%   [208]   
216    gemm_216                        ||||||||||||||||   0.7%   |||||||||||||||   27.5%   [209]   
217    eltwise_217                     |                  0.0%   |                  0.0%   [211]   
218    nl_218                          |                  0.0%   |                  0.0%   [212]   
219    conversion_219                  |                  0.0%   |                  0.0%   [213]   
220    gemm_220                        ||||||||||||||||   0.7%   |||||||||||||||   27.5%   [214]   
221    eltwise_221                     |                  0.0%   |                  0.0%   [216]   
222    nl_222                          |                  0.0%   |                  0.0%   [217]   
223    conversion_223                  |                  0.0%   |                  0.0%   [218]   
224    gemm_224                        ||||||||||||||||   0.7%   |||||||||||||||   27.5%   [219]   
225    eltwise_225                     |                  0.0%   |                  0.0%   [221]   
226    nl_226                          |                  0.0%   |                  0.0%   [222]   
227    conversion_227                  |                  0.0%   |                  0.0%   [223]   
228    gemm_228                        ||||||||||||||||   0.7%   |||||||||||||||   27.5%   [224]   
229    eltwise_229                     |                  0.0%   |                  0.0%   [226]   
230    nl_230                          |                  0.0%   |                  0.0%   [227]   
231    conversion_231                  |                  0.0%   |                  0.0%   [228]   
232    gemm_232                        ||||||||||||||||   0.7%   |||||||||||||||   27.5%   [229]   
233    tfl_pseudo_qconst97             |||||              0.2%   ||||||             9.9%   [230]   
234    eltwise_234                     |                  0.0%   |                  0.0%   [231]   
235    nl_235                          |                  0.0%   |                  0.0%   [232]   
236    conversion_236                  |                  0.0%   |                  0.0%   [233]   
237    gemm_237                        ||||||||||||||||   0.7%   |||||||||||||||   27.5%   [234]   
238    tfl_pseudo_qconst98             |||||              0.2%   ||||||             9.9%   [235]   
239    eltwise_239                     |                  0.0%   |                  0.0%   [236]   
240    nl_240                          |                  0.0%   |                  0.0%   [237]   
241    conversion_241                  |                  0.0%   |                  0.0%   [238]   
242    gemm_242                        ||||||||||||||||   0.7%   |||||||||||||||   27.5%   [239]   
243    tfl_pseudo_qconst99             |||||              0.2%   ||||||             9.9%   [240]   
244    eltwise_244                     |                  0.0%   |                  0.0%   [241]   
245    nl_245                          |                  0.0%   |                  0.0%   [242]   
246    conversion_246                  |                  0.0%   |                  0.0%   [243]   
247    pack_247                        |                  0.0%   |                  0.0%   [244]   
253    tfl_pseudo_qconst51             |||||||||||        0.5%   |||||||||||       20.7%   [1]     
254    unpack_254                      |                  0.0%   |                  0.0%   [245]   
255    tfl_pseudo_qconst50             |||||||||||||      0.6%   |||||||||||||     23.2%   [246]   
256    eltwise_256                     |                  0.0%   |                  0.0%   [247]   
257    nl_257                          |                  0.0%   |                  0.0%   [248]   
258    gemm_258                        |||||||||||        0.5%   |||||||||||       20.0%   [249]   
259    tfl_pseudo_qconst3              |||||||||||||      0.6%   |||||||||||||     23.2%   [266]   
260    tfl_pseudo_qconst4              |||||||||||||      0.6%   |||||||||||||     23.2%   [270]   
261    tfl_pseudo_qconst5              |||||||||||||      0.6%   |||||||||||||     23.2%   [274]   
262    tfl_pseudo_qconst6              |||||||||||||      0.6%   |||||||||||||     23.2%   [278]   
263    tfl_pseudo_qconst7              |||||||||||||      0.6%   |||||||||||||     23.2%   [282]   
264    tfl_pseudo_qconst8              |||||||||||||      0.6%   |||||||||||||     23.2%   [286]   
265    tfl_pseudo_qconst9              |||||||||||||      0.6%   |||||||||||||     23.2%   [290]   
266    tfl_pseudo_qconst10             |||||||||||||      0.6%   |||||||||||||     23.2%   [294]   
267    tfl_pseudo_qconst11             |||||||||||||      0.6%   |||||||||||||     23.2%   [298]   
268    tfl_pseudo_qconst12             |||||||||||||      0.6%   |||||||||||||     23.2%   [302]   
269    tfl_pseudo_qconst13             |||||||||||||      0.6%   |||||||||||||     23.2%   [250]   
270    eltwise_270                     |                  0.0%   |                  0.0%   [251]   
271    nl_271                          |                  0.0%   |                  0.0%   [252]   
272    gemm_272                        |||||||||||        0.5%   |||||||||||       20.0%   [253]   
273    tfl_pseudo_qconst14             |||||||||||||      0.6%   |||||||||||||     23.2%   [306]   
274    tfl_pseudo_qconst15             |||||||||||||      0.6%   |||||||||||||     23.2%   [310]   
275    tfl_pseudo_qconst16             |||||||||||||      0.6%   |||||||||||||     23.2%   [314]   
276    tfl_pseudo_qconst17             |||||||||||||      0.6%   |||||||||||||     23.2%   [318]   
277    tfl_pseudo_qconst18             |||||||||||||      0.6%   |||||||||||||     23.2%   [322]   
278    tfl_pseudo_qconst19             |||||||||||||      0.6%   |||||||||||||     23.2%   [326]   
279    tfl_pseudo_qconst20             |||||||||||||      0.6%   |||||||||||||     23.2%   [330]   
280    tfl_pseudo_qconst21             |||||||||||||      0.6%   |||||||||||||     23.2%   [334]   
281    tfl_pseudo_qconst22             |||||||||||||      0.6%   |||||||||||||     23.2%   [338]   
282    tfl_pseudo_qconst23             |||||||||||||      0.6%   |||||||||||||     23.2%   [342]   
283    tfl_pseudo_qconst24             |||||||||||||      0.6%   |||||||||||||     23.2%   [254]   
284    eltwise_284                     |                  0.0%   |                  0.0%   [255]   
285    nl_285                          |                  0.0%   |                  0.0%   [256]   
286    gemm_286                        |||||||||||        0.5%   |||||||||||       20.0%   [257]   
287    tfl_pseudo_qconst25             |||||||||||||      0.6%   |||||||||||||     23.2%   [346]   
288    tfl_pseudo_qconst26             |||||||||||||      0.6%   |||||||||||||     23.2%   [350]   
289    tfl_pseudo_qconst27             |||||||||||||      0.6%   |||||||||||||     23.2%   [354]   
290    tfl_pseudo_qconst28             |||||||||||||      0.6%   |||||||||||||     23.2%   [358]   
291    tfl_pseudo_qconst29             |||||||||||||      0.6%   |||||||||||||     23.2%   [362]   
292    tfl_pseudo_qconst30             |||||||||||||      0.6%   |||||||||||||     23.2%   [366]   
293    tfl_pseudo_qconst31             |||||||||||||      0.6%   |||||||||||||     23.2%   [370]   
294    tfl_pseudo_qconst32             |||||||||||||      0.6%   |||||||||||||     23.2%   [374]   
295    tfl_pseudo_qconst33             |||||||||||||      0.6%   |||||||||||||     23.2%   [378]   
296    tfl_pseudo_qconst34             |||||||||||||      0.6%   |||||||||||||     23.2%   [382]   
297    tfl_pseudo_qconst35             |||||||||||||      0.6%   |||||||||||||     23.2%   [258]   
298    eltwise_298                     |                  0.0%   |                  0.0%   [259]   
299    nl_299                          |                  0.0%   |                  0.0%   [260]   
300    gemm_300                        |||||||||||        0.5%   |||||||||||       20.0%   [261]   
301    tfl_pseudo_qconst36             |||||||||||||      0.6%   |||||||||||||     23.2%   [386]   
302    tfl_pseudo_qconst37             |||||||||||||      0.6%   |||||||||||||     23.2%   [390]   
303    tfl_pseudo_qconst38             |||||||||||||      0.6%   |||||||||||||     23.2%   [394]   
304    tfl_pseudo_qconst39             |||||||||||||      0.6%   |||||||||||||     23.2%   [398]   
305    tfl_pseudo_qconst40             |||||||||||||      0.6%   |||||||||||||     23.2%   [402]   
306    tfl_pseudo_qconst41             |||||||||||||      0.6%   |||||||||||||     23.2%   [406]   
307    tfl_pseudo_qconst42             |||||||||||||      0.6%   |||||||||||||     23.2%   [410]   
308    tfl_pseudo_qconst43             |||||||||||||      0.6%   |||||||||||||     23.2%   [414]   
309    tfl_pseudo_qconst44             |||||||||||||      0.6%   |||||||||||||     23.2%   [418]   
310    tfl_pseudo_qconst45             |||||||||||||      0.6%   |||||||||||||     23.2%   [422]   
311    tfl_pseudo_qconst46             |||||||||||||      0.6%   |||||||||||||     23.2%   [262]   
312    eltwise_312                     |                  0.0%   |                  0.0%   [263]   
313    nl_313                          |                  0.0%   |                  0.0%   [264]   
314    gemm_314                        |||||||||||        0.5%   |||||||||||       20.0%   [265]   
315    eltwise_315                     |                  0.0%   |                  0.0%   [267]   
316    nl_316                          |                  0.0%   |                  0.0%   [268]   
317    gemm_317                        |||||||||||        0.5%   |||||||||||       20.0%   [269]   
318    eltwise_318                     |                  0.0%   |                  0.0%   [271]   
319    nl_319                          |                  0.0%   |                  0.0%   [272]   
320    gemm_320                        |||||||||||        0.5%   |||||||||||       20.0%   [273]   
321    eltwise_321                     |                  0.0%   |                  0.0%   [275]   
322    nl_322                          |                  0.0%   |                  0.0%   [276]   
323    gemm_323                        |||||||||||        0.5%   |||||||||||       20.0%   [277]   
324    eltwise_324                     |                  0.0%   |                  0.0%   [279]   
325    nl_325                          |                  0.0%   |                  0.0%   [280]   
326    gemm_326                        |||||||||||        0.5%   |||||||||||       20.0%   [281]   
327    eltwise_327                     |                  0.0%   |                  0.0%   [283]   
328    nl_328                          |                  0.0%   |                  0.0%   [284]   
329    gemm_329                        |||||||||||        0.5%   |||||||||||       20.0%   [285]   
330    eltwise_330                     |                  0.0%   |                  0.0%   [287]   
331    nl_331                          |                  0.0%   |                  0.0%   [288]   
332    gemm_332                        |||||||||||        0.5%   |||||||||||       20.0%   [289]   
333    eltwise_333                     |                  0.0%   |                  0.0%   [291]   
334    nl_334                          |                  0.0%   |                  0.0%   [292]   
335    gemm_335                        |||||||||||        0.5%   |||||||||||       20.0%   [293]   
336    eltwise_336                     |                  0.0%   |                  0.0%   [295]   
337    nl_337                          |                  0.0%   |                  0.0%   [296]   
338    gemm_338                        |||||||||||        0.5%   |||||||||||       20.0%   [297]   
339    eltwise_339                     |                  0.0%   |                  0.0%   [299]   
340    nl_340                          |                  0.0%   |                  0.0%   [300]   
341    gemm_341                        |||||||||||        0.5%   |||||||||||       20.0%   [301]   
342    eltwise_342                     |                  0.0%   |                  0.0%   [303]   
343    nl_343                          |                  0.0%   |                  0.0%   [304]   
344    gemm_344                        |||||||||||        0.5%   |||||||||||       20.0%   [305]   
345    eltwise_345                     |                  0.0%   |                  0.0%   [307]   
346    nl_346                          |                  0.0%   |                  0.0%   [308]   
347    gemm_347                        |||||||||||        0.5%   |||||||||||       20.0%   [309]   
348    eltwise_348                     |                  0.0%   |                  0.0%   [311]   
349    nl_349                          |                  0.0%   |                  0.0%   [312]   
350    gemm_350                        |||||||||||        0.5%   |||||||||||       20.0%   [313]   
351    eltwise_351                     |                  0.0%   |                  0.0%   [315]   
352    nl_352                          |                  0.0%   |                  0.0%   [316]   
353    gemm_353                        |||||||||||        0.5%   |||||||||||       20.0%   [317]   
354    eltwise_354                     |                  0.0%   |                  0.0%   [319]   
355    nl_355                          |                  0.0%   |                  0.0%   [320]   
356    gemm_356                        |||||||||||        0.5%   |||||||||||       20.0%   [321]   
357    eltwise_357                     |                  0.0%   |                  0.0%   [323]   
358    nl_358                          |                  0.0%   |                  0.0%   [324]   
359    gemm_359                        |||||||||||        0.5%   |||||||||||       20.0%   [325]   
360    eltwise_360                     |                  0.0%   |                  0.0%   [327]   
361    nl_361                          |                  0.0%   |                  0.0%   [328]   
362    gemm_362                        |||||||||||        0.5%   |||||||||||       20.0%   [329]   
363    eltwise_363                     |                  0.0%   |                  0.0%   [331]   
364    nl_364                          |                  0.0%   |                  0.0%   [332]   
365    gemm_365                        |||||||||||        0.5%   |||||||||||       20.0%   [333]   
366    eltwise_366                     |                  0.0%   |                  0.0%   [335]   
367    nl_367                          |                  0.0%   |                  0.0%   [336]   
368    gemm_368                        |||||||||||        0.5%   |||||||||||       20.0%   [337]   
369    eltwise_369                     |                  0.0%   |                  0.0%   [339]   
370    nl_370                          |                  0.0%   |                  0.0%   [340]   
371    gemm_371                        |||||||||||        0.5%   |||||||||||       20.0%   [341]   
372    eltwise_372                     |                  0.0%   |                  0.0%   [343]   
373    nl_373                          |                  0.0%   |                  0.0%   [344]   
374    gemm_374                        |||||||||||        0.5%   |||||||||||       20.0%   [345]   
375    eltwise_375                     |                  0.0%   |                  0.0%   [347]   
376    nl_376                          |                  0.0%   |                  0.0%   [348]   
377    gemm_377                        |||||||||||        0.5%   |||||||||||       20.0%   [349]   
378    eltwise_378                     |                  0.0%   |                  0.0%   [351]   
379    nl_379                          |                  0.0%   |                  0.0%   [352]   
380    gemm_380                        |||||||||||        0.5%   |||||||||||       20.0%   [353]   
381    eltwise_381                     |                  0.0%   |                  0.0%   [355]   
382    nl_382                          |                  0.0%   |                  0.0%   [356]   
383    gemm_383                        |||||||||||        0.5%   |||||||||||       20.0%   [357]   
384    eltwise_384                     |                  0.0%   |                  0.0%   [359]   
385    nl_385                          |                  0.0%   |                  0.0%   [360]   
386    gemm_386                        |||||||||||        0.5%   |||||||||||       20.0%   [361]   
387    eltwise_387                     |                  0.0%   |                  0.0%   [363]   
388    nl_388                          |                  0.0%   |                  0.0%   [364]   
389    gemm_389                        |||||||||||        0.5%   |||||||||||       20.0%   [365]   
390    eltwise_390                     |                  0.0%   |                  0.0%   [367]   
391    nl_391                          |                  0.0%   |                  0.0%   [368]   
392    gemm_392                        |||||||||||        0.5%   |||||||||||       20.0%   [369]   
393    eltwise_393                     |                  0.0%   |                  0.0%   [371]   
394    nl_394                          |                  0.0%   |                  0.0%   [372]   
395    gemm_395                        |||||||||||        0.5%   |||||||||||       20.0%   [373]   
396    eltwise_396                     |                  0.0%   |                  0.0%   [375]   
397    nl_397                          |                  0.0%   |                  0.0%   [376]   
398    gemm_398                        |||||||||||        0.5%   |||||||||||       20.0%   [377]   
399    eltwise_399                     |                  0.0%   |                  0.0%   [379]   
400    nl_400                          |                  0.0%   |                  0.0%   [380]   
401    gemm_401                        |||||||||||        0.5%   |||||||||||       20.0%   [381]   
402    eltwise_402                     |                  0.0%   |                  0.0%   [383]   
403    nl_403                          |                  0.0%   |                  0.0%   [384]   
404    gemm_404                        |||||||||||        0.5%   |||||||||||       20.0%   [385]   
405    eltwise_405                     |                  0.0%   |                  0.0%   [387]   
406    nl_406                          |                  0.0%   |                  0.0%   [388]   
407    gemm_407                        |||||||||||        0.5%   |||||||||||       20.0%   [389]   
408    eltwise_408                     |                  0.0%   |                  0.0%   [391]   
409    nl_409                          |                  0.0%   |                  0.0%   [392]   
410    gemm_410                        |||||||||||        0.5%   |||||||||||       20.0%   [393]   
411    eltwise_411                     |                  0.0%   |                  0.0%   [395]   
412    nl_412                          |                  0.0%   |                  0.0%   [396]   
413    gemm_413                        |||||||||||        0.5%   |||||||||||       20.0%   [397]   
414    eltwise_414                     |                  0.0%   |                  0.0%   [399]   
415    nl_415                          |                  0.0%   |                  0.0%   [400]   
416    gemm_416                        |||||||||||        0.5%   |||||||||||       20.0%   [401]   
417    eltwise_417                     |                  0.0%   |                  0.0%   [403]   
418    nl_418                          |                  0.0%   |                  0.0%   [404]   
419    gemm_419                        |||||||||||        0.5%   |||||||||||       20.0%   [405]   
420    eltwise_420                     |                  0.0%   |                  0.0%   [407]   
421    nl_421                          |                  0.0%   |                  0.0%   [408]   
422    gemm_422                        |||||||||||        0.5%   |||||||||||       20.0%   [409]   
423    eltwise_423                     |                  0.0%   |                  0.0%   [411]   
424    nl_424                          |                  0.0%   |                  0.0%   [412]   
425    gemm_425                        |||||||||||        0.5%   |||||||||||       20.0%   [413]   
426    eltwise_426                     |                  0.0%   |                  0.0%   [415]   
427    nl_427                          |                  0.0%   |                  0.0%   [416]   
428    gemm_428                        |||||||||||        0.5%   |||||||||||       20.0%   [417]   
429    eltwise_429                     |                  0.0%   |                  0.0%   [419]   
430    nl_430                          |                  0.0%   |                  0.0%   [420]   
431    gemm_431                        |||||||||||        0.5%   |||||||||||       20.0%   [421]   
432    eltwise_432                     |                  0.0%   |                  0.0%   [423]   
433    nl_433                          |                  0.0%   |                  0.0%   [424]   
434    gemm_434                        |||||||||||        0.5%   |||||||||||       20.0%   [425]   
435    tfl_pseudo_qconst47             |||||||||||||      0.6%   |||||||||||||     23.2%   [426]   
436    eltwise_436                     |                  0.0%   |                  0.0%   [427]   
437    nl_437                          |                  0.0%   |                  0.0%   [428]   
438    gemm_438                        |||||||||||        0.5%   |||||||||||       20.0%   [429]   
439    tfl_pseudo_qconst48             |||||||||||||      0.6%   |||||||||||||     23.2%   [430]   
440    eltwise_440                     |                  0.0%   |                  0.0%   [431]   
441    nl_441                          |                  0.0%   |                  0.0%   [432]   
442    gemm_442                        |||||||||||        0.5%   |||||||||||       20.0%   [433]   
443    tfl_pseudo_qconst49             |||||||||||||      0.6%   |||||||||||||     23.2%   [434]   
444    eltwise_444                     |                  0.0%   |                  0.0%   [435]   
445    nl_445                          |                  0.0%   |                  0.0%   [436]   
446    tfl_pseudo_qconst1              ||||||||||         0.4%   ||||||||||        17.8%   [437]   
447    conversion_447                  |                  0.0%   |                  0.0%   [438]   
------ ------------------------------- ------------------------- ------------------------- ------- 
macc=155,640 weights=4,184 act=3,164 ram_io=0
 
 Requested memory size by section - "stm32f7" target
 ------------------------------- -------- -------- -------- ------- 
 module                              text   rodata     data     bss 
 ------------------------------- -------- -------- -------- ------- 
 forecast_temp_ml_model.o           8,976   41,628   97,980   2,080 
 NetworkRuntime1020_CM7_GCC.a      12,480        0        0       0 
 forecast_temp_ml_model_data.o         48       16       88       0 
 lib (toolchain)*                   1,928       24        0       0 
 ------------------------------- -------- -------- -------- ------- 
 RT total**                        23,432   41,668   98,068   2,080 
 ------------------------------- -------- -------- -------- ------- 
 weights                                0    4,184        0       0 
 activations                            0        0        0   3,164 
 io                                     0        0        0       0 
 ------------------------------- -------- -------- -------- ------- 
 TOTAL                             23,432   45,852   98,068   5,244 
 ------------------------------- -------- -------- -------- ------- 
 *  toolchain objects (libm/libgcc*)
 ** RT AI runtime objects (kernels+infrastructure)
  
  Summary - "stm32f7" target
  ---------------------------------------------------
               FLASH (ro)      %*   RAM (rw)       % 
  ---------------------------------------------------
  RT total        163,168   97.5%    100,148   96.9% 
  ---------------------------------------------------
  TOTAL           167,352            103,312         
  ---------------------------------------------------
  *  rt/total


Generated files (7)
-------------------------------------------------------------------------------------------------------------- 
C:\Users\rishi_latchmepersad\.stm32cubemx\forecast_temp_ml_model_output\forecast_temp_ml_model_data_params.h   
C:\Users\rishi_latchmepersad\.stm32cubemx\forecast_temp_ml_model_output\forecast_temp_ml_model_data_params.c   
C:\Users\rishi_latchmepersad\.stm32cubemx\forecast_temp_ml_model_output\forecast_temp_ml_model_data.h          
C:\Users\rishi_latchmepersad\.stm32cubemx\forecast_temp_ml_model_output\forecast_temp_ml_model_data.c          
C:\Users\rishi_latchmepersad\.stm32cubemx\forecast_temp_ml_model_output\forecast_temp_ml_model_config.h        
C:\Users\rishi_latchmepersad\.stm32cubemx\forecast_temp_ml_model_output\forecast_temp_ml_model.h               
C:\Users\rishi_latchmepersad\.stm32cubemx\forecast_temp_ml_model_output\forecast_temp_ml_model.c               
