ST Edge AI Core v2.2.0-20266 2adc00962
Created date          : 2025-12-07 17:16:32
Parameters            : generate --target stm32f7 --name forecast_temp_ml_model -m C:/Users/rishi_latchmepersad/Downloads/quantized_rnn_model_int8.tflite --compression none --verbosity 1 --workspace C:/Users/RISHI_~1/AppData/Local/Temp/mxAI_workspace625088199010011303655954489572017 --output C:/Users/rishi_latchmepersad/.stm32cubemx/forecast_temp_ml_model_output

Exec/report summary (generate)
-------------------------------------------------------------------------------------------------------------------------------
model file         :   C:\Users\rishi_latchmepersad\Downloads\quantized_rnn_model_int8.tflite                                  
type               :   tflite                                                                                                  
c_name             :   forecast_temp_ml_model                                                                                  
compression        :   none                                                                                                    
options            :   allocate-inputs, allocate-outputs                                                                       
optimization       :   balanced                                                                                                
target/series      :   stm32f7                                                                                                 
workspace dir      :   C:\Users\RISHI_~1\AppData\Local\Temp\mxAI_workspace625088199010011303655954489572017                    
output dir         :   C:\Users\rishi_latchmepersad\.stm32cubemx\forecast_temp_ml_model_output                                 
model_fmt          :   ss/ss per tensor                                                                                        
model_name         :   quantized_rnn_model_int8                                                                                
model_hash         :   0xd11f7c9002ff0365dd5044372410e481                                                                      
params #           :   6,468 items (14.68 KiB)                                                                                 
-------------------------------------------------------------------------------------------------------------------------------
input 1/1          :   'serving_default_keras_tensor0', int8(1x48x9), 432 Bytes, QLinear(0.191042006,-101,int8), activations   
output 1/1         :   'gemm_445', int8(1x24), 24 Bytes, QLinear(0.112253584,-128,int8), activations                           
macc               :   154,728                                                                                                 
weights (ro)       :   4,184 B (4.09 KiB) (1 segment) / -21,688(-83.8%) vs float model                                         
activations (rw)   :   3,152 B (3.08 KiB) (1 segment) *                                                                        
ram (total)        :   3,152 B (3.08 KiB) = 3,152 + 0 + 0                                                                      
-------------------------------------------------------------------------------------------------------------------------------
(*) 'input'/'output' buffers are allocated in the activations buffer

Model name - quantized_rnn_model_int8
------ ----------------------------------------------- -------------------------------------------------------------------------------------------------------------------------------------------------------------------------------------------------------------------------------------------------------------------------------------------------------------------------------------------------------------------------------------------------------------------------------------------------------------------------------------------------- ------------- ------- ------------------------------- --- ----------------- ----------------- -------------------- 
m_id   layer (type,original)                           oshape                                                                                                                                                                                                                                                                                                                                                                                                                                                                                             param/size       macc                    connected to   | c_size            c_macc            c_type               
------ ----------------------------------------------- -------------------------------------------------------------------------------------------------------------------------------------------------------------------------------------------------------------------------------------------------------------------------------------------------------------------------------------------------------------------------------------------------------------------------------------------------------------------------------------------------- ------------- ------- ------------------------------- --- ----------------- ----------------- -------------------- 
0      serving_default_keras_tensor0 (Input, )         [b:1,h:48,c:9]                                                                                                                                                                                                                                                                                                                                                                                                                                                                                                                                             |                                     
------ ----------------------------------------------- -------------------------------------------------------------------------------------------------------------------------------------------------------------------------------------------------------------------------------------------------------------------------------------------------------------------------------------------------------------------------------------------------------------------------------------------------------------------------------------------------- ------------- ------- ------------------------------- --- ----------------- ----------------- -------------------- 
2      transpose_2 (Transpose, TRANSPOSE)              [b:48,h:1,c:9]                                                                                                                                                                                                                                                                                                                                                                                                                                                                                                         4   serving_default_keras_tensor0   |                   +212(+5300.0%)    Transpose_[2]        
------ ----------------------------------------------- -------------------------------------------------------------------------------------------------------------------------------------------------------------------------------------------------------------------------------------------------------------------------------------------------------------------------------------------------------------------------------------------------------------------------------------------------------------------------------------------------- ------------- ------- ------------------------------- --- ----------------- ----------------- -------------------- 
3      unpack_3 (Unpack, UNPACK)                       [b:1,c:9][b:1,c:9][b:1,c:9][b:1,c:9][b:1,c:9][b:1,c:9][b:1,c:9][b:1,c:9][b:1,c:9][b:1,c:9][b:1,c:9][b:1,c:9][b:1,c:9][b:1,c:9][b:1,c:9][b:1,c:9][b:1,c:9][b:1,c:9][b:1,c:9][b:1,c:9][b:1,c:9][b:1,c:9][b:1,c:9][b:1,c:9][b:1,c:9][b:1,c:9][b:1,c:9][b:1,c:9][b:1,c:9][b:1,c:9][b:1,c:9][b:1,c:9][b:1,c:9][b:1,c:9][b:1,c:9][b:1,c:9][b:1,c:9][b:1,c:9][b:1,c:9][b:1,c:9][b:1,c:9][b:1,c:9][b:1,c:9][b:1,c:9][b:1,c:9][b:1,c:9][b:1,c:9][b:1,c:9]                                                                                             transpose_2   |                                     Unpack_[3]           
------ ----------------------------------------------- -------------------------------------------------------------------------------------------------------------------------------------------------------------------------------------------------------------------------------------------------------------------------------------------------------------------------------------------------------------------------------------------------------------------------------------------------------------------------------------------------- ------------- ------- ------------------------------- --- ----------------- ----------------- -------------------- 
5      constantofshape_5_const (Placeholder, FILL)     [b:1,c:32]                                                                                                                                                                                                                                                                                                                                                                                                                                                                                         32/32                                                   | -32(-100.0%)                        
------ ----------------------------------------------- -------------------------------------------------------------------------------------------------------------------------------------------------------------------------------------------------------------------------------------------------------------------------------------------------------------------------------------------------------------------------------------------------------------------------------------------------------------------------------------------------- ------------- ------- ------------------------------- --- ----------------- ----------------- -------------------- 
6      tfl_pseudo_qconst101 (Placeholder, )            [b:32,c:32]                                                                                                                                                                                                                                                                                                                                                                                                                                                                                        1,024/1,024                                             | +160(+15.6%)      +1,056(+100.0%)   Dense_[0]            
       gemm_6 (Gemm, FULLY_CONNECTED)                  [b:1,c:32]                                                                                                                                                                                                                                                                                                                                                                                                                                                                                                         1,056         constantofshape_5_const   |                   -1,056(-100.0%)   
                                                                                                                                                                                                                                                                                                                                                                                                                                                                                                                                                                                           tfl_pseudo_qconst101   | 
------ ----------------------------------------------- -------------------------------------------------------------------------------------------------------------------------------------------------------------------------------------------------------------------------------------------------------------------------------------------------------------------------------------------------------------------------------------------------------------------------------------------------------------------------------------------------- ------------- ------- ------------------------------- --- ----------------- ----------------- -------------------- 
7      tfl_pseudo_qconst100 (Placeholder, )            [b:32,c:9]                                                                                                                                                                                                                                                                                                                                                                                                                                                                                         288/288                                                 | +128(+44.4%)      +320(+100.0%)     Dense_[4]            
       tfl_pseudo_qconst52 (Placeholder, )             [b:32]                                                                                                                                                                                                                                                                                                                                                                                                                                                                                             32/128                                                  | -128(-100.0%)                       
       gemm_7 (Gemm, FULLY_CONNECTED)                  [b:1,c:32]                                                                                                                                                                                                                                                                                                                                                                                                                                                                                                           320                        unpack_3   |                   -320(-100.0%)     
                                                                                                                                                                                                                                                                                                                                                                                                                                                                                                                                                                                           tfl_pseudo_qconst100   | 
                                                                                                                                                                                                                                                                                                                                                                                                                                                                                                                                                                                            tfl_pseudo_qconst52   | 
------ ----------------------------------------------- -------------------------------------------------------------------------------------------------------------------------------------------------------------------------------------------------------------------------------------------------------------------------------------------------------------------------------------------------------------------------------------------------------------------------------------------------------------------------------------------------- ------------- ------- ------------------------------- --- ----------------- ----------------- -------------------- 
8      eltwise_8 (Eltwise, ADD)                        [b:1,c:32]                                                                                                                                                                                                                                                                                                                                                                                                                                                                                                            32                          gemm_7   |                                     Eltwise/add_[5]      
                                                                                                                                                                                                                                                                                                                                                                                                                                                                                                                                                                                                         gemm_6   | 
------ ----------------------------------------------- -------------------------------------------------------------------------------------------------------------------------------------------------------------------------------------------------------------------------------------------------------------------------------------------------------------------------------------------------------------------------------------------------------------------------------------------------------------------------------------------------- ------------- ------- ------------------------------- --- ----------------- ----------------- -------------------- 
9      nl_9 (Nonlinearity, TANH)                       [b:1,c:32]                                                                                                                                                                                                                                                                                                                                                                                                                                                                                                           320                       eltwise_8   |                   -288(-90.0%)      Nonlinearity_[6]     
------ ----------------------------------------------- -------------------------------------------------------------------------------------------------------------------------------------------------------------------------------------------------------------------------------------------------------------------------------------------------------------------------------------------------------------------------------------------------------------------------------------------------------------------------------------------------- ------------- ------- ------------------------------- --- ----------------- ----------------- -------------------- 
10     conversion_10 (Conversion, QUANTIZE)            [b:1,c:32]                                                                                                                                                                                                                                                                                                                                                                                                                                                                                                            64                            nl_9   |                                     Conversion_[7]       
------ ----------------------------------------------- -------------------------------------------------------------------------------------------------------------------------------------------------------------------------------------------------------------------------------------------------------------------------------------------------------------------------------------------------------------------------------------------------------------------------------------------------------------------------------------------------- ------------- ------- ------------------------------- --- ----------------- ----------------- -------------------- 
11     gemm_11 (Gemm, FULLY_CONNECTED)                 [b:1,c:32]                                                                                                                                                                                                                                                                                                                                                                                                                                                                                                         1,056                   conversion_10   | +1,152(+100.0%)                     Dense_[8]            
                                                                                                                                                                                                                                                                                                                                                                                                                                                                                                                                                                                           tfl_pseudo_qconst101   | 
------ ----------------------------------------------- -------------------------------------------------------------------------------------------------------------------------------------------------------------------------------------------------------------------------------------------------------------------------------------------------------------------------------------------------------------------------------------------------------------------------------------------------------------------------------------------------- ------------- ------- ------------------------------- --- ----------------- ----------------- -------------------- 
12     tfl_pseudo_qconst53 (Placeholder, )             [b:32]                                                                                                                                                                                                                                                                                                                                                                                                                                                                                             32/128                                                  | +288(+225.0%)     +320(+100.0%)     Dense_[29]           
       gemm_12 (Gemm, FULLY_CONNECTED)                 [b:1,c:32]                                                                                                                                                                                                                                                                                                                                                                                                                                                                                                           320                        unpack_3   |                   -320(-100.0%)     
                                                                                                                                                                                                                                                                                                                                                                                                                                                                                                                                                                                           tfl_pseudo_qconst100   | 
                                                                                                                                                                                                                                                                                                                                                                                                                                                                                                                                                                                            tfl_pseudo_qconst53   | 
------ ----------------------------------------------- -------------------------------------------------------------------------------------------------------------------------------------------------------------------------------------------------------------------------------------------------------------------------------------------------------------------------------------------------------------------------------------------------------------------------------------------------------------------------------------------------- ------------- ------- ------------------------------- --- ----------------- ----------------- -------------------- 
13     tfl_pseudo_qconst54 (Placeholder, )             [b:32]                                                                                                                                                                                                                                                                                                                                                                                                                                                                                             32/128                                                  | +288(+225.0%)     +320(+100.0%)     Dense_[34]           
       gemm_13 (Gemm, FULLY_CONNECTED)                 [b:1,c:32]                                                                                                                                                                                                                                                                                                                                                                                                                                                                                                           320                        unpack_3   |                   -320(-100.0%)     
                                                                                                                                                                                                                                                                                                                                                                                                                                                                                                                                                                                           tfl_pseudo_qconst100   | 
                                                                                                                                                                                                                                                                                                                                                                                                                                                                                                                                                                                            tfl_pseudo_qconst54   | 
------ ----------------------------------------------- -------------------------------------------------------------------------------------------------------------------------------------------------------------------------------------------------------------------------------------------------------------------------------------------------------------------------------------------------------------------------------------------------------------------------------------------------------------------------------------------------- ------------- ------- ------------------------------- --- ----------------- ----------------- -------------------- 
14     tfl_pseudo_qconst55 (Placeholder, )             [b:32]                                                                                                                                                                                                                                                                                                                                                                                                                                                                                             32/128                                                  | +288(+225.0%)     +320(+100.0%)     Dense_[39]           
       gemm_14 (Gemm, FULLY_CONNECTED)                 [b:1,c:32]                                                                                                                                                                                                                                                                                                                                                                                                                                                                                                           320                        unpack_3   |                   -320(-100.0%)     
                                                                                                                                                                                                                                                                                                                                                                                                                                                                                                                                                                                           tfl_pseudo_qconst100   | 
                                                                                                                                                                                                                                                                                                                                                                                                                                                                                                                                                                                            tfl_pseudo_qconst55   | 
------ ----------------------------------------------- -------------------------------------------------------------------------------------------------------------------------------------------------------------------------------------------------------------------------------------------------------------------------------------------------------------------------------------------------------------------------------------------------------------------------------------------------------------------------------------------------- ------------- ------- ------------------------------- --- ----------------- ----------------- -------------------- 
15     tfl_pseudo_qconst56 (Placeholder, )             [b:32]                                                                                                                                                                                                                                                                                                                                                                                                                                                                                             32/128                                                  | +288(+225.0%)     +320(+100.0%)     Dense_[44]           
       gemm_15 (Gemm, FULLY_CONNECTED)                 [b:1,c:32]                                                                                                                                                                                                                                                                                                                                                                                                                                                                                                           320                        unpack_3   |                   -320(-100.0%)     
                                                                                                                                                                                                                                                                                                                                                                                                                                                                                                                                                                                           tfl_pseudo_qconst100   | 
                                                                                                                                                                                                                                                                                                                                                                                                                                                                                                                                                                                            tfl_pseudo_qconst56   | 
------ ----------------------------------------------- -------------------------------------------------------------------------------------------------------------------------------------------------------------------------------------------------------------------------------------------------------------------------------------------------------------------------------------------------------------------------------------------------------------------------------------------------------------------------------------------------- ------------- ------- ------------------------------- --- ----------------- ----------------- -------------------- 
16     tfl_pseudo_qconst57 (Placeholder, )             [b:32]                                                                                                                                                                                                                                                                                                                                                                                                                                                                                             32/128                                                  | +288(+225.0%)     +320(+100.0%)     Dense_[49]           
       gemm_16 (Gemm, FULLY_CONNECTED)                 [b:1,c:32]                                                                                                                                                                                                                                                                                                                                                                                                                                                                                                           320                        unpack_3   |                   -320(-100.0%)     
                                                                                                                                                                                                                                                                                                                                                                                                                                                                                                                                                                                           tfl_pseudo_qconst100   | 
                                                                                                                                                                                                                                                                                                                                                                                                                                                                                                                                                                                            tfl_pseudo_qconst57   | 
------ ----------------------------------------------- -------------------------------------------------------------------------------------------------------------------------------------------------------------------------------------------------------------------------------------------------------------------------------------------------------------------------------------------------------------------------------------------------------------------------------------------------------------------------------------------------- ------------- ------- ------------------------------- --- ----------------- ----------------- -------------------- 
17     tfl_pseudo_qconst58 (Placeholder, )             [b:32]                                                                                                                                                                                                                                                                                                                                                                                                                                                                                             32/128                                                  | +288(+225.0%)     +320(+100.0%)     Dense_[54]           
       gemm_17 (Gemm, FULLY_CONNECTED)                 [b:1,c:32]                                                                                                                                                                                                                                                                                                                                                                                                                                                                                                           320                        unpack_3   |                   -320(-100.0%)     
                                                                                                                                                                                                                                                                                                                                                                                                                                                                                                                                                                                           tfl_pseudo_qconst100   | 
                                                                                                                                                                                                                                                                                                                                                                                                                                                                                                                                                                                            tfl_pseudo_qconst58   | 
------ ----------------------------------------------- -------------------------------------------------------------------------------------------------------------------------------------------------------------------------------------------------------------------------------------------------------------------------------------------------------------------------------------------------------------------------------------------------------------------------------------------------------------------------------------------------- ------------- ------- ------------------------------- --- ----------------- ----------------- -------------------- 
18     tfl_pseudo_qconst59 (Placeholder, )             [b:32]                                                                                                                                                                                                                                                                                                                                                                                                                                                                                             32/128                                                  | +288(+225.0%)     +320(+100.0%)     Dense_[59]           
       gemm_18 (Gemm, FULLY_CONNECTED)                 [b:1,c:32]                                                                                                                                                                                                                                                                                                                                                                                                                                                                                                           320                        unpack_3   |                   -320(-100.0%)     
                                                                                                                                                                                                                                                                                                                                                                                                                                                                                                                                                                                           tfl_pseudo_qconst100   | 
                                                                                                                                                                                                                                                                                                                                                                                                                                                                                                                                                                                            tfl_pseudo_qconst59   | 
------ ----------------------------------------------- -------------------------------------------------------------------------------------------------------------------------------------------------------------------------------------------------------------------------------------------------------------------------------------------------------------------------------------------------------------------------------------------------------------------------------------------------------------------------------------------------- ------------- ------- ------------------------------- --- ----------------- ----------------- -------------------- 
19     tfl_pseudo_qconst60 (Placeholder, )             [b:32]                                                                                                                                                                                                                                                                                                                                                                                                                                                                                             32/128                                                  | +288(+225.0%)     +320(+100.0%)     Dense_[64]           
       gemm_19 (Gemm, FULLY_CONNECTED)                 [b:1,c:32]                                                                                                                                                                                                                                                                                                                                                                                                                                                                                                           320                        unpack_3   |                   -320(-100.0%)     
                                                                                                                                                                                                                                                                                                                                                                                                                                                                                                                                                                                           tfl_pseudo_qconst100   | 
                                                                                                                                                                                                                                                                                                                                                                                                                                                                                                                                                                                            tfl_pseudo_qconst60   | 
------ ----------------------------------------------- -------------------------------------------------------------------------------------------------------------------------------------------------------------------------------------------------------------------------------------------------------------------------------------------------------------------------------------------------------------------------------------------------------------------------------------------------------------------------------------------------- ------------- ------- ------------------------------- --- ----------------- ----------------- -------------------- 
20     tfl_pseudo_qconst61 (Placeholder, )             [b:32]                                                                                                                                                                                                                                                                                                                                                                                                                                                                                             32/128                                                  | +288(+225.0%)     +320(+100.0%)     Dense_[69]           
       gemm_20 (Gemm, FULLY_CONNECTED)                 [b:1,c:32]                                                                                                                                                                                                                                                                                                                                                                                                                                                                                                           320                        unpack_3   |                   -320(-100.0%)     
                                                                                                                                                                                                                                                                                                                                                                                                                                                                                                                                                                                           tfl_pseudo_qconst100   | 
                                                                                                                                                                                                                                                                                                                                                                                                                                                                                                                                                                                            tfl_pseudo_qconst61   | 
------ ----------------------------------------------- -------------------------------------------------------------------------------------------------------------------------------------------------------------------------------------------------------------------------------------------------------------------------------------------------------------------------------------------------------------------------------------------------------------------------------------------------------------------------------------------------- ------------- ------- ------------------------------- --- ----------------- ----------------- -------------------- 
21     tfl_pseudo_qconst62 (Placeholder, )             [b:32]                                                                                                                                                                                                                                                                                                                                                                                                                                                                                             32/128                                                  | +288(+225.0%)     +320(+100.0%)     Dense_[74]           
       gemm_21 (Gemm, FULLY_CONNECTED)                 [b:1,c:32]                                                                                                                                                                                                                                                                                                                                                                                                                                                                                                           320                        unpack_3   |                   -320(-100.0%)     
                                                                                                                                                                                                                                                                                                                                                                                                                                                                                                                                                                                           tfl_pseudo_qconst100   | 
                                                                                                                                                                                                                                                                                                                                                                                                                                                                                                                                                                                            tfl_pseudo_qconst62   | 
------ ----------------------------------------------- -------------------------------------------------------------------------------------------------------------------------------------------------------------------------------------------------------------------------------------------------------------------------------------------------------------------------------------------------------------------------------------------------------------------------------------------------------------------------------------------------- ------------- ------- ------------------------------- --- ----------------- ----------------- -------------------- 
22     tfl_pseudo_qconst63 (Placeholder, )             [b:32]                                                                                                                                                                                                                                                                                                                                                                                                                                                                                             32/128                                                  | +288(+225.0%)     +320(+100.0%)     Dense_[9]            
       gemm_22 (Gemm, FULLY_CONNECTED)                 [b:1,c:32]                                                                                                                                                                                                                                                                                                                                                                                                                                                                                                           320                        unpack_3   |                   -320(-100.0%)     
                                                                                                                                                                                                                                                                                                                                                                                                                                                                                                                                                                                           tfl_pseudo_qconst100   | 
                                                                                                                                                                                                                                                                                                                                                                                                                                                                                                                                                                                            tfl_pseudo_qconst63   | 
------ ----------------------------------------------- -------------------------------------------------------------------------------------------------------------------------------------------------------------------------------------------------------------------------------------------------------------------------------------------------------------------------------------------------------------------------------------------------------------------------------------------------------------------------------------------------- ------------- ------- ------------------------------- --- ----------------- ----------------- -------------------- 
23     eltwise_23 (Eltwise, ADD)                       [b:1,c:32]                                                                                                                                                                                                                                                                                                                                                                                                                                                                                                            32                         gemm_22   |                                     Eltwise/add_[10]     
                                                                                                                                                                                                                                                                                                                                                                                                                                                                                                                                                                                                        gemm_11   | 
------ ----------------------------------------------- -------------------------------------------------------------------------------------------------------------------------------------------------------------------------------------------------------------------------------------------------------------------------------------------------------------------------------------------------------------------------------------------------------------------------------------------------------------------------------------------------- ------------- ------- ------------------------------- --- ----------------- ----------------- -------------------- 
24     nl_24 (Nonlinearity, TANH)                      [b:1,c:32]                                                                                                                                                                                                                                                                                                                                                                                                                                                                                                           320                      eltwise_23   |                   -288(-90.0%)      Nonlinearity_[11]    
------ ----------------------------------------------- -------------------------------------------------------------------------------------------------------------------------------------------------------------------------------------------------------------------------------------------------------------------------------------------------------------------------------------------------------------------------------------------------------------------------------------------------------------------------------------------------- ------------- ------- ------------------------------- --- ----------------- ----------------- -------------------- 
25     conversion_25 (Conversion, QUANTIZE)            [b:1,c:32]                                                                                                                                                                                                                                                                                                                                                                                                                                                                                                            64                           nl_24   |                                     Conversion_[12]      
------ ----------------------------------------------- -------------------------------------------------------------------------------------------------------------------------------------------------------------------------------------------------------------------------------------------------------------------------------------------------------------------------------------------------------------------------------------------------------------------------------------------------------------------------------------------------- ------------- ------- ------------------------------- --- ----------------- ----------------- -------------------- 
26     gemm_26 (Gemm, FULLY_CONNECTED)                 [b:1,c:32]                                                                                                                                                                                                                                                                                                                                                                                                                                                                                                         1,056                   conversion_25   | +1,152(+100.0%)                     Dense_[13]           
                                                                                                                                                                                                                                                                                                                                                                                                                                                                                                                                                                                           tfl_pseudo_qconst101   | 
------ ----------------------------------------------- -------------------------------------------------------------------------------------------------------------------------------------------------------------------------------------------------------------------------------------------------------------------------------------------------------------------------------------------------------------------------------------------------------------------------------------------------------------------------------------------------- ------------- ------- ------------------------------- --- ----------------- ----------------- -------------------- 
27     tfl_pseudo_qconst64 (Placeholder, )             [b:32]                                                                                                                                                                                                                                                                                                                                                                                                                                                                                             32/128                                                  | +288(+225.0%)     +320(+100.0%)     Dense_[79]           
       gemm_27 (Gemm, FULLY_CONNECTED)                 [b:1,c:32]                                                                                                                                                                                                                                                                                                                                                                                                                                                                                                           320                        unpack_3   |                   -320(-100.0%)     
                                                                                                                                                                                                                                                                                                                                                                                                                                                                                                                                                                                           tfl_pseudo_qconst100   | 
                                                                                                                                                                                                                                                                                                                                                                                                                                                                                                                                                                                            tfl_pseudo_qconst64   | 
------ ----------------------------------------------- -------------------------------------------------------------------------------------------------------------------------------------------------------------------------------------------------------------------------------------------------------------------------------------------------------------------------------------------------------------------------------------------------------------------------------------------------------------------------------------------------- ------------- ------- ------------------------------- --- ----------------- ----------------- -------------------- 
28     tfl_pseudo_qconst65 (Placeholder, )             [b:32]                                                                                                                                                                                                                                                                                                                                                                                                                                                                                             32/128                                                  | +288(+225.0%)     +320(+100.0%)     Dense_[84]           
       gemm_28 (Gemm, FULLY_CONNECTED)                 [b:1,c:32]                                                                                                                                                                                                                                                                                                                                                                                                                                                                                                           320                        unpack_3   |                   -320(-100.0%)     
                                                                                                                                                                                                                                                                                                                                                                                                                                                                                                                                                                                           tfl_pseudo_qconst100   | 
                                                                                                                                                                                                                                                                                                                                                                                                                                                                                                                                                                                            tfl_pseudo_qconst65   | 
------ ----------------------------------------------- -------------------------------------------------------------------------------------------------------------------------------------------------------------------------------------------------------------------------------------------------------------------------------------------------------------------------------------------------------------------------------------------------------------------------------------------------------------------------------------------------- ------------- ------- ------------------------------- --- ----------------- ----------------- -------------------- 
29     tfl_pseudo_qconst66 (Placeholder, )             [b:32]                                                                                                                                                                                                                                                                                                                                                                                                                                                                                             32/128                                                  | +288(+225.0%)     +320(+100.0%)     Dense_[89]           
       gemm_29 (Gemm, FULLY_CONNECTED)                 [b:1,c:32]                                                                                                                                                                                                                                                                                                                                                                                                                                                                                                           320                        unpack_3   |                   -320(-100.0%)     
                                                                                                                                                                                                                                                                                                                                                                                                                                                                                                                                                                                           tfl_pseudo_qconst100   | 
                                                                                                                                                                                                                                                                                                                                                                                                                                                                                                                                                                                            tfl_pseudo_qconst66   | 
------ ----------------------------------------------- -------------------------------------------------------------------------------------------------------------------------------------------------------------------------------------------------------------------------------------------------------------------------------------------------------------------------------------------------------------------------------------------------------------------------------------------------------------------------------------------------- ------------- ------- ------------------------------- --- ----------------- ----------------- -------------------- 
30     tfl_pseudo_qconst67 (Placeholder, )             [b:32]                                                                                                                                                                                                                                                                                                                                                                                                                                                                                             32/128                                                  | +288(+225.0%)     +320(+100.0%)     Dense_[94]           
       gemm_30 (Gemm, FULLY_CONNECTED)                 [b:1,c:32]                                                                                                                                                                                                                                                                                                                                                                                                                                                                                                           320                        unpack_3   |                   -320(-100.0%)     
                                                                                                                                                                                                                                                                                                                                                                                                                                                                                                                                                                                           tfl_pseudo_qconst100   | 
                                                                                                                                                                                                                                                                                                                                                                                                                                                                                                                                                                                            tfl_pseudo_qconst67   | 
------ ----------------------------------------------- -------------------------------------------------------------------------------------------------------------------------------------------------------------------------------------------------------------------------------------------------------------------------------------------------------------------------------------------------------------------------------------------------------------------------------------------------------------------------------------------------- ------------- ------- ------------------------------- --- ----------------- ----------------- -------------------- 
31     tfl_pseudo_qconst68 (Placeholder, )             [b:32]                                                                                                                                                                                                                                                                                                                                                                                                                                                                                             32/128                                                  | +288(+225.0%)     +320(+100.0%)     Dense_[99]           
       gemm_31 (Gemm, FULLY_CONNECTED)                 [b:1,c:32]                                                                                                                                                                                                                                                                                                                                                                                                                                                                                                           320                        unpack_3   |                   -320(-100.0%)     
                                                                                                                                                                                                                                                                                                                                                                                                                                                                                                                                                                                           tfl_pseudo_qconst100   | 
                                                                                                                                                                                                                                                                                                                                                                                                                                                                                                                                                                                            tfl_pseudo_qconst68   | 
------ ----------------------------------------------- -------------------------------------------------------------------------------------------------------------------------------------------------------------------------------------------------------------------------------------------------------------------------------------------------------------------------------------------------------------------------------------------------------------------------------------------------------------------------------------------------- ------------- ------- ------------------------------- --- ----------------- ----------------- -------------------- 
32     tfl_pseudo_qconst69 (Placeholder, )             [b:32]                                                                                                                                                                                                                                                                                                                                                                                                                                                                                             32/128                                                  | +288(+225.0%)     +320(+100.0%)     Dense_[104]          
       gemm_32 (Gemm, FULLY_CONNECTED)                 [b:1,c:32]                                                                                                                                                                                                                                                                                                                                                                                                                                                                                                           320                        unpack_3   |                   -320(-100.0%)     
                                                                                                                                                                                                                                                                                                                                                                                                                                                                                                                                                                                           tfl_pseudo_qconst100   | 
                                                                                                                                                                                                                                                                                                                                                                                                                                                                                                                                                                                            tfl_pseudo_qconst69   | 
------ ----------------------------------------------- -------------------------------------------------------------------------------------------------------------------------------------------------------------------------------------------------------------------------------------------------------------------------------------------------------------------------------------------------------------------------------------------------------------------------------------------------------------------------------------------------- ------------- ------- ------------------------------- --- ----------------- ----------------- -------------------- 
33     tfl_pseudo_qconst70 (Placeholder, )             [b:32]                                                                                                                                                                                                                                                                                                                                                                                                                                                                                             32/128                                                  | +288(+225.0%)     +320(+100.0%)     Dense_[109]          
       gemm_33 (Gemm, FULLY_CONNECTED)                 [b:1,c:32]                                                                                                                                                                                                                                                                                                                                                                                                                                                                                                           320                        unpack_3   |                   -320(-100.0%)     
                                                                                                                                                                                                                                                                                                                                                                                                                                                                                                                                                                                           tfl_pseudo_qconst100   | 
                                                                                                                                                                                                                                                                                                                                                                                                                                                                                                                                                                                            tfl_pseudo_qconst70   | 
------ ----------------------------------------------- -------------------------------------------------------------------------------------------------------------------------------------------------------------------------------------------------------------------------------------------------------------------------------------------------------------------------------------------------------------------------------------------------------------------------------------------------------------------------------------------------- ------------- ------- ------------------------------- --- ----------------- ----------------- -------------------- 
34     tfl_pseudo_qconst71 (Placeholder, )             [b:32]                                                                                                                                                                                                                                                                                                                                                                                                                                                                                             32/128                                                  | +288(+225.0%)     +320(+100.0%)     Dense_[114]          
       gemm_34 (Gemm, FULLY_CONNECTED)                 [b:1,c:32]                                                                                                                                                                                                                                                                                                                                                                                                                                                                                                           320                        unpack_3   |                   -320(-100.0%)     
                                                                                                                                                                                                                                                                                                                                                                                                                                                                                                                                                                                           tfl_pseudo_qconst100   | 
                                                                                                                                                                                                                                                                                                                                                                                                                                                                                                                                                                                            tfl_pseudo_qconst71   | 
------ ----------------------------------------------- -------------------------------------------------------------------------------------------------------------------------------------------------------------------------------------------------------------------------------------------------------------------------------------------------------------------------------------------------------------------------------------------------------------------------------------------------------------------------------------------------- ------------- ------- ------------------------------- --- ----------------- ----------------- -------------------- 
35     tfl_pseudo_qconst72 (Placeholder, )             [b:32]                                                                                                                                                                                                                                                                                                                                                                                                                                                                                             32/128                                                  | +288(+225.0%)     +320(+100.0%)     Dense_[119]          
       gemm_35 (Gemm, FULLY_CONNECTED)                 [b:1,c:32]                                                                                                                                                                                                                                                                                                                                                                                                                                                                                                           320                        unpack_3   |                   -320(-100.0%)     
                                                                                                                                                                                                                                                                                                                                                                                                                                                                                                                                                                                           tfl_pseudo_qconst100   | 
                                                                                                                                                                                                                                                                                                                                                                                                                                                                                                                                                                                            tfl_pseudo_qconst72   | 
------ ----------------------------------------------- -------------------------------------------------------------------------------------------------------------------------------------------------------------------------------------------------------------------------------------------------------------------------------------------------------------------------------------------------------------------------------------------------------------------------------------------------------------------------------------------------- ------------- ------- ------------------------------- --- ----------------- ----------------- -------------------- 
36     tfl_pseudo_qconst73 (Placeholder, )             [b:32]                                                                                                                                                                                                                                                                                                                                                                                                                                                                                             32/128                                                  | +288(+225.0%)     +320(+100.0%)     Dense_[124]          
       gemm_36 (Gemm, FULLY_CONNECTED)                 [b:1,c:32]                                                                                                                                                                                                                                                                                                                                                                                                                                                                                                           320                        unpack_3   |                   -320(-100.0%)     
                                                                                                                                                                                                                                                                                                                                                                                                                                                                                                                                                                                           tfl_pseudo_qconst100   | 
                                                                                                                                                                                                                                                                                                                                                                                                                                                                                                                                                                                            tfl_pseudo_qconst73   | 
------ ----------------------------------------------- -------------------------------------------------------------------------------------------------------------------------------------------------------------------------------------------------------------------------------------------------------------------------------------------------------------------------------------------------------------------------------------------------------------------------------------------------------------------------------------------------- ------------- ------- ------------------------------- --- ----------------- ----------------- -------------------- 
37     tfl_pseudo_qconst74 (Placeholder, )             [b:32]                                                                                                                                                                                                                                                                                                                                                                                                                                                                                             32/128                                                  | +288(+225.0%)     +320(+100.0%)     Dense_[14]           
       gemm_37 (Gemm, FULLY_CONNECTED)                 [b:1,c:32]                                                                                                                                                                                                                                                                                                                                                                                                                                                                                                           320                        unpack_3   |                   -320(-100.0%)     
                                                                                                                                                                                                                                                                                                                                                                                                                                                                                                                                                                                           tfl_pseudo_qconst100   | 
                                                                                                                                                                                                                                                                                                                                                                                                                                                                                                                                                                                            tfl_pseudo_qconst74   | 
------ ----------------------------------------------- -------------------------------------------------------------------------------------------------------------------------------------------------------------------------------------------------------------------------------------------------------------------------------------------------------------------------------------------------------------------------------------------------------------------------------------------------------------------------------------------------- ------------- ------- ------------------------------- --- ----------------- ----------------- -------------------- 
38     eltwise_38 (Eltwise, ADD)                       [b:1,c:32]                                                                                                                                                                                                                                                                                                                                                                                                                                                                                                            32                         gemm_37   |                                     Eltwise/add_[15]     
                                                                                                                                                                                                                                                                                                                                                                                                                                                                                                                                                                                                        gemm_26   | 
------ ----------------------------------------------- -------------------------------------------------------------------------------------------------------------------------------------------------------------------------------------------------------------------------------------------------------------------------------------------------------------------------------------------------------------------------------------------------------------------------------------------------------------------------------------------------- ------------- ------- ------------------------------- --- ----------------- ----------------- -------------------- 
39     nl_39 (Nonlinearity, TANH)                      [b:1,c:32]                                                                                                                                                                                                                                                                                                                                                                                                                                                                                                           320                      eltwise_38   |                   -288(-90.0%)      Nonlinearity_[16]    
------ ----------------------------------------------- -------------------------------------------------------------------------------------------------------------------------------------------------------------------------------------------------------------------------------------------------------------------------------------------------------------------------------------------------------------------------------------------------------------------------------------------------------------------------------------------------- ------------- ------- ------------------------------- --- ----------------- ----------------- -------------------- 
40     conversion_40 (Conversion, QUANTIZE)            [b:1,c:32]                                                                                                                                                                                                                                                                                                                                                                                                                                                                                                            64                           nl_39   |                                     Conversion_[17]      
------ ----------------------------------------------- -------------------------------------------------------------------------------------------------------------------------------------------------------------------------------------------------------------------------------------------------------------------------------------------------------------------------------------------------------------------------------------------------------------------------------------------------------------------------------------------------- ------------- ------- ------------------------------- --- ----------------- ----------------- -------------------- 
41     gemm_41 (Gemm, FULLY_CONNECTED)                 [b:1,c:32]                                                                                                                                                                                                                                                                                                                                                                                                                                                                                                         1,056                   conversion_40   | +1,152(+100.0%)                     Dense_[18]           
                                                                                                                                                                                                                                                                                                                                                                                                                                                                                                                                                                                           tfl_pseudo_qconst101   | 
------ ----------------------------------------------- -------------------------------------------------------------------------------------------------------------------------------------------------------------------------------------------------------------------------------------------------------------------------------------------------------------------------------------------------------------------------------------------------------------------------------------------------------------------------------------------------- ------------- ------- ------------------------------- --- ----------------- ----------------- -------------------- 
42     tfl_pseudo_qconst75 (Placeholder, )             [b:32]                                                                                                                                                                                                                                                                                                                                                                                                                                                                                             32/128                                                  | +288(+225.0%)     +320(+100.0%)     Dense_[129]          
       gemm_42 (Gemm, FULLY_CONNECTED)                 [b:1,c:32]                                                                                                                                                                                                                                                                                                                                                                                                                                                                                                           320                        unpack_3   |                   -320(-100.0%)     
                                                                                                                                                                                                                                                                                                                                                                                                                                                                                                                                                                                           tfl_pseudo_qconst100   | 
                                                                                                                                                                                                                                                                                                                                                                                                                                                                                                                                                                                            tfl_pseudo_qconst75   | 
------ ----------------------------------------------- -------------------------------------------------------------------------------------------------------------------------------------------------------------------------------------------------------------------------------------------------------------------------------------------------------------------------------------------------------------------------------------------------------------------------------------------------------------------------------------------------- ------------- ------- ------------------------------- --- ----------------- ----------------- -------------------- 
43     tfl_pseudo_qconst76 (Placeholder, )             [b:32]                                                                                                                                                                                                                                                                                                                                                                                                                                                                                             32/128                                                  | +288(+225.0%)     +320(+100.0%)     Dense_[134]          
       gemm_43 (Gemm, FULLY_CONNECTED)                 [b:1,c:32]                                                                                                                                                                                                                                                                                                                                                                                                                                                                                                           320                        unpack_3   |                   -320(-100.0%)     
                                                                                                                                                                                                                                                                                                                                                                                                                                                                                                                                                                                           tfl_pseudo_qconst100   | 
                                                                                                                                                                                                                                                                                                                                                                                                                                                                                                                                                                                            tfl_pseudo_qconst76   | 
------ ----------------------------------------------- -------------------------------------------------------------------------------------------------------------------------------------------------------------------------------------------------------------------------------------------------------------------------------------------------------------------------------------------------------------------------------------------------------------------------------------------------------------------------------------------------- ------------- ------- ------------------------------- --- ----------------- ----------------- -------------------- 
44     tfl_pseudo_qconst77 (Placeholder, )             [b:32]                                                                                                                                                                                                                                                                                                                                                                                                                                                                                             32/128                                                  | +288(+225.0%)     +320(+100.0%)     Dense_[139]          
       gemm_44 (Gemm, FULLY_CONNECTED)                 [b:1,c:32]                                                                                                                                                                                                                                                                                                                                                                                                                                                                                                           320                        unpack_3   |                   -320(-100.0%)     
                                                                                                                                                                                                                                                                                                                                                                                                                                                                                                                                                                                           tfl_pseudo_qconst100   | 
                                                                                                                                                                                                                                                                                                                                                                                                                                                                                                                                                                                            tfl_pseudo_qconst77   | 
------ ----------------------------------------------- -------------------------------------------------------------------------------------------------------------------------------------------------------------------------------------------------------------------------------------------------------------------------------------------------------------------------------------------------------------------------------------------------------------------------------------------------------------------------------------------------- ------------- ------- ------------------------------- --- ----------------- ----------------- -------------------- 
45     tfl_pseudo_qconst78 (Placeholder, )             [b:32]                                                                                                                                                                                                                                                                                                                                                                                                                                                                                             32/128                                                  | +288(+225.0%)     +320(+100.0%)     Dense_[144]          
       gemm_45 (Gemm, FULLY_CONNECTED)                 [b:1,c:32]                                                                                                                                                                                                                                                                                                                                                                                                                                                                                                           320                        unpack_3   |                   -320(-100.0%)     
                                                                                                                                                                                                                                                                                                                                                                                                                                                                                                                                                                                           tfl_pseudo_qconst100   | 
                                                                                                                                                                                                                                                                                                                                                                                                                                                                                                                                                                                            tfl_pseudo_qconst78   | 
------ ----------------------------------------------- -------------------------------------------------------------------------------------------------------------------------------------------------------------------------------------------------------------------------------------------------------------------------------------------------------------------------------------------------------------------------------------------------------------------------------------------------------------------------------------------------- ------------- ------- ------------------------------- --- ----------------- ----------------- -------------------- 
46     tfl_pseudo_qconst79 (Placeholder, )             [b:32]                                                                                                                                                                                                                                                                                                                                                                                                                                                                                             32/128                                                  | +288(+225.0%)     +320(+100.0%)     Dense_[149]          
       gemm_46 (Gemm, FULLY_CONNECTED)                 [b:1,c:32]                                                                                                                                                                                                                                                                                                                                                                                                                                                                                                           320                        unpack_3   |                   -320(-100.0%)     
                                                                                                                                                                                                                                                                                                                                                                                                                                                                                                                                                                                           tfl_pseudo_qconst100   | 
                                                                                                                                                                                                                                                                                                                                                                                                                                                                                                                                                                                            tfl_pseudo_qconst79   | 
------ ----------------------------------------------- -------------------------------------------------------------------------------------------------------------------------------------------------------------------------------------------------------------------------------------------------------------------------------------------------------------------------------------------------------------------------------------------------------------------------------------------------------------------------------------------------- ------------- ------- ------------------------------- --- ----------------- ----------------- -------------------- 
47     tfl_pseudo_qconst80 (Placeholder, )             [b:32]                                                                                                                                                                                                                                                                                                                                                                                                                                                                                             32/128                                                  | +288(+225.0%)     +320(+100.0%)     Dense_[154]          
       gemm_47 (Gemm, FULLY_CONNECTED)                 [b:1,c:32]                                                                                                                                                                                                                                                                                                                                                                                                                                                                                                           320                        unpack_3   |                   -320(-100.0%)     
                                                                                                                                                                                                                                                                                                                                                                                                                                                                                                                                                                                           tfl_pseudo_qconst100   | 
                                                                                                                                                                                                                                                                                                                                                                                                                                                                                                                                                                                            tfl_pseudo_qconst80   | 
------ ----------------------------------------------- -------------------------------------------------------------------------------------------------------------------------------------------------------------------------------------------------------------------------------------------------------------------------------------------------------------------------------------------------------------------------------------------------------------------------------------------------------------------------------------------------- ------------- ------- ------------------------------- --- ----------------- ----------------- -------------------- 
48     tfl_pseudo_qconst81 (Placeholder, )             [b:32]                                                                                                                                                                                                                                                                                                                                                                                                                                                                                             32/128                                                  | +288(+225.0%)     +320(+100.0%)     Dense_[159]          
       gemm_48 (Gemm, FULLY_CONNECTED)                 [b:1,c:32]                                                                                                                                                                                                                                                                                                                                                                                                                                                                                                           320                        unpack_3   |                   -320(-100.0%)     
                                                                                                                                                                                                                                                                                                                                                                                                                                                                                                                                                                                           tfl_pseudo_qconst100   | 
                                                                                                                                                                                                                                                                                                                                                                                                                                                                                                                                                                                            tfl_pseudo_qconst81   | 
------ ----------------------------------------------- -------------------------------------------------------------------------------------------------------------------------------------------------------------------------------------------------------------------------------------------------------------------------------------------------------------------------------------------------------------------------------------------------------------------------------------------------------------------------------------------------- ------------- ------- ------------------------------- --- ----------------- ----------------- -------------------- 
49     tfl_pseudo_qconst82 (Placeholder, )             [b:32]                                                                                                                                                                                                                                                                                                                                                                                                                                                                                             32/128                                                  | +288(+225.0%)     +320(+100.0%)     Dense_[164]          
       gemm_49 (Gemm, FULLY_CONNECTED)                 [b:1,c:32]                                                                                                                                                                                                                                                                                                                                                                                                                                                                                                           320                        unpack_3   |                   -320(-100.0%)     
                                                                                                                                                                                                                                                                                                                                                                                                                                                                                                                                                                                           tfl_pseudo_qconst100   | 
                                                                                                                                                                                                                                                                                                                                                                                                                                                                                                                                                                                            tfl_pseudo_qconst82   | 
------ ----------------------------------------------- -------------------------------------------------------------------------------------------------------------------------------------------------------------------------------------------------------------------------------------------------------------------------------------------------------------------------------------------------------------------------------------------------------------------------------------------------------------------------------------------------- ------------- ------- ------------------------------- --- ----------------- ----------------- -------------------- 
50     tfl_pseudo_qconst83 (Placeholder, )             [b:32]                                                                                                                                                                                                                                                                                                                                                                                                                                                                                             32/128                                                  | +288(+225.0%)     +320(+100.0%)     Dense_[169]          
       gemm_50 (Gemm, FULLY_CONNECTED)                 [b:1,c:32]                                                                                                                                                                                                                                                                                                                                                                                                                                                                                                           320                        unpack_3   |                   -320(-100.0%)     
                                                                                                                                                                                                                                                                                                                                                                                                                                                                                                                                                                                           tfl_pseudo_qconst100   | 
                                                                                                                                                                                                                                                                                                                                                                                                                                                                                                                                                                                            tfl_pseudo_qconst83   | 
------ ----------------------------------------------- -------------------------------------------------------------------------------------------------------------------------------------------------------------------------------------------------------------------------------------------------------------------------------------------------------------------------------------------------------------------------------------------------------------------------------------------------------------------------------------------------- ------------- ------- ------------------------------- --- ----------------- ----------------- -------------------- 
51     tfl_pseudo_qconst84 (Placeholder, )             [b:32]                                                                                                                                                                                                                                                                                                                                                                                                                                                                                             32/128                                                  | +288(+225.0%)     +320(+100.0%)     Dense_[174]          
       gemm_51 (Gemm, FULLY_CONNECTED)                 [b:1,c:32]                                                                                                                                                                                                                                                                                                                                                                                                                                                                                                           320                        unpack_3   |                   -320(-100.0%)     
                                                                                                                                                                                                                                                                                                                                                                                                                                                                                                                                                                                           tfl_pseudo_qconst100   | 
                                                                                                                                                                                                                                                                                                                                                                                                                                                                                                                                                                                            tfl_pseudo_qconst84   | 
------ ----------------------------------------------- -------------------------------------------------------------------------------------------------------------------------------------------------------------------------------------------------------------------------------------------------------------------------------------------------------------------------------------------------------------------------------------------------------------------------------------------------------------------------------------------------- ------------- ------- ------------------------------- --- ----------------- ----------------- -------------------- 
52     tfl_pseudo_qconst85 (Placeholder, )             [b:32]                                                                                                                                                                                                                                                                                                                                                                                                                                                                                             32/128                                                  | +288(+225.0%)     +320(+100.0%)     Dense_[19]           
       gemm_52 (Gemm, FULLY_CONNECTED)                 [b:1,c:32]                                                                                                                                                                                                                                                                                                                                                                                                                                                                                                           320                        unpack_3   |                   -320(-100.0%)     
                                                                                                                                                                                                                                                                                                                                                                                                                                                                                                                                                                                           tfl_pseudo_qconst100   | 
                                                                                                                                                                                                                                                                                                                                                                                                                                                                                                                                                                                            tfl_pseudo_qconst85   | 
------ ----------------------------------------------- -------------------------------------------------------------------------------------------------------------------------------------------------------------------------------------------------------------------------------------------------------------------------------------------------------------------------------------------------------------------------------------------------------------------------------------------------------------------------------------------------- ------------- ------- ------------------------------- --- ----------------- ----------------- -------------------- 
53     eltwise_53 (Eltwise, ADD)                       [b:1,c:32]                                                                                                                                                                                                                                                                                                                                                                                                                                                                                                            32                         gemm_52   |                                     Eltwise/add_[20]     
                                                                                                                                                                                                                                                                                                                                                                                                                                                                                                                                                                                                        gemm_41   | 
------ ----------------------------------------------- -------------------------------------------------------------------------------------------------------------------------------------------------------------------------------------------------------------------------------------------------------------------------------------------------------------------------------------------------------------------------------------------------------------------------------------------------------------------------------------------------- ------------- ------- ------------------------------- --- ----------------- ----------------- -------------------- 
54     nl_54 (Nonlinearity, TANH)                      [b:1,c:32]                                                                                                                                                                                                                                                                                                                                                                                                                                                                                                           320                      eltwise_53   |                   -288(-90.0%)      Nonlinearity_[21]    
------ ----------------------------------------------- -------------------------------------------------------------------------------------------------------------------------------------------------------------------------------------------------------------------------------------------------------------------------------------------------------------------------------------------------------------------------------------------------------------------------------------------------------------------------------------------------- ------------- ------- ------------------------------- --- ----------------- ----------------- -------------------- 
55     conversion_55 (Conversion, QUANTIZE)            [b:1,c:32]                                                                                                                                                                                                                                                                                                                                                                                                                                                                                                            64                           nl_54   |                                     Conversion_[22]      
------ ----------------------------------------------- -------------------------------------------------------------------------------------------------------------------------------------------------------------------------------------------------------------------------------------------------------------------------------------------------------------------------------------------------------------------------------------------------------------------------------------------------------------------------------------------------- ------------- ------- ------------------------------- --- ----------------- ----------------- -------------------- 
56     gemm_56 (Gemm, FULLY_CONNECTED)                 [b:1,c:32]                                                                                                                                                                                                                                                                                                                                                                                                                                                                                                         1,056                   conversion_55   | +1,152(+100.0%)                     Dense_[23]           
                                                                                                                                                                                                                                                                                                                                                                                                                                                                                                                                                                                           tfl_pseudo_qconst101   | 
------ ----------------------------------------------- -------------------------------------------------------------------------------------------------------------------------------------------------------------------------------------------------------------------------------------------------------------------------------------------------------------------------------------------------------------------------------------------------------------------------------------------------------------------------------------------------- ------------- ------- ------------------------------- --- ----------------- ----------------- -------------------- 
57     tfl_pseudo_qconst86 (Placeholder, )             [b:32]                                                                                                                                                                                                                                                                                                                                                                                                                                                                                             32/128                                                  | +288(+225.0%)     +320(+100.0%)     Dense_[179]          
       gemm_57 (Gemm, FULLY_CONNECTED)                 [b:1,c:32]                                                                                                                                                                                                                                                                                                                                                                                                                                                                                                           320                        unpack_3   |                   -320(-100.0%)     
                                                                                                                                                                                                                                                                                                                                                                                                                                                                                                                                                                                           tfl_pseudo_qconst100   | 
                                                                                                                                                                                                                                                                                                                                                                                                                                                                                                                                                                                            tfl_pseudo_qconst86   | 
------ ----------------------------------------------- -------------------------------------------------------------------------------------------------------------------------------------------------------------------------------------------------------------------------------------------------------------------------------------------------------------------------------------------------------------------------------------------------------------------------------------------------------------------------------------------------- ------------- ------- ------------------------------- --- ----------------- ----------------- -------------------- 
58     tfl_pseudo_qconst87 (Placeholder, )             [b:32]                                                                                                                                                                                                                                                                                                                                                                                                                                                                                             32/128                                                  | +288(+225.0%)     +320(+100.0%)     Dense_[184]          
…
337     280    gemm_280 (Dense)                    891   smul_s8_s8 
338     368    eltwise_368 (Eltwise/add)            27     op_s8_s8 
339     369    nl_369 (Nonlinearity)                27     op_s8_s8 
340     370    gemm_370 (Dense)                    756   smul_s8_s8 
341     281    gemm_281 (Dense)                    891   smul_s8_s8 
342     371    eltwise_371 (Eltwise/add)            27     op_s8_s8 
343     372    nl_372 (Nonlinearity)                27     op_s8_s8 
344     373    gemm_373 (Dense)                    756   smul_s8_s8 
345     286    gemm_286 (Dense)                    891   smul_s8_s8 
346     374    eltwise_374 (Eltwise/add)            27     op_s8_s8 
347     375    nl_375 (Nonlinearity)                27     op_s8_s8 
348     376    gemm_376 (Dense)                    756   smul_s8_s8 
349     287    gemm_287 (Dense)                    891   smul_s8_s8 
350     377    eltwise_377 (Eltwise/add)            27     op_s8_s8 
351     378    nl_378 (Nonlinearity)                27     op_s8_s8 
352     379    gemm_379 (Dense)                    756   smul_s8_s8 
353     288    gemm_288 (Dense)                    891   smul_s8_s8 
354     380    eltwise_380 (Eltwise/add)            27     op_s8_s8 
355     381    nl_381 (Nonlinearity)                27     op_s8_s8 
356     382    gemm_382 (Dense)                    756   smul_s8_s8 
357     289    gemm_289 (Dense)                    891   smul_s8_s8 
358     383    eltwise_383 (Eltwise/add)            27     op_s8_s8 
359     384    nl_384 (Nonlinearity)                27     op_s8_s8 
360     385    gemm_385 (Dense)                    756   smul_s8_s8 
361     290    gemm_290 (Dense)                    891   smul_s8_s8 
362     386    eltwise_386 (Eltwise/add)            27     op_s8_s8 
363     387    nl_387 (Nonlinearity)                27     op_s8_s8 
364     388    gemm_388 (Dense)                    756   smul_s8_s8 
365     291    gemm_291 (Dense)                    891   smul_s8_s8 
366     389    eltwise_389 (Eltwise/add)            27     op_s8_s8 
367     390    nl_390 (Nonlinearity)                27     op_s8_s8 
368     391    gemm_391 (Dense)                    756   smul_s8_s8 
369     292    gemm_292 (Dense)                    891   smul_s8_s8 
370     392    eltwise_392 (Eltwise/add)            27     op_s8_s8 
371     393    nl_393 (Nonlinearity)                27     op_s8_s8 
372     394    gemm_394 (Dense)                    756   smul_s8_s8 
373     293    gemm_293 (Dense)                    891   smul_s8_s8 
374     395    eltwise_395 (Eltwise/add)            27     op_s8_s8 
375     396    nl_396 (Nonlinearity)                27     op_s8_s8 
376     397    gemm_397 (Dense)                    756   smul_s8_s8 
377     294    gemm_294 (Dense)                    891   smul_s8_s8 
378     398    eltwise_398 (Eltwise/add)            27     op_s8_s8 
379     399    nl_399 (Nonlinearity)                27     op_s8_s8 
380     400    gemm_400 (Dense)                    756   smul_s8_s8 
381     295    gemm_295 (Dense)                    891   smul_s8_s8 
382     401    eltwise_401 (Eltwise/add)            27     op_s8_s8 
383     402    nl_402 (Nonlinearity)                27     op_s8_s8 
384     403    gemm_403 (Dense)                    756   smul_s8_s8 
385     300    gemm_300 (Dense)                    891   smul_s8_s8 
386     404    eltwise_404 (Eltwise/add)            27     op_s8_s8 
387     405    nl_405 (Nonlinearity)                27     op_s8_s8 
388     406    gemm_406 (Dense)                    756   smul_s8_s8 
389     301    gemm_301 (Dense)                    891   smul_s8_s8 
390     407    eltwise_407 (Eltwise/add)            27     op_s8_s8 
391     408    nl_408 (Nonlinearity)                27     op_s8_s8 
392     409    gemm_409 (Dense)                    756   smul_s8_s8 
393     302    gemm_302 (Dense)                    891   smul_s8_s8 
394     410    eltwise_410 (Eltwise/add)            27     op_s8_s8 
395     411    nl_411 (Nonlinearity)                27     op_s8_s8 
396     412    gemm_412 (Dense)                    756   smul_s8_s8 
397     303    gemm_303 (Dense)                    891   smul_s8_s8 
398     413    eltwise_413 (Eltwise/add)            27     op_s8_s8 
399     414    nl_414 (Nonlinearity)                27     op_s8_s8 
400     415    gemm_415 (Dense)                    756   smul_s8_s8 
401     304    gemm_304 (Dense)                    891   smul_s8_s8 
402     416    eltwise_416 (Eltwise/add)            27     op_s8_s8 
403     417    nl_417 (Nonlinearity)                27     op_s8_s8 
404     418    gemm_418 (Dense)                    756   smul_s8_s8 
405     305    gemm_305 (Dense)                    891   smul_s8_s8 
406     419    eltwise_419 (Eltwise/add)            27     op_s8_s8 
407     420    nl_420 (Nonlinearity)                27     op_s8_s8 
408     421    gemm_421 (Dense)                    756   smul_s8_s8 
409     306    gemm_306 (Dense)                    891   smul_s8_s8 
410     422    eltwise_422 (Eltwise/add)            27     op_s8_s8 
411     423    nl_423 (Nonlinearity)                27     op_s8_s8 
412     424    gemm_424 (Dense)                    756   smul_s8_s8 
413     307    gemm_307 (Dense)                    891   smul_s8_s8 
414     425    eltwise_425 (Eltwise/add)            27     op_s8_s8 
415     426    nl_426 (Nonlinearity)                27     op_s8_s8 
416     427    gemm_427 (Dense)                    756   smul_s8_s8 
417     308    gemm_308 (Dense)                    891   smul_s8_s8 
418     428    eltwise_428 (Eltwise/add)            27     op_s8_s8 
419     429    nl_429 (Nonlinearity)                27     op_s8_s8 
420     430    gemm_430 (Dense)                    756   smul_s8_s8 
421     309    gemm_309 (Dense)                    891   smul_s8_s8 
422     431    eltwise_431 (Eltwise/add)            27     op_s8_s8 
423     432    nl_432 (Nonlinearity)                27     op_s8_s8 
424     433    gemm_433 (Dense)                    756   smul_s8_s8 
425     434    gemm_434 (Dense)                    891   smul_s8_s8 
426     435    eltwise_435 (Eltwise/add)            27     op_s8_s8 
427     436    nl_436 (Nonlinearity)                27     op_s8_s8 
428     437    gemm_437 (Dense)                    756   smul_s8_s8 
429     438    gemm_438 (Dense)                    891   smul_s8_s8 
430     439    eltwise_439 (Eltwise/add)            27     op_s8_s8 
431     440    nl_440 (Nonlinearity)                27     op_s8_s8 
432     441    gemm_441 (Dense)                    756   smul_s8_s8 
433     442    gemm_442 (Dense)                    891   smul_s8_s8 
434     443    eltwise_443 (Eltwise/add)            27     op_s8_s8 
435     444    nl_444 (Nonlinearity)                27     op_s8_s8 
436     445    gemm_445 (Dense)                    672   smul_s8_s8 
------- ------ ----------------------------- --------- ------------ 
total                                          154,728 

Number of operation types
---------------- --------- ----------- 
operation type           #           % 
---------------- --------- ----------- 
smul_s8_s8         149,064       96.3% 
op_s8_s8             5,664        3.7% 

Complexity report (model)
------ ---------------------- ------------------------- ------------------------- ------- 
m_id   name                   c_macc                    c_rom                     c_id    
------ ---------------------- ------------------------- ------------------------- ------- 
2      transpose_2            ||||               0.1%   |                  0.0%   [2]     
3      unpack_3               |                  0.0%   |                  0.0%   [3]     
6      tfl_pseudo_qconst101   ||||||||||||||||   0.7%   ||||||||||||||||  28.3%   [0]     
7      tfl_pseudo_qconst100   |||||              0.2%   ||||||             9.9%   [4]     
8      eltwise_8              |                  0.0%   |                  0.0%   [5]     
9      nl_9                   |                  0.0%   |                  0.0%   [6]     
10     conversion_10          |                  0.0%   |                  0.0%   [7]     
11     gemm_11                ||||||||||||||||   0.7%   |||||||||||||||   27.5%   [8]     
12     tfl_pseudo_qconst53    |||||              0.2%   ||||||             9.9%   [29]    
13     tfl_pseudo_qconst54    |||||              0.2%   ||||||             9.9%   [34]    
14     tfl_pseudo_qconst55    |||||              0.2%   ||||||             9.9%   [39]    
15     tfl_pseudo_qconst56    |||||              0.2%   ||||||             9.9%   [44]    
16     tfl_pseudo_qconst57    |||||              0.2%   ||||||             9.9%   [49]    
17     tfl_pseudo_qconst58    |||||              0.2%   ||||||             9.9%   [54]    
18     tfl_pseudo_qconst59    |||||              0.2%   ||||||             9.9%   [59]    
19     tfl_pseudo_qconst60    |||||              0.2%   ||||||             9.9%   [64]    
20     tfl_pseudo_qconst61    |||||              0.2%   ||||||             9.9%   [69]    
21     tfl_pseudo_qconst62    |||||              0.2%   ||||||             9.9%   [74]    
22     tfl_pseudo_qconst63    |||||              0.2%   ||||||             9.9%   [9]     
23     eltwise_23             |                  0.0%   |                  0.0%   [10]    
24     nl_24                  |                  0.0%   |                  0.0%   [11]    
25     conversion_25          |                  0.0%   |                  0.0%   [12]    
26     gemm_26                ||||||||||||||||   0.7%   |||||||||||||||   27.5%   [13]    
27     tfl_pseudo_qconst64    |||||              0.2%   ||||||             9.9%   [79]    
28     tfl_pseudo_qconst65    |||||              0.2%   ||||||             9.9%   [84]    
29     tfl_pseudo_qconst66    |||||              0.2%   ||||||             9.9%   [89]    
30     tfl_pseudo_qconst67    |||||              0.2%   ||||||             9.9%   [94]    
31     tfl_pseudo_qconst68    |||||              0.2%   ||||||             9.9%   [99]    
32     tfl_pseudo_qconst69    |||||              0.2%   ||||||             9.9%   [104]   
33     tfl_pseudo_qconst70    |||||              0.2%   ||||||             9.9%   [109]   
34     tfl_pseudo_qconst71    |||||              0.2%   ||||||             9.9%   [114]   
35     tfl_pseudo_qconst72    |||||              0.2%   ||||||             9.9%   [119]   
36     tfl_pseudo_qconst73    |||||              0.2%   ||||||             9.9%   [124]   
37     tfl_pseudo_qconst74    |||||              0.2%   ||||||             9.9%   [14]    
38     eltwise_38             |                  0.0%   |                  0.0%   [15]    
39     nl_39                  |                  0.0%   |                  0.0%   [16]    
40     conversion_40          |                  0.0%   |                  0.0%   [17]    
41     gemm_41                ||||||||||||||||   0.7%   |||||||||||||||   27.5%   [18]    
42     tfl_pseudo_qconst75    |||||              0.2%   ||||||             9.9%   [129]   
43     tfl_pseudo_qconst76    |||||              0.2%   ||||||             9.9%   [134]   
44     tfl_pseudo_qconst77    |||||              0.2%   ||||||             9.9%   [139]   
45     tfl_pseudo_qconst78    |||||              0.2%   ||||||             9.9%   [144]   
46     tfl_pseudo_qconst79    |||||              0.2%   ||||||             9.9%   [149]   
47     tfl_pseudo_qconst80    |||||              0.2%   ||||||             9.9%   [154]   
48     tfl_pseudo_qconst81    |||||              0.2%   ||||||             9.9%   [159]   
49     tfl_pseudo_qconst82    |||||              0.2%   ||||||             9.9%   [164]   
50     tfl_pseudo_qconst83    |||||              0.2%   ||||||             9.9%   [169]   
51     tfl_pseudo_qconst84    |||||              0.2%   ||||||             9.9%   [174]   
52     tfl_pseudo_qconst85    |||||              0.2%   ||||||             9.9%   [19]    
53     eltwise_53             |                  0.0%   |                  0.0%   [20]    
54     nl_54                  |                  0.0%   |                  0.0%   [21]    
55     conversion_55          |                  0.0%   |                  0.0%   [22]    
56     gemm_56                ||||||||||||||||   0.7%   |||||||||||||||   27.5%   [23]    
57     tfl_pseudo_qconst86    |||||              0.2%   ||||||             9.9%   [179]   
58     tfl_pseudo_qconst87    |||||              0.2%   ||||||             9.9%   [184]   
59     tfl_pseudo_qconst88    |||||              0.2%   ||||||             9.9%   [189]   
60     tfl_pseudo_qconst89    |||||              0.2%   ||||||             9.9%   [194]   
61     tfl_pseudo_qconst90    |||||              0.2%   ||||||             9.9%   [199]   
62     tfl_pseudo_qconst91    |||||              0.2%   ||||||             9.9%   [204]   
63     tfl_pseudo_qconst92    |||||              0.2%   ||||||             9.9%   [209]   
64     tfl_pseudo_qconst93    |||||              0.2%   ||||||             9.9%   [214]   
65     tfl_pseudo_qconst94    |||||              0.2%   ||||||             9.9%   [219]   
66     tfl_pseudo_qconst95    |||||              0.2%   ||||||             9.9%   [224]   
67     tfl_pseudo_qconst96    |||||              0.2%   ||||||             9.9%   [24]    
68     eltwise_68             |                  0.0%   |                  0.0%   [25]    
69     nl_69                  |                  0.0%   |                  0.0%   [26]    
70     conversion_70          |                  0.0%   |                  0.0%   [27]    
71     gemm_71                ||||||||||||||||   0.7%   |||||||||||||||   27.5%   [28]    
72     eltwise_72             |                  0.0%   |                  0.0%   [30]    
73     nl_73                  |                  0.0%   |                  0.0%   [31]    
74     conversion_74          |                  0.0%   |                  0.0%   [32]    
75     gemm_75                ||||||||||||||||   0.7%   |||||||||||||||   27.5%   [33]    
76     eltwise_76             |                  0.0%   |                  0.0%   [35]    
77     nl_77                  |                  0.0%   |                  0.0%   [36]    
78     conversion_78          |                  0.0%   |                  0.0%   [37]    
79     gemm_79                ||||||||||||||||   0.7%   |||||||||||||||   27.5%   [38]    
80     eltwise_80             |                  0.0%   |                  0.0%   [40]    
81     nl_81                  |                  0.0%   |                  0.0%   [41]    
82     conversion_82          |                  0.0%   |                  0.0%   [42]    
83     gemm_83                ||||||||||||||||   0.7%   |||||||||||||||   27.5%   [43]    
84     eltwise_84             |                  0.0%   |                  0.0%   [45]    
85     nl_85                  |                  0.0%   |                  0.0%   [46]    
86     conversion_86          |                  0.0%   |                  0.0%   [47]    
87     gemm_87                ||||||||||||||||   0.7%   |||||||||||||||   27.5%   [48]    
88     eltwise_88             |                  0.0%   |                  0.0%   [50]    
89     nl_89                  |                  0.0%   |                  0.0%   [51]    
90     conversion_90          |                  0.0%   |                  0.0%   [52]    
91     gemm_91                ||||||||||||||||   0.7%   |||||||||||||||   27.5%   [53]    
92     eltwise_92             |                  0.0%   |                  0.0%   [55]    
93     nl_93                  |                  0.0%   |                  0.0%   [56]    
94     conversion_94          |                  0.0%   |                  0.0%   [57]    
95     gemm_95                ||||||||||||||||   0.7%   |||||||||||||||   27.5%   [58]    
96     eltwise_96             |                  0.0%   |                  0.0%   [60]    
97     nl_97                  |                  0.0%   |                  0.0%   [61]    
98     conversion_98          |                  0.0%   |                  0.0%   [62]    
99     gemm_99                ||||||||||||||||   0.7%   |||||||||||||||   27.5%   [63]    
100    eltwise_100            |                  0.0%   |                  0.0%   [65]    
101    nl_101                 |                  0.0%   |                  0.0%   [66]    
102    conversion_102         |                  0.0%   |                  0.0%   [67]    
103    gemm_103               ||||||||||||||||   0.7%   |||||||||||||||   27.5%   [68]    
104    eltwise_104            |                  0.0%   |                  0.0%   [70]    
105    nl_105                 |                  0.0%   |                  0.0%   [71]    
106    conversion_106         |                  0.0%   |                  0.0%   [72]    
107    gemm_107               ||||||||||||||||   0.7%   |||||||||||||||   27.5%   [73]    
108    eltwise_108            |                  0.0%   |                  0.0%   [75]    
109    nl_109                 |                  0.0%   |                  0.0%   [76]    
110    conversion_110         |                  0.0%   |                  0.0%   [77]    
111    gemm_111               ||||||||||||||||   0.7%   |||||||||||||||   27.5%   [78]    
112    eltwise_112            |                  0.0%   |                  0.0%   [80]    
113    nl_113                 |                  0.0%   |                  0.0%   [81]    
114    conversion_114         |                  0.0%   |                  0.0%   [82]    
115    gemm_115               ||||||||||||||||   0.7%   |||||||||||||||   27.5%   [83]    
116    eltwise_116            |                  0.0%   |                  0.0%   [85]    
117    nl_117                 |                  0.0%   |                  0.0%   [86]    
118    conversion_118         |                  0.0%   |                  0.0%   [87]    
119    gemm_119               ||||||||||||||||   0.7%   |||||||||||||||   27.5%   [88]    
120    eltwise_120            |                  0.0%   |                  0.0%   [90]    
121    nl_121                 |                  0.0%   |                  0.0%   [91]    
122    conversion_122         |                  0.0%   |                  0.0%   [92]    
123    gemm_123               ||||||||||||||||   0.7%   |||||||||||||||   27.5%   [93]    
124    eltwise_124            |                  0.0%   |                  0.0%   [95]    
125    nl_125                 |                  0.0%   |                  0.0%   [96]    
126    conversion_126         |                  0.0%   |                  0.0%   [97]    
127    gemm_127               ||||||||||||||||   0.7%   |||||||||||||||   27.5%   [98]    
128    eltwise_128            |                  0.0%   |                  0.0%   [100]   
129    nl_129                 |                  0.0%   |                  0.0%   [101]   
130    conversion_130         |                  0.0%   |                  0.0%   [102]   
131    gemm_131               ||||||||||||||||   0.7%   |||||||||||||||   27.5%   [103]   
132    eltwise_132            |                  0.0%   |                  0.0%   [105]   
133    nl_133                 |                  0.0%   |                  0.0%   [106]   
134    conversion_134         |                  0.0%   |                  0.0%   [107]   
135    gemm_135               ||||||||||||||||   0.7%   |||||||||||||||   27.5%   [108]   
136    eltwise_136            |                  0.0%   |                  0.0%   [110]   
137    nl_137                 |                  0.0%   |                  0.0%   [111]   
138    conversion_138         |                  0.0%   |                  0.0%   [112]   
139    gemm_139               ||||||||||||||||   0.7%   |||||||||||||||   27.5%   [113]   
140    eltwise_140            |                  0.0%   |                  0.0%   [115]   
141    nl_141                 |                  0.0%   |                  0.0%   [116]   
142    conversion_142         |                  0.0%   |                  0.0%   [117]   
143    gemm_143               ||||||||||||||||   0.7%   |||||||||||||||   27.5%   [118]   
144    eltwise_144            |                  0.0%   |                  0.0%   [120]   
145    nl_145                 |                  0.0%   |                  0.0%   [121]   
146    conversion_146         |                  0.0%   |                  0.0%   [122]   
147    gemm_147               ||||||||||||||||   0.7%   |||||||||||||||   27.5%   [123]   
148    eltwise_148            |                  0.0%   |                  0.0%   [125]   
149    nl_149                 |                  0.0%   |                  0.0%   [126]   
150    conversion_150         |                  0.0%   |                  0.0%   [127]   
151    gemm_151               ||||||||||||||||   0.7%   |||||||||||||||   27.5%   [128]   
152    eltwise_152            |                  0.0%   |                  0.0%   [130]   
153    nl_153                 |                  0.0%   |                  0.0%   [131]   
154    conversion_154         |                  0.0%   |                  0.0%   [132]   
155    gemm_155               ||||||||||||||||   0.7%   |||||||||||||||   27.5%   [133]   
156    eltwise_156            |                  0.0%   |                  0.0%   [135]   
157    nl_157                 |                  0.0%   |                  0.0%   [136]   
158    conversion_158         |                  0.0%   |                  0.0%   [137]   
159    gemm_159               ||||||||||||||||   0.7%   |||||||||||||||   27.5%   [138]   
160    eltwise_160            |                  0.0%   |                  0.0%   [140]   
161    nl_161                 |                  0.0%   |                  0.0%   [141]   
162    conversion_162         |                  0.0%   |                  0.0%   [142]   
163    gemm_163               ||||||||||||||||   0.7%   |||||||||||||||   27.5%   [143]   
164    eltwise_164            |                  0.0%   |                  0.0%   [145]   
165    nl_165                 |                  0.0%   |                  0.0%   [146]   
166    conversion_166         |                  0.0%   |                  0.0%   [147]   
167    gemm_167               ||||||||||||||||   0.7%   |||||||||||||||   27.5%   [148]   
168    eltwise_168            |                  0.0%   |                  0.0%   [150]   
169    nl_169                 |                  0.0%   |                  0.0%   [151]   
170    conversion_170         |                  0.0%   |                  0.0%   [152]   
171    gemm_171               ||||||||||||||||   0.7%   |||||||||||||||   27.5%   [153]   
172    eltwise_172            |                  0.0%   |                  0.0%   [155]   
173    nl_173                 |                  0.0%   |                  0.0%   [156]   
174    conversion_174         |                  0.0%   |                  0.0%   [157]   
175    gemm_175               ||||||||||||||||   0.7%   |||||||||||||||   27.5%   [158]   
176    eltwise_176            |                  0.0%   |                  0.0%   [160]   
177    nl_177                 |                  0.0%   |                  0.0%   [161]   
178    conversion_178         |                  0.0%   |                  0.0%   [162]   
179    gemm_179               ||||||||||||||||   0.7%   |||||||||||||||   27.5%   [163]   
180    eltwise_180            |                  0.0%   |                  0.0%   [165]   
181    nl_181                 |                  0.0%   |                  0.0%   [166]   
182    conversion_182         |                  0.0%   |                  0.0%   [167]   
183    gemm_183               ||||||||||||||||   0.7%   |||||||||||||||   27.5%   [168]   
184    eltwise_184            |                  0.0%   |                  0.0%   [170]   
185    nl_185                 |                  0.0%   |                  0.0%   [171]   
186    conversion_186         |                  0.0%   |                  0.0%   [172]   
187    gemm_187               ||||||||||||||||   0.7%   |||||||||||||||   27.5%   [173]   
188    eltwise_188            |                  0.0%   |                  0.0%   [175]   
189    nl_189                 |                  0.0%   |                  0.0%   [176]   
190    conversion_190         |                  0.0%   |                  0.0%   [177]   
191    gemm_191               ||||||||||||||||   0.7%   |||||||||||||||   27.5%   [178]   
192    eltwise_192            |                  0.0%   |                  0.0%   [180]   
193    nl_193                 |                  0.0%   |                  0.0%   [181]   
194    conversion_194         |                  0.0%   |                  0.0%   [182]   
195    gemm_195               ||||||||||||||||   0.7%   |||||||||||||||   27.5%   [183]   
196    eltwise_196            |                  0.0%   |                  0.0%   [185]   
197    nl_197                 |                  0.0%   |                  0.0%   [186]   
198    conversion_198         |                  0.0%   |                  0.0%   [187]   
199    gemm_199               ||||||||||||||||   0.7%   |||||||||||||||   27.5%   [188]   
200    eltwise_200            |                  0.0%   |                  0.0%   [190]   
201    nl_201                 |                  0.0%   |                  0.0%   [191]   
202    conversion_202         |                  0.0%   |                  0.0%   [192]   
203    gemm_203               ||||||||||||||||   0.7%   |||||||||||||||   27.5%   [193]   
204    eltwise_204            |                  0.0%   |                  0.0%   [195]   
205    nl_205                 |                  0.0%   |                  0.0%   [196]   
206    conversion_206         |                  0.0%   |                  0.0%   [197]   
207    gemm_207               ||||||||||||||||   0.7%   |||||||||||||||   27.5%   [198]   
208    eltwise_208            |                  0.0%   |                  0.0%   [200]   
209    nl_209                 |                  0.0%   |                  0.0%   [201]   
210    conversion_210         |                  0.0%   |                  0.0%   [202]   
211    gemm_211               ||||||||||||||||   0.7%   |||||||||||||||   27.5%   [203]   
212    eltwise_212            |                  0.0%   |                  0.0%   [205]   
213    nl_213                 |                  0.0%   |                  0.0%   [206]   
214    conversion_214         |                  0.0%   |                  0.0%   [207]   
215    gemm_215               ||||||||||||||||   0.7%   |||||||||||||||   27.5%   [208]   
216    eltwise_216            |                  0.0%   |                  0.0%   [210]   
217    nl_217                 |                  0.0%   |                  0.0%   [211]   
218    conversion_218         |                  0.0%   |                  0.0%   [212]   
219    gemm_219               ||||||||||||||||   0.7%   |||||||||||||||   27.5%   [213]   
220    eltwise_220            |                  0.0%   |                  0.0%   [215]   
221    nl_221                 |                  0.0%   |                  0.0%   [216]   
222    conversion_222         |                  0.0%   |                  0.0%   [217]   
223    gemm_223               ||||||||||||||||   0.7%   |||||||||||||||   27.5%   [218]   
224    eltwise_224            |                  0.0%   |                  0.0%   [220]   
225    nl_225                 |                  0.0%   |                  0.0%   [221]   
226    conversion_226         |                  0.0%   |                  0.0%   [222]   
227    gemm_227               ||||||||||||||||   0.7%   |||||||||||||||   27.5%   [223]   
228    eltwise_228            |                  0.0%   |                  0.0%   [225]   
229    nl_229                 |                  0.0%   |                  0.0%   [226]   
230    conversion_230         |                  0.0%   |                  0.0%   [227]   
231    gemm_231               ||||||||||||||||   0.7%   |||||||||||||||   27.5%   [228]   
232    tfl_pseudo_qconst97    |||||              0.2%   ||||||             9.9%   [229]   
233    eltwise_233            |                  0.0%   |                  0.0%   [230]   
234    nl_234                 |                  0.0%   |                  0.0%   [231]   
235    conversion_235         |                  0.0%   |                  0.0%   [232]   
236    gemm_236               ||||||||||||||||   0.7%   |||||||||||||||   27.5%   [233]   
237    tfl_pseudo_qconst98    |||||              0.2%   ||||||             9.9%   [234]   
238    eltwise_238            |                  0.0%   |                  0.0%   [235]   
239    nl_239                 |                  0.0%   |                  0.0%   [236]   
240    conversion_240         |                  0.0%   |                  0.0%   [237]   
241    gemm_241               ||||||||||||||||   0.7%   |||||||||||||||   27.5%   [238]   
242    tfl_pseudo_qconst99    |||||              0.2%   ||||||             9.9%   [239]   
243    eltwise_243            |                  0.0%   |                  0.0%   [240]   
244    nl_244                 |                  0.0%   |                  0.0%   [241]   
245    conversion_245         |                  0.0%   |                  0.0%   [242]   
246    pack_246               |                  0.0%   |                  0.0%   [243]   
252    tfl_pseudo_qconst51    |||||||||||        0.5%   |||||||||||       20.7%   [1]     
253    unpack_253             |                  0.0%   |                  0.0%   [244]   
254    tfl_pseudo_qconst50    |||||||||||||      0.6%   |||||||||||||     23.2%   [245]   
255    eltwise_255            |                  0.0%   |                  0.0%   [246]   
256    nl_256                 |                  0.0%   |                  0.0%   [247]   
257    gemm_257               |||||||||||        0.5%   |||||||||||       20.0%   [248]   
258    tfl_pseudo_qconst3     |||||||||||||      0.6%   |||||||||||||     23.2%   [265]   
259    tfl_pseudo_qconst4     |||||||||||||      0.6%   |||||||||||||     23.2%   [269]   
260    tfl_pseudo_qconst5     |||||||||||||      0.6%   |||||||||||||     23.2%   [273]   
261    tfl_pseudo_qconst6     |||||||||||||      0.6%   |||||||||||||     23.2%   [277]   
262    tfl_pseudo_qconst7     |||||||||||||      0.6%   |||||||||||||     23.2%   [281]   
263    tfl_pseudo_qconst8     |||||||||||||      0.6%   |||||||||||||     23.2%   [285]   
264    tfl_pseudo_qconst9     |||||||||||||      0.6%   |||||||||||||     23.2%   [289]   
265    tfl_pseudo_qconst10    |||||||||||||      0.6%   |||||||||||||     23.2%   [293]   
266    tfl_pseudo_qconst11    |||||||||||||      0.6%   |||||||||||||     23.2%   [297]   
267    tfl_pseudo_qconst12    |||||||||||||      0.6%   |||||||||||||     23.2%   [301]   
268    tfl_pseudo_qconst13    |||||||||||||      0.6%   |||||||||||||     23.2%   [249]   
269    eltwise_269            |                  0.0%   |                  0.0%   [250]   
270    nl_270                 |                  0.0%   |                  0.0%   [251]   
271    gemm_271               |||||||||||        0.5%   |||||||||||       20.0%   [252]   
272    tfl_pseudo_qconst14    |||||||||||||      0.6%   |||||||||||||     23.2%   [305]   
273    tfl_pseudo_qconst15    |||||||||||||      0.6%   |||||||||||||     23.2%   [309]   
274    tfl_pseudo_qconst16    |||||||||||||      0.6%   |||||||||||||     23.2%   [313]   
275    tfl_pseudo_qconst17    |||||||||||||      0.6%   |||||||||||||     23.2%   [317]   
276    tfl_pseudo_qconst18    |||||||||||||      0.6%   |||||||||||||     23.2%   [321]   
277    tfl_pseudo_qconst19    |||||||||||||      0.6%   |||||||||||||     23.2%   [325]   
278    tfl_pseudo_qconst20    |||||||||||||      0.6%   |||||||||||||     23.2%   [329]   
279    tfl_pseudo_qconst21    |||||||||||||      0.6%   |||||||||||||     23.2%   [333]   
280    tfl_pseudo_qconst22    |||||||||||||      0.6%   |||||||||||||     23.2%   [337]   
281    tfl_pseudo_qconst23    |||||||||||||      0.6%   |||||||||||||     23.2%   [341]   
282    tfl_pseudo_qconst24    |||||||||||||      0.6%   |||||||||||||     23.2%   [253]   
283    eltwise_283            |                  0.0%   |                  0.0%   [254]   
284    nl_284                 |                  0.0%   |                  0.0%   [255]   
285    gemm_285               |||||||||||        0.5%   |||||||||||       20.0%   [256]   
286    tfl_pseudo_qconst25    |||||||||||||      0.6%   |||||||||||||     23.2%   [345]   
287    tfl_pseudo_qconst26    |||||||||||||      0.6%   |||||||||||||     23.2%   [349]   
288    tfl_pseudo_qconst27    |||||||||||||      0.6%   |||||||||||||     23.2%   [353]   
289    tfl_pseudo_qconst28    |||||||||||||      0.6%   |||||||||||||     23.2%   [357]   
290    tfl_pseudo_qconst29    |||||||||||||      0.6%   |||||||||||||     23.2%   [361]   
291    tfl_pseudo_qconst30    |||||||||||||      0.6%   |||||||||||||     23.2%   [365]   
292    tfl_pseudo_qconst31    |||||||||||||      0.6%   |||||||||||||     23.2%   [369]   
293    tfl_pseudo_qconst32    |||||||||||||      0.6%   |||||||||||||     23.2%   [373]   
294    tfl_pseudo_qconst33    |||||||||||||      0.6%   |||||||||||||     23.2%   [377]   
295    tfl_pseudo_qconst34    |||||||||||||      0.6%   |||||||||||||     23.2%   [381]   
296    tfl_pseudo_qconst35    |||||||||||||      0.6%   |||||||||||||     23.2%   [257]   
297    eltwise_297            |                  0.0%   |                  0.0%   [258]   
298    nl_298                 |                  0.0%   |                  0.0%   [259]   
299    gemm_299               |||||||||||        0.5%   |||||||||||       20.0%   [260]   
300    tfl_pseudo_qconst36    |||||||||||||      0.6%   |||||||||||||     23.2%   [385]   
301    tfl_pseudo_qconst37    |||||||||||||      0.6%   |||||||||||||     23.2%   [389]   
302    tfl_pseudo_qconst38    |||||||||||||      0.6%   |||||||||||||     23.2%   [393]   
303    tfl_pseudo_qconst39    |||||||||||||      0.6%   |||||||||||||     23.2%   [397]   
304    tfl_pseudo_qconst40    |||||||||||||      0.6%   |||||||||||||     23.2%   [401]   
305    tfl_pseudo_qconst41    |||||||||||||      0.6%   |||||||||||||     23.2%   [405]   
306    tfl_pseudo_qconst42    |||||||||||||      0.6%   |||||||||||||     23.2%   [409]   
307    tfl_pseudo_qconst43    |||||||||||||      0.6%   |||||||||||||     23.2%   [413]   
308    tfl_pseudo_qconst44    |||||||||||||      0.6%   |||||||||||||     23.2%   [417]   
309    tfl_pseudo_qconst45    |||||||||||||      0.6%   |||||||||||||     23.2%   [421]   
310    tfl_pseudo_qconst46    |||||||||||||      0.6%   |||||||||||||     23.2%   [261]   
311    eltwise_311            |                  0.0%   |                  0.0%   [262]   
312    nl_312                 |                  0.0%   |                  0.0%   [263]   
313    gemm_313               |||||||||||        0.5%   |||||||||||       20.0%   [264]   
314    eltwise_314            |                  0.0%   |                  0.0%   [266]   
315    nl_315                 |                  0.0%   |                  0.0%   [267]   
316    gemm_316               |||||||||||        0.5%   |||||||||||       20.0%   [268]   
317    eltwise_317            |                  0.0%   |                  0.0%   [270]   
318    nl_318                 |                  0.0%   |                  0.0%   [271]   
319    gemm_319               |||||||||||        0.5%   |||||||||||       20.0%   [272]   
320    eltwise_320            |                  0.0%   |                  0.0%   [274]   
321    nl_321                 |                  0.0%   |                  0.0%   [275]   
322    gemm_322               |||||||||||        0.5%   |||||||||||       20.0%   [276]   
323    eltwise_323            |                  0.0%   |                  0.0%   [278]   
324    nl_324                 |                  0.0%   |                  0.0%   [279]   
325    gemm_325               |||||||||||        0.5%   |||||||||||       20.0%   [280]   
326    eltwise_326            |                  0.0%   |                  0.0%   [282]   
327    nl_327                 |                  0.0%   |                  0.0%   [283]   
328    gemm_328               |||||||||||        0.5%   |||||||||||       20.0%   [284]   
329    eltwise_329            |                  0.0%   |                  0.0%   [286]   
330    nl_330                 |                  0.0%   |                  0.0%   [287]   
331    gemm_331               |||||||||||        0.5%   |||||||||||       20.0%   [288]   
332    eltwise_332            |                  0.0%   |                  0.0%   [290]   
333    nl_333                 |                  0.0%   |                  0.0%   [291]   
334    gemm_334               |||||||||||        0.5%   |||||||||||       20.0%   [292]   
335    eltwise_335            |                  0.0%   |                  0.0%   [294]   
336    nl_336                 |                  0.0%   |                  0.0%   [295]   
337    gemm_337               |||||||||||        0.5%   |||||||||||       20.0%   [296]   
338    eltwise_338            |                  0.0%   |                  0.0%   [298]   
339    nl_339                 |                  0.0%   |                  0.0%   [299]   
340    gemm_340               |||||||||||        0.5%   |||||||||||       20.0%   [300]   
341    eltwise_341            |                  0.0%   |                  0.0%   [302]   
342    nl_342                 |                  0.0%   |                  0.0%   [303]   
343    gemm_343               |||||||||||        0.5%   |||||||||||       20.0%   [304]   
344    eltwise_344            |                  0.0%   |                  0.0%   [306]   
345    nl_345                 |                  0.0%   |                  0.0%   [307]   
346    gemm_346               |||||||||||        0.5%   |||||||||||       20.0%   [308]   
347    eltwise_347            |                  0.0%   |                  0.0%   [310]   
348    nl_348                 |                  0.0%   |                  0.0%   [311]   
349    gemm_349               |||||||||||        0.5%   |||||||||||       20.0%   [312]   
350    eltwise_350            |                  0.0%   |                  0.0%   [314]   
351    nl_351                 |                  0.0%   |                  0.0%   [315]   
352    gemm_352               |||||||||||        0.5%   |||||||||||       20.0%   [316]   
353    eltwise_353            |                  0.0%   |                  0.0%   [318]   
354    nl_354                 |                  0.0%   |                  0.0%   [319]   
355    gemm_355               |||||||||||        0.5%   |||||||||||       20.0%   [320]   
356    eltwise_356            |                  0.0%   |                  0.0%   [322]   
357    nl_357                 |                  0.0%   |                  0.0%   [323]   
358    gemm_358               |||||||||||        0.5%   |||||||||||       20.0%   [324]   
359    eltwise_359            |                  0.0%   |                  0.0%   [326]   
360    nl_360                 |                  0.0%   |                  0.0%   [327]   
361    gemm_361               |||||||||||        0.5%   |||||||||||       20.0%   [328]   
362    eltwise_362            |                  0.0%   |                  0.0%   [330]   
363    nl_363                 |                  0.0%   |                  0.0%   [331]   
364    gemm_364               |||||||||||        0.5%   |||||||||||       20.0%   [332]   
365    eltwise_365            |                  0.0%   |                  0.0%   [334]   
366    nl_366                 |                  0.0%   |                  0.0%   [335]   
367    gemm_367               |||||||||||        0.5%   |||||||||||       20.0%   [336]   
368    eltwise_368            |                  0.0%   |                  0.0%   [338]   
369    nl_369                 |                  0.0%   |                  0.0%   [339]   
370    gemm_370               |||||||||||        0.5%   |||||||||||       20.0%   [340]   
371    eltwise_371            |                  0.0%   |                  0.0%   [342]   
372    nl_372                 |                  0.0%   |                  0.0%   [343]   
373    gemm_373               |||||||||||        0.5%   |||||||||||       20.0%   [344]   
374    eltwise_374            |                  0.0%   |                  0.0%   [346]   
375    nl_375                 |                  0.0%   |                  0.0%   [347]   
376    gemm_376               |||||||||||        0.5%   |||||||||||       20.0%   [348]   
377    eltwise_377            |                  0.0%   |                  0.0%   [350]   
378    nl_378                 |                  0.0%   |                  0.0%   [351]   
379    gemm_379               |||||||||||        0.5%   |||||||||||       20.0%   [352]   
380    eltwise_380            |                  0.0%   |                  0.0%   [354]   
381    nl_381                 |                  0.0%   |                  0.0%   [355]   
382    gemm_382               |||||||||||        0.5%   |||||||||||       20.0%   [356]   
383    eltwise_383            |                  0.0%   |                  0.0%   [358]   
384    nl_384                 |                  0.0%   |                  0.0%   [359]   
385    gemm_385               |||||||||||        0.5%   |||||||||||       20.0%   [360]   
386    eltwise_386            |                  0.0%   |                  0.0%   [362]   
387    nl_387                 |                  0.0%   |                  0.0%   [363]   
388    gemm_388               |||||||||||        0.5%   |||||||||||       20.0%   [364]   
389    eltwise_389            |                  0.0%   |                  0.0%   [366]   
390    nl_390                 |                  0.0%   |                  0.0%   [367]   
391    gemm_391               |||||||||||        0.5%   |||||||||||       20.0%   [368]   
392    eltwise_392            |                  0.0%   |                  0.0%   [370]   
393    nl_393                 |                  0.0%   |                  0.0%   [371]   
394    gemm_394               |||||||||||        0.5%   |||||||||||       20.0%   [372]   
395    eltwise_395            |                  0.0%   |                  0.0%   [374]   
396    nl_396                 |                  0.0%   |                  0.0%   [375]   
397    gemm_397               |||||||||||        0.5%   |||||||||||       20.0%   [376]   
398    eltwise_398            |                  0.0%   |                  0.0%   [378]   
399    nl_399                 |                  0.0%   |                  0.0%   [379]   
400    gemm_400               |||||||||||        0.5%   |||||||||||       20.0%   [380]   
401    eltwise_401            |                  0.0%   |                  0.0%   [382]   
402    nl_402                 |                  0.0%   |                  0.0%   [383]   
403    gemm_403               |||||||||||        0.5%   |||||||||||       20.0%   [384]   
404    eltwise_404            |                  0.0%   |                  0.0%   [386]   
405    nl_405                 |                  0.0%   |                  0.0%   [387]   
406    gemm_406               |||||||||||        0.5%   |||||||||||       20.0%   [388]   
407    eltwise_407            |                  0.0%   |                  0.0%   [390]   
408    nl_408                 |                  0.0%   |                  0.0%   [391]   
409    gemm_409               |||||||||||        0.5%   |||||||||||       20.0%   [392]   
410    eltwise_410            |                  0.0%   |                  0.0%   [394]   
411    nl_411                 |                  0.0%   |                  0.0%   [395]   
412    gemm_412               |||||||||||        0.5%   |||||||||||       20.0%   [396]   
413    eltwise_413            |                  0.0%   |                  0.0%   [398]   
414    nl_414                 |                  0.0%   |                  0.0%   [399]   
415    gemm_415               |||||||||||        0.5%   |||||||||||       20.0%   [400]   
416    eltwise_416            |                  0.0%   |                  0.0%   [402]   
417    nl_417                 |                  0.0%   |                  0.0%   [403]   
418    gemm_418               |||||||||||        0.5%   |||||||||||       20.0%   [404]   
419    eltwise_419            |                  0.0%   |                  0.0%   [406]   
420    nl_420                 |                  0.0%   |                  0.0%   [407]   
421    gemm_421               |||||||||||        0.5%   |||||||||||       20.0%   [408]   
422    eltwise_422            |                  0.0%   |                  0.0%   [410]   
423    nl_423                 |                  0.0%   |                  0.0%   [411]   
424    gemm_424               |||||||||||        0.5%   |||||||||||       20.0%   [412]   
425    eltwise_425            |                  0.0%   |                  0.0%   [414]   
426    nl_426                 |                  0.0%   |                  0.0%   [415]   
427    gemm_427               |||||||||||        0.5%   |||||||||||       20.0%   [416]   
428    eltwise_428            |                  0.0%   |                  0.0%   [418]   
429    nl_429                 |                  0.0%   |                  0.0%   [419]   
430    gemm_430               |||||||||||        0.5%   |||||||||||       20.0%   [420]   
431    eltwise_431            |                  0.0%   |                  0.0%   [422]   
432    nl_432                 |                  0.0%   |                  0.0%   [423]   
433    gemm_433               |||||||||||        0.5%   |||||||||||       20.0%   [424]   
434    tfl_pseudo_qconst47    |||||||||||||      0.6%   |||||||||||||     23.2%   [425]   
435    eltwise_435            |                  0.0%   |                  0.0%   [426]   
436    nl_436                 |                  0.0%   |                  0.0%   [427]   
437    gemm_437               |||||||||||        0.5%   |||||||||||       20.0%   [428]   
438    tfl_pseudo_qconst48    |||||||||||||      0.6%   |||||||||||||     23.2%   [429]   
439    eltwise_439            |                  0.0%   |                  0.0%   [430]   
440    nl_440                 |                  0.0%   |                  0.0%   [431]   
441    gemm_441               |||||||||||        0.5%   |||||||||||       20.0%   [432]   
442    tfl_pseudo_qconst49    |||||||||||||      0.6%   |||||||||||||     23.2%   [433]   
443    eltwise_443            |                  0.0%   |                  0.0%   [434]   
444    nl_444                 |                  0.0%   |                  0.0%   [435]   
445    tfl_pseudo_qconst1     ||||||||||         0.4%   ||||||||||        17.8%   [436]   
------ ---------------------- ------------------------- ------------------------- ------- 
macc=154,728 weights=4,184 act=3,152 ram_io=0
 
 Requested memory size by section - "stm32f7" target
 ------------------------------- -------- -------- -------- ------- 
 module                              text   rodata     data     bss 
 ------------------------------- -------- -------- -------- ------- 
 forecast_temp_ml_model.o           8,784   41,612   97,652   2,064 
 NetworkRuntime1020_CM7_GCC.a      10,580        0        0       0 
 forecast_temp_ml_model_data.o         48       16       88       0 
 lib (toolchain)*                       0        0        0       0 
 ------------------------------- -------- -------- -------- ------- 
 RT total**                        19,412   41,628   97,740   2,064 
 ------------------------------- -------- -------- -------- ------- 
 weights                                0    4,184        0       0 
 activations                            0        0        0   3,152 
 io                                     0        0        0       0 
 ------------------------------- -------- -------- -------- ------- 
 TOTAL                             19,412   45,812   97,740   5,216 
 ------------------------------- -------- -------- -------- ------- 
 *  toolchain objects (libm/libgcc*)
 ** RT AI runtime objects (kernels+infrastructure)
  
  Summary - "stm32f7" target
  ---------------------------------------------------
               FLASH (ro)      %*   RAM (rw)       % 
  ---------------------------------------------------
  RT total        158,780   97.4%     99,804   96.9% 
  ---------------------------------------------------
  TOTAL           162,964            102,956         
  ---------------------------------------------------
  *  rt/total


Generated files (7)
-------------------------------------------------------------------------------------------------------------- 
C:\Users\rishi_latchmepersad\.stm32cubemx\forecast_temp_ml_model_output\forecast_temp_ml_model_data_params.h   
C:\Users\rishi_latchmepersad\.stm32cubemx\forecast_temp_ml_model_output\forecast_temp_ml_model_data_params.c   
C:\Users\rishi_latchmepersad\.stm32cubemx\forecast_temp_ml_model_output\forecast_temp_ml_model_data.h          
C:\Users\rishi_latchmepersad\.stm32cubemx\forecast_temp_ml_model_output\forecast_temp_ml_model_data.c          
C:\Users\rishi_latchmepersad\.stm32cubemx\forecast_temp_ml_model_output\forecast_temp_ml_model_config.h        
C:\Users\rishi_latchmepersad\.stm32cubemx\forecast_temp_ml_model_output\forecast_temp_ml_model.h               
C:\Users\rishi_latchmepersad\.stm32cubemx\forecast_temp_ml_model_output\forecast_temp_ml_model.c               
